…
I0729 10:17:54.328964 19052 net.cpp:332] The NetState phase (0) differed from the phase (1) specified by a rule in layer accuracy_top5
I0729 10:17:54.337970 19052 net.cpp:58] Initializing net from parameters: 
state {
  phase: TRAIN
  level: 0
  stage: ""
}
layer {
  name: "data"
  type: "Data"
  top: "data"
  top: "label"
  include {
    phase: TRAIN
  }
  transform_param {
    crop_size: 227
    mean_value: 104
    mean_value: 117
    mean_value: 123
  }
  data_param {
    source: "D:/Master/master_graduate/dataset/test/squeezt-test1/train_LEVELDB"
    batch_size: 32
    backend: LEVELDB
  }
}
layer {
  name: "conv1"
  type: "Convolution"
  bottom: "data"
  top: "conv1"
  convolution_param {
    num_output: 64
    kernel_size: 3
    stride: 2
    weight_filler {
      type: "xavier"
    }
  }
}
layer {
  name: "relu_conv1"
  type: "ReLU"
  bottom: "conv1"
  top: "conv1"
}
layer {
  name: "pool1"
  type: "Pooling"
  bottom: "conv1"
  top: "pool1"
  pooling_param {
    pool: MAX
    kernel_size: 3
    stride: 2
  }
}
layer {
  name: "fire3/squeeze1x1"
  type: "Convolution"
  bottom: "pool1"
  top: "fire3/squeeze1x1"
  convolution_param {
    num_output: 16
    kernel_size: 1
    weight_filler {
      type: "xavier"
    }
  }
}
layer {
  name: "fire3/relu_squeeze1x1"
  type: "ReLU"
  bottom: "fire3/squeeze1x1"
  top: "fire3/squeeze1x1"
}
layer {
  name: "fire3/expand1x1"
  type: "Convolution"
  bottom: "fire3/squeeze1x1"
  top: "fire3/expand1x1"
  convolution_param {
    num_output: 64
    pad: 1
    kernel_size: 3
    weight_filler {
      type: "xavier"
    }
  }
}
layer {
  name: "fire3/relu_expand1x1"
  type: "ReLU"
  bottom: "fire3/expand1x1"
  top: "fire3/expand1x1"
}
layer {
  name: "fire3/expand3x3"
  type: "Convolution"
  bottom: "fire3/squeeze1x1"
  top: "fire3/expand3x3"
  convolution_param {
    num_output: 64
    pad: 2
    kernel_size: 5
    weight_filler {
      type: "xavier"
    }
  }
}
layer {
  name: "fire3/relu_expand3x3"
  type: "ReLU"
  bottom: "fire3/expand3x3"
  top: "fire3/expand3x3"
}
layer {
  name: "fire3/concat"
  type: "Concat"
  bottom: "fire3/expand1x1"
  bottom: "fire3/expand3x3"
  top: "fire3/concat"
}
layer {
  name: "pool3"
  type: "Pooling"
  bottom: "fire3/concat"
  top: "pool3"
  pooling_param {
    pool: MAX
    kernel_size: 3
    stride: 2
  }
}
layer {
  name: "fire5/squeeze1x1"
  type: "Convolution"
  bottom: "pool3"
  top: "fire5/squeeze1x1"
  convolution_param {
    num_output: 32
    kernel_size: 1
    weight_filler {
      type: "xavier"
    }
  }
}
layer {
  name: "fire5/relu_squeeze1x1"
  type: "ReLU"
  bottom: "fire5/squeeze1x1"
  top: "fire5/squeeze1x1"
}
layer {
  name: "fire5/expand1x1"
  type: "Convolution"
  bottom: "fire5/squeeze1x1"
  top: "fire5/expand1x1"
  convolution_param {
    num_output: 128
    pad: 1
    kernel_size: 3
    weight_filler {
      type: "xavier"
    }
  }
}
layer {
  name: "fire5/relu_expand1x1"
  type: "ReLU"
  bottom: "fire5/expand1x1"
  top: "fire5/expand1x1"
}
layer {
  name: "fire5/expand3x3"
  type: "Convolution"
  bottom: "fire5/squeeze1x1"
  top: "fire5/expand3x3"
  convolution_param {
    num_output: 128
    pad: 2
    kernel_size: 5
    weight_filler {
      type: "xavier"
    }
  }
}
layer {
  name: "fire5/relu_expand3x3"
  type: "ReLU"
  bottom: "fire5/expand3x3"
  top: "fire5/expand3x3"
}
layer {
  name: "fire5/concat"
  type: "Concat"
  bottom: "fire5/expand1x1"
  bottom: "fire5/expand3x3"
  top: "fire5/concat"
}
layer {
  name: "pool5"
  type: "Pooling"
  bottom: "fire5/concat"
  top: "pool5"
  pooling_param {
    pool: MAX
    kernel_size: 3
    stride: 2
  }
}
layer {
  name: "fire6/squeeze1x1"
  type: "Convolution"
  bottom: "pool5"
  top: "fire6/squeeze1x1"
  convolution_param {
    num_output: 48
    kernel_size: 1
    weight_filler {
      type: "xavier"
    }
  }
}
layer {
  name: "fire6/relu_squeeze1x1"
  type: "ReLU"
  bottom: "fire6/squeeze1x1"
  top: "fire6/squeeze1x1"
}
layer {
  name: "fire6/expand1x1"
  type: "Convolution"
  bottom: "fire6/squeeze1x1"
  top: "fire6/expand1x1"
  convolution_param {
    num_output: 192
    pad: 1
    kernel_size: 3
    weight_filler {
      type: "xavier"
    }
  }
}
layer {
  name: "fire6/relu_expand1x1"
  type: "ReLU"
  bottom: "fire6/expand1x1"
  top: "fire6/expand1x1"
}
layer {
  name: "fire6/expand3x3"
  type: "Convolution"
  bottom: "fire6/squeeze1x1"
  top: "fire6/expand3x3"
  convolution_param {
    num_output: 192
    pad: 2
    kernel_size: 5
    weight_filler {
      type: "xavier"
    }
  }
}
layer {
  name: "fire6/relu_expand3x3"
  type: "ReLU"
  bottom: "fire6/expand3x3"
  top: "fire6/expand3x3"
}
layer {
  name: "fire6/concat"
  type: "Concat"
  bottom: "fire6/expand1x1"
  bottom: "fire6/expand3x3"
  top: "fire6/concat"
}
layer {
  name: "pool6"
  type: "Pooling"
  bottom: "fire6/concat"
  top: "pool6"
  pooling_param {
    pool: MAX
    kernel_size: 3
    stride: 2
  }
}
layer {
  name: "fire7/squeeze1x1"
  type: "Convolution"
  bottom: "pool6"
  top: "fire7/squeeze1x1"
  convolution_param {
    num_output: 48
    kernel_size: 1
    weight_filler {
      type: "xavier"
    }
  }
}
layer {
  name: "fire7/relu_squeeze1x1"
  type: "ReLU"
  bottom: "fire7/squeeze1x1"
  top: "fire7/squeeze1x1"
}
layer {
  name: "fire7/expand1x1"
  type: "Convolution"
  bottom: "fire7/squeeze1x1"
  top: "fire7/expand1x1"
  convolution_param {
    num_output: 192
    pad: 1
    kernel_size: 3
    weight_filler {
      type: "xavier"
    }
  }
}
layer {
  name: "fire7/relu_expand1x1"
  type: "ReLU"
  bottom: "fire7/expand1x1"
  top: "fire7/expand1x1"
}
layer {
  name: "fire7/expand3x3"
  type: "Convolution"
  bottom: "fire7/squeeze1x1"
  top: "fire7/expand3x3"
  convolution_param {
    num_output: 192
    pad: 2
    kernel_size: 5
    weight_filler {
      type: "xavier"
    }
  }
}
layer {
  name: "fire7/relu_expand3x3"
  type: "ReLU"
  bottom: "fire7/expand3x3"
  top: "fire7/expand3x3"
}
layer {
  name: "fire7/concat"
  type: "Concat"
  bottom: "fire7/expand1x1"
  bottom: "fire7/expand3x3"
  top: "fire7/concat"
}
layer {
  name: "pool7"
  type: "Pooling"
  bottom: "fire7/concat"
  top: "pool7"
  pooling_param {
    pool: MAX
    kernel_size: 3
    stride: 2
  }
}
layer {
  name: "fire8/squeeze1x1"
  type: "Convolution"
  bottom: "pool7"
  top: "fire8/squeeze1x1"
  convolution_param {
    num_output: 64
    kernel_size: 1
    weight_filler {
      type: "xavier"
    }
  }
}
layer {
  name: "fire8/relu_squeeze1x1"
  type: "ReLU"
  bottom: "fire8/squeeze1x1"
  top: "fire8/squeeze1x1"
}
layer {
  name: "fire8/expand1x1"
  type: "Convolution"
  bottom: "fire8/squeeze1x1"
  top: "fire8/expand1x1"
  convolution_param {
    num_output: 256
    pad: 1
    kernel_size: 3
    weight_filler {
      type: "xavier"
    }
  }
}
layer {
  name: "fire8/relu_expand1x1"
  type: "ReLU"
  bottom: "fire8/expand1x1"
  top: "fire8/expand1x1"
}
layer {
  name: "fire8/expand3x3"
  type: "Convolution"
  bottom: "fire8/squeeze1x1"
  top: "fire8/expand3x3"
  convolution_param {
    num_output: 256
    pad: 2
    kernel_size: 5
    weight_filler {
      type: "xavier"
    }
  }
}
layer {
  name: "fire8/relu_expand3x3"
  type: "ReLU"
  bottom: "fire8/expand3x3"
  top: "fire8/expand3x3"
}
layer {
  name: "fire8/concat"
  type: "Concat"
  bottom: "fire8/expand1x1"
  bottom: "fire8/expand3x3"
  top: "fire8/concat"
}
layer {
  name: "pool8"
  type: "Pooling"
  bottom: "fire8/concat"
  top: "pool8"
  pooling_param {
    pool: MAX
    kernel_size: 3
    stride: 2
  }
}
layer {
  name: "fire9/squeeze1x1"
  type: "Convolution"
  bottom: "pool8"
  top: "fire9/squeeze1x1"
  convolution_param {
    num_output: 64
    kernel_size: 1
    weight_filler {
      type: "xavier"
    }
  }
}
layer {
  name: "fire9/relu_squeeze1x1"
  type: "ReLU"
  bottom: "fire9/squeeze1x1"
  top: "fire9/squeeze1x1"
}
layer {
  name: "fire9/expand1x1"
  type: "Convolution"
  bottom: "fire9/squeeze1x1"
  top: "fire9/expand1x1"
  convolution_param {
    num_output: 256
    pad: 2
    kernel_size: 3
    weight_filler {
      type: "xavier"
    }
  }
}
layer {
  name: "fire9/relu_expand1x1"
  type: "ReLU"
  bottom: "fire9/expand1x1"
  top: "fire9/expand1x1"
}
layer {
  name: "fire9/expand3x3"
  type: "Convolution"
  bottom: "fire9/squeeze1x1"
  top: "fire9/expand3x3"
  convolution_param {
    num_output: 256
    pad: 3
    kernel_size: 5
    weight_filler {
      type: "xavier"
    }
  }
}
layer {
  name: "fire9/relu_expand3x3"
  type: "ReLU"
  bottom: "fire9/expand3x3"
  top: "fire9/expand3x3"
}
layer {
  name: "fire9/concat"
  type: "Concat"
  bottom: "fire9/expand1x1"
  bottom: "fire9/expand3x3"
  top: "fire9/concat"
}
layer {
  name: "drop9"
  type: "Dropout"
  bottom: "fire9/concat"
  top: "fire9/concat"
  dropout_param {
    dropout_ratio: 0.5
  }
}
layer {
  name: "conv10"
  type: "Convolution"
  bottom: "fire9/concat"
  top: "conv10"
  convolution_param {
    num_output: 10
    kernel_size: 1
    weight_filler {
      type: "gaussian"
      mean: 0
      std: 0.01
    }
  }
}
layer {
  name: "relu_conv10"
  type: "ReLU"
  bottom: "conv10"
  top: "conv10"
}
layer {
  name: "pool10"
  type: "Pooling"
  bottom: "conv10"
  top: "pool10"
  pooling_param {
    pool: AVE
    global_pooling: true
  }
}
layer {
  name: "loss"
  type: "SoftmaxWithLoss"
  bottom: "pool10"
  bottom: "label"
  top: "loss"
  include {
    phase: TRAIN
  }
}
I0729 10:17:54.344974 19052 layer_factory.hpp:77] Creating layer data
I0729 10:17:54.344974 19052 net.cpp:100] Creating Layer data
I0729 10:17:54.344974 19052 net.cpp:418] data -> data
I0729 10:17:54.345975 19052 net.cpp:418] data -> label
I0729 10:17:54.362987 20764 db_leveldb.cpp:18] Opened leveldb D:/Master/master_graduate/dataset/test/squeezt-test1/train_LEVELDB
I0729 10:17:54.363988 19052 data_layer.cpp:41] output data size: 32,3,227,227
I0729 10:17:54.407018 19052 base_data_layer.cpp:69] Initializing prefetch
I0729 10:17:54.408020 19052 base_data_layer.cpp:72] Prefetch initialized.
I0729 10:17:54.408020 19052 net.cpp:150] Setting up data
I0729 10:17:54.409020 19052 net.cpp:157] Top shape: 32 3 227 227 (4946784)
I0729 10:17:54.413022 19052 net.cpp:157] Top shape: 32 (32)
I0729 10:17:54.413022 19052 net.cpp:165] Memory required for data: 19787264
I0729 10:17:54.413022 19052 layer_factory.hpp:77] Creating layer conv1
I0729 10:17:54.414024 19052 net.cpp:100] Creating Layer conv1
I0729 10:17:54.414024 19052 net.cpp:444] conv1 <- data
I0729 10:17:54.420027 19052 net.cpp:418] conv1 -> conv1
I0729 10:17:54.421028 19052 net.cpp:150] Setting up conv1
I0729 10:17:54.421028 19052 net.cpp:157] Top shape: 32 64 113 113 (26150912)
I0729 10:17:54.422029 19052 net.cpp:165] Memory required for data: 124390912
I0729 10:17:54.445045 19052 layer_factory.hpp:77] Creating layer relu_conv1
I0729 10:17:54.445045 19052 net.cpp:100] Creating Layer relu_conv1
I0729 10:17:54.445045 19052 net.cpp:444] relu_conv1 <- conv1
I0729 10:17:54.446048 19052 net.cpp:405] relu_conv1 -> conv1 (in-place)
I0729 10:17:54.446048 19052 net.cpp:150] Setting up relu_conv1
I0729 10:17:54.447047 19052 net.cpp:157] Top shape: 32 64 113 113 (26150912)
I0729 10:17:54.447047 19052 net.cpp:165] Memory required for data: 228994560
I0729 10:17:54.447047 19052 layer_factory.hpp:77] Creating layer pool1
I0729 10:17:54.447047 19052 net.cpp:100] Creating Layer pool1
I0729 10:17:54.448047 19052 net.cpp:444] pool1 <- conv1
I0729 10:17:54.448047 19052 net.cpp:418] pool1 -> pool1
I0729 10:17:54.449048 19052 net.cpp:150] Setting up pool1
I0729 10:17:54.449048 19052 net.cpp:157] Top shape: 32 64 56 56 (6422528)
I0729 10:17:54.449048 19052 net.cpp:165] Memory required for data: 254684672
I0729 10:17:54.449048 19052 layer_factory.hpp:77] Creating layer fire3/squeeze1x1
I0729 10:17:54.450049 19052 net.cpp:100] Creating Layer fire3/squeeze1x1
I0729 10:17:54.450049 19052 net.cpp:444] fire3/squeeze1x1 <- pool1
I0729 10:17:54.450049 19052 net.cpp:418] fire3/squeeze1x1 -> fire3/squeeze1x1
I0729 10:17:54.451051 19052 net.cpp:150] Setting up fire3/squeeze1x1
I0729 10:17:54.451051 19052 net.cpp:157] Top shape: 32 16 56 56 (1605632)
I0729 10:17:54.452050 19052 net.cpp:165] Memory required for data: 261107200
I0729 10:17:54.452050 19052 layer_factory.hpp:77] Creating layer fire3/relu_squeeze1x1
I0729 10:17:54.453052 19052 net.cpp:100] Creating Layer fire3/relu_squeeze1x1
I0729 10:17:54.453052 19052 net.cpp:444] fire3/relu_squeeze1x1 <- fire3/squeeze1x1
I0729 10:17:54.453052 19052 net.cpp:405] fire3/relu_squeeze1x1 -> fire3/squeeze1x1 (in-place)
I0729 10:17:54.453052 19052 net.cpp:150] Setting up fire3/relu_squeeze1x1
I0729 10:17:54.454051 19052 net.cpp:157] Top shape: 32 16 56 56 (1605632)
I0729 10:17:54.454051 19052 net.cpp:165] Memory required for data: 267529728
I0729 10:17:54.454051 19052 layer_factory.hpp:77] Creating layer fire3/squeeze1x1_fire3/relu_squeeze1x1_0_split
I0729 10:17:54.454051 19052 net.cpp:100] Creating Layer fire3/squeeze1x1_fire3/relu_squeeze1x1_0_split
I0729 10:17:54.454051 19052 net.cpp:444] fire3/squeeze1x1_fire3/relu_squeeze1x1_0_split <- fire3/squeeze1x1
I0729 10:17:54.455052 19052 net.cpp:418] fire3/squeeze1x1_fire3/relu_squeeze1x1_0_split -> fire3/squeeze1x1_fire3/relu_squeeze1x1_0_split_0
I0729 10:17:54.455052 19052 net.cpp:418] fire3/squeeze1x1_fire3/relu_squeeze1x1_0_split -> fire3/squeeze1x1_fire3/relu_squeeze1x1_0_split_1
I0729 10:17:54.456053 19052 net.cpp:150] Setting up fire3/squeeze1x1_fire3/relu_squeeze1x1_0_split
I0729 10:17:54.456053 19052 net.cpp:157] Top shape: 32 16 56 56 (1605632)
I0729 10:17:54.456053 19052 net.cpp:157] Top shape: 32 16 56 56 (1605632)
I0729 10:17:54.456053 19052 net.cpp:165] Memory required for data: 280374784
I0729 10:17:54.456053 19052 layer_factory.hpp:77] Creating layer fire3/expand1x1
I0729 10:17:54.457054 19052 net.cpp:100] Creating Layer fire3/expand1x1
I0729 10:17:54.457054 19052 net.cpp:444] fire3/expand1x1 <- fire3/squeeze1x1_fire3/relu_squeeze1x1_0_split_0
I0729 10:17:54.457054 19052 net.cpp:418] fire3/expand1x1 -> fire3/expand1x1
I0729 10:17:54.460055 19052 net.cpp:150] Setting up fire3/expand1x1
I0729 10:17:54.460055 19052 net.cpp:157] Top shape: 32 64 56 56 (6422528)
I0729 10:17:54.461056 19052 net.cpp:165] Memory required for data: 306064896
I0729 10:17:54.462057 19052 layer_factory.hpp:77] Creating layer fire3/relu_expand1x1
I0729 10:17:54.462057 19052 net.cpp:100] Creating Layer fire3/relu_expand1x1
I0729 10:17:54.462057 19052 net.cpp:444] fire3/relu_expand1x1 <- fire3/expand1x1
I0729 10:17:54.462057 19052 net.cpp:405] fire3/relu_expand1x1 -> fire3/expand1x1 (in-place)
I0729 10:17:54.462057 19052 net.cpp:150] Setting up fire3/relu_expand1x1
I0729 10:17:54.462057 19052 net.cpp:157] Top shape: 32 64 56 56 (6422528)
I0729 10:17:54.462057 19052 net.cpp:165] Memory required for data: 331755008
I0729 10:17:54.462057 19052 layer_factory.hpp:77] Creating layer fire3/expand3x3
I0729 10:17:54.463057 19052 net.cpp:100] Creating Layer fire3/expand3x3
I0729 10:17:54.463057 19052 net.cpp:444] fire3/expand3x3 <- fire3/squeeze1x1_fire3/relu_squeeze1x1_0_split_1
I0729 10:17:54.463057 19052 net.cpp:418] fire3/expand3x3 -> fire3/expand3x3
I0729 10:17:54.471063 19052 net.cpp:150] Setting up fire3/expand3x3
I0729 10:17:54.471063 19052 net.cpp:157] Top shape: 32 64 56 56 (6422528)
I0729 10:17:54.471063 19052 net.cpp:165] Memory required for data: 357445120
I0729 10:17:54.472065 19052 layer_factory.hpp:77] Creating layer fire3/relu_expand3x3
I0729 10:17:54.472065 19052 net.cpp:100] Creating Layer fire3/relu_expand3x3
I0729 10:17:54.472065 19052 net.cpp:444] fire3/relu_expand3x3 <- fire3/expand3x3
I0729 10:17:54.472065 19052 net.cpp:405] fire3/relu_expand3x3 -> fire3/expand3x3 (in-place)
I0729 10:17:54.472065 19052 net.cpp:150] Setting up fire3/relu_expand3x3
I0729 10:17:54.473064 19052 net.cpp:157] Top shape: 32 64 56 56 (6422528)
I0729 10:17:54.473064 19052 net.cpp:165] Memory required for data: 383135232
I0729 10:17:54.473064 19052 layer_factory.hpp:77] Creating layer fire3/concat
I0729 10:17:54.473064 19052 net.cpp:100] Creating Layer fire3/concat
I0729 10:17:54.473064 19052 net.cpp:444] fire3/concat <- fire3/expand1x1
I0729 10:17:54.473064 19052 net.cpp:444] fire3/concat <- fire3/expand3x3
I0729 10:17:54.473064 19052 net.cpp:418] fire3/concat -> fire3/concat
I0729 10:17:54.474064 19052 net.cpp:150] Setting up fire3/concat
I0729 10:17:54.474064 19052 net.cpp:157] Top shape: 32 128 56 56 (12845056)
I0729 10:17:54.474064 19052 net.cpp:165] Memory required for data: 434515456
I0729 10:17:54.474064 19052 layer_factory.hpp:77] Creating layer pool3
I0729 10:17:54.474064 19052 net.cpp:100] Creating Layer pool3
I0729 10:17:54.474064 19052 net.cpp:444] pool3 <- fire3/concat
I0729 10:17:54.474064 19052 net.cpp:418] pool3 -> pool3
I0729 10:17:54.475065 19052 net.cpp:150] Setting up pool3
I0729 10:17:54.475065 19052 net.cpp:157] Top shape: 32 128 28 28 (3211264)
I0729 10:17:54.475065 19052 net.cpp:165] Memory required for data: 447360512
I0729 10:17:54.475065 19052 layer_factory.hpp:77] Creating layer fire5/squeeze1x1
I0729 10:17:54.475065 19052 net.cpp:100] Creating Layer fire5/squeeze1x1
I0729 10:17:54.475065 19052 net.cpp:444] fire5/squeeze1x1 <- pool3
I0729 10:17:54.475065 19052 net.cpp:418] fire5/squeeze1x1 -> fire5/squeeze1x1
I0729 10:17:54.476066 19052 net.cpp:150] Setting up fire5/squeeze1x1
I0729 10:17:54.476066 19052 net.cpp:157] Top shape: 32 32 28 28 (802816)
I0729 10:17:54.477067 19052 net.cpp:165] Memory required for data: 450571776
I0729 10:17:54.478068 19052 layer_factory.hpp:77] Creating layer fire5/relu_squeeze1x1
I0729 10:17:54.478068 19052 net.cpp:100] Creating Layer fire5/relu_squeeze1x1
I0729 10:17:54.479068 19052 net.cpp:444] fire5/relu_squeeze1x1 <- fire5/squeeze1x1
I0729 10:17:54.479068 19052 net.cpp:405] fire5/relu_squeeze1x1 -> fire5/squeeze1x1 (in-place)
I0729 10:17:54.479068 19052 net.cpp:150] Setting up fire5/relu_squeeze1x1
I0729 10:17:54.479068 19052 net.cpp:157] Top shape: 32 32 28 28 (802816)
I0729 10:17:54.479068 19052 net.cpp:165] Memory required for data: 453783040
I0729 10:17:54.479068 19052 layer_factory.hpp:77] Creating layer fire5/squeeze1x1_fire5/relu_squeeze1x1_0_split
I0729 10:17:54.479068 19052 net.cpp:100] Creating Layer fire5/squeeze1x1_fire5/relu_squeeze1x1_0_split
I0729 10:17:54.479068 19052 net.cpp:444] fire5/squeeze1x1_fire5/relu_squeeze1x1_0_split <- fire5/squeeze1x1
I0729 10:17:54.480069 19052 net.cpp:418] fire5/squeeze1x1_fire5/relu_squeeze1x1_0_split -> fire5/squeeze1x1_fire5/relu_squeeze1x1_0_split_0
I0729 10:17:54.480069 19052 net.cpp:418] fire5/squeeze1x1_fire5/relu_squeeze1x1_0_split -> fire5/squeeze1x1_fire5/relu_squeeze1x1_0_split_1
I0729 10:17:54.480069 19052 net.cpp:150] Setting up fire5/squeeze1x1_fire5/relu_squeeze1x1_0_split
I0729 10:17:54.480069 19052 net.cpp:157] Top shape: 32 32 28 28 (802816)
I0729 10:17:54.481070 19052 net.cpp:157] Top shape: 32 32 28 28 (802816)
I0729 10:17:54.481070 19052 net.cpp:165] Memory required for data: 460205568
I0729 10:17:54.481070 19052 layer_factory.hpp:77] Creating layer fire5/expand1x1
I0729 10:17:54.481070 19052 net.cpp:100] Creating Layer fire5/expand1x1
I0729 10:17:54.481070 19052 net.cpp:444] fire5/expand1x1 <- fire5/squeeze1x1_fire5/relu_squeeze1x1_0_split_0
I0729 10:17:54.481070 19052 net.cpp:418] fire5/expand1x1 -> fire5/expand1x1
I0729 10:17:54.495080 19052 net.cpp:150] Setting up fire5/expand1x1
I0729 10:17:54.496081 19052 net.cpp:157] Top shape: 32 128 28 28 (3211264)
I0729 10:17:54.496081 19052 net.cpp:165] Memory required for data: 473050624
I0729 10:17:54.496081 19052 layer_factory.hpp:77] Creating layer fire5/relu_expand1x1
I0729 10:17:54.496081 19052 net.cpp:100] Creating Layer fire5/relu_expand1x1
I0729 10:17:54.496081 19052 net.cpp:444] fire5/relu_expand1x1 <- fire5/expand1x1
I0729 10:17:54.496081 19052 net.cpp:405] fire5/relu_expand1x1 -> fire5/expand1x1 (in-place)
I0729 10:17:54.497082 19052 net.cpp:150] Setting up fire5/relu_expand1x1
I0729 10:17:54.497082 19052 net.cpp:157] Top shape: 32 128 28 28 (3211264)
I0729 10:17:54.497082 19052 net.cpp:165] Memory required for data: 485895680
I0729 10:17:54.497082 19052 layer_factory.hpp:77] Creating layer fire5/expand3x3
I0729 10:17:54.497082 19052 net.cpp:100] Creating Layer fire5/expand3x3
I0729 10:17:54.497082 19052 net.cpp:444] fire5/expand3x3 <- fire5/squeeze1x1_fire5/relu_squeeze1x1_0_split_1
I0729 10:17:54.497082 19052 net.cpp:418] fire5/expand3x3 -> fire5/expand3x3
I0729 10:17:54.518096 19052 net.cpp:150] Setting up fire5/expand3x3
I0729 10:17:54.518096 19052 net.cpp:157] Top shape: 32 128 28 28 (3211264)
I0729 10:17:54.518096 19052 net.cpp:165] Memory required for data: 498740736
I0729 10:17:54.519098 19052 layer_factory.hpp:77] Creating layer fire5/relu_expand3x3
I0729 10:17:54.519098 19052 net.cpp:100] Creating Layer fire5/relu_expand3x3
I0729 10:17:54.519098 19052 net.cpp:444] fire5/relu_expand3x3 <- fire5/expand3x3
I0729 10:17:54.519098 19052 net.cpp:405] fire5/relu_expand3x3 -> fire5/expand3x3 (in-place)
I0729 10:17:54.519098 19052 net.cpp:150] Setting up fire5/relu_expand3x3
I0729 10:17:54.519098 19052 net.cpp:157] Top shape: 32 128 28 28 (3211264)
I0729 10:17:54.520098 19052 net.cpp:165] Memory required for data: 511585792
I0729 10:17:54.520098 19052 layer_factory.hpp:77] Creating layer fire5/concat
I0729 10:17:54.520098 19052 net.cpp:100] Creating Layer fire5/concat
I0729 10:17:54.520098 19052 net.cpp:444] fire5/concat <- fire5/expand1x1
I0729 10:17:54.520098 19052 net.cpp:444] fire5/concat <- fire5/expand3x3
I0729 10:17:54.520098 19052 net.cpp:418] fire5/concat -> fire5/concat
I0729 10:17:54.520098 19052 net.cpp:150] Setting up fire5/concat
I0729 10:17:54.520098 19052 net.cpp:157] Top shape: 32 256 28 28 (6422528)
I0729 10:17:54.520098 19052 net.cpp:165] Memory required for data: 537275904
I0729 10:17:54.520098 19052 layer_factory.hpp:77] Creating layer pool5
I0729 10:17:54.521100 19052 net.cpp:100] Creating Layer pool5
I0729 10:17:54.521100 19052 net.cpp:444] pool5 <- fire5/concat
I0729 10:17:54.521100 19052 net.cpp:418] pool5 -> pool5
I0729 10:17:54.521100 19052 net.cpp:150] Setting up pool5
I0729 10:17:54.521100 19052 net.cpp:157] Top shape: 32 256 14 14 (1605632)
I0729 10:17:54.521100 19052 net.cpp:165] Memory required for data: 543698432
I0729 10:17:54.521100 19052 layer_factory.hpp:77] Creating layer fire6/squeeze1x1
I0729 10:17:54.521100 19052 net.cpp:100] Creating Layer fire6/squeeze1x1
I0729 10:17:54.521100 19052 net.cpp:444] fire6/squeeze1x1 <- pool5
I0729 10:17:54.522099 19052 net.cpp:418] fire6/squeeze1x1 -> fire6/squeeze1x1
I0729 10:17:54.524101 19052 net.cpp:150] Setting up fire6/squeeze1x1
I0729 10:17:54.524101 19052 net.cpp:157] Top shape: 32 48 14 14 (301056)
I0729 10:17:54.526103 19052 net.cpp:165] Memory required for data: 544902656
I0729 10:17:54.526103 19052 layer_factory.hpp:77] Creating layer fire6/relu_squeeze1x1
I0729 10:17:54.527103 19052 net.cpp:100] Creating Layer fire6/relu_squeeze1x1
I0729 10:17:54.527103 19052 net.cpp:444] fire6/relu_squeeze1x1 <- fire6/squeeze1x1
I0729 10:17:54.527103 19052 net.cpp:405] fire6/relu_squeeze1x1 -> fire6/squeeze1x1 (in-place)
I0729 10:17:54.527103 19052 net.cpp:150] Setting up fire6/relu_squeeze1x1
I0729 10:17:54.527103 19052 net.cpp:157] Top shape: 32 48 14 14 (301056)
I0729 10:17:54.527103 19052 net.cpp:165] Memory required for data: 546106880
I0729 10:17:54.527103 19052 layer_factory.hpp:77] Creating layer fire6/squeeze1x1_fire6/relu_squeeze1x1_0_split
I0729 10:17:54.527103 19052 net.cpp:100] Creating Layer fire6/squeeze1x1_fire6/relu_squeeze1x1_0_split
I0729 10:17:54.528105 19052 net.cpp:444] fire6/squeeze1x1_fire6/relu_squeeze1x1_0_split <- fire6/squeeze1x1
I0729 10:17:54.528105 19052 net.cpp:418] fire6/squeeze1x1_fire6/relu_squeeze1x1_0_split -> fire6/squeeze1x1_fire6/relu_squeeze1x1_0_split_0
I0729 10:17:54.528105 19052 net.cpp:418] fire6/squeeze1x1_fire6/relu_squeeze1x1_0_split -> fire6/squeeze1x1_fire6/relu_squeeze1x1_0_split_1
I0729 10:17:54.528105 19052 net.cpp:150] Setting up fire6/squeeze1x1_fire6/relu_squeeze1x1_0_split
I0729 10:17:54.528105 19052 net.cpp:157] Top shape: 32 48 14 14 (301056)
I0729 10:17:54.528105 19052 net.cpp:157] Top shape: 32 48 14 14 (301056)
I0729 10:17:54.528105 19052 net.cpp:165] Memory required for data: 548515328
I0729 10:17:54.529104 19052 layer_factory.hpp:77] Creating layer fire6/expand1x1
I0729 10:17:54.529104 19052 net.cpp:100] Creating Layer fire6/expand1x1
I0729 10:17:54.529104 19052 net.cpp:444] fire6/expand1x1 <- fire6/squeeze1x1_fire6/relu_squeeze1x1_0_split_0
I0729 10:17:54.529104 19052 net.cpp:418] fire6/expand1x1 -> fire6/expand1x1
I0729 10:17:54.548117 19052 net.cpp:150] Setting up fire6/expand1x1
I0729 10:17:54.549120 19052 net.cpp:157] Top shape: 32 192 14 14 (1204224)
I0729 10:17:54.549120 19052 net.cpp:165] Memory required for data: 553332224
I0729 10:17:54.549120 19052 layer_factory.hpp:77] Creating layer fire6/relu_expand1x1
I0729 10:17:54.549120 19052 net.cpp:100] Creating Layer fire6/relu_expand1x1
I0729 10:17:54.550119 19052 net.cpp:444] fire6/relu_expand1x1 <- fire6/expand1x1
I0729 10:17:54.550119 19052 net.cpp:405] fire6/relu_expand1x1 -> fire6/expand1x1 (in-place)
I0729 10:17:54.550119 19052 net.cpp:150] Setting up fire6/relu_expand1x1
I0729 10:17:54.550119 19052 net.cpp:157] Top shape: 32 192 14 14 (1204224)
I0729 10:17:54.550119 19052 net.cpp:165] Memory required for data: 558149120
I0729 10:17:54.550119 19052 layer_factory.hpp:77] Creating layer fire6/expand3x3
I0729 10:17:54.550119 19052 net.cpp:100] Creating Layer fire6/expand3x3
I0729 10:17:54.550119 19052 net.cpp:444] fire6/expand3x3 <- fire6/squeeze1x1_fire6/relu_squeeze1x1_0_split_1
I0729 10:17:54.550119 19052 net.cpp:418] fire6/expand3x3 -> fire6/expand3x3
I0729 10:17:54.639183 19052 net.cpp:150] Setting up fire6/expand3x3
I0729 10:17:54.640183 19052 net.cpp:157] Top shape: 32 192 14 14 (1204224)
I0729 10:17:54.640183 19052 net.cpp:165] Memory required for data: 562966016
I0729 10:17:54.640183 19052 layer_factory.hpp:77] Creating layer fire6/relu_expand3x3
I0729 10:17:54.640183 19052 net.cpp:100] Creating Layer fire6/relu_expand3x3
I0729 10:17:54.640183 19052 net.cpp:444] fire6/relu_expand3x3 <- fire6/expand3x3
I0729 10:17:54.640183 19052 net.cpp:405] fire6/relu_expand3x3 -> fire6/expand3x3 (in-place)
I0729 10:17:54.641183 19052 net.cpp:150] Setting up fire6/relu_expand3x3
I0729 10:17:54.641183 19052 net.cpp:157] Top shape: 32 192 14 14 (1204224)
I0729 10:17:54.641183 19052 net.cpp:165] Memory required for data: 567782912
I0729 10:17:54.641183 19052 layer_factory.hpp:77] Creating layer fire6/concat
I0729 10:17:54.641183 19052 net.cpp:100] Creating Layer fire6/concat
I0729 10:17:54.641183 19052 net.cpp:444] fire6/concat <- fire6/expand1x1
I0729 10:17:54.641183 19052 net.cpp:444] fire6/concat <- fire6/expand3x3
I0729 10:17:54.641183 19052 net.cpp:418] fire6/concat -> fire6/concat
I0729 10:17:54.641183 19052 net.cpp:150] Setting up fire6/concat
I0729 10:17:54.642184 19052 net.cpp:157] Top shape: 32 384 14 14 (2408448)
I0729 10:17:54.642184 19052 net.cpp:165] Memory required for data: 577416704
I0729 10:17:54.642184 19052 layer_factory.hpp:77] Creating layer pool6
I0729 10:17:54.642184 19052 net.cpp:100] Creating Layer pool6
I0729 10:17:54.642184 19052 net.cpp:444] pool6 <- fire6/concat
I0729 10:17:54.642184 19052 net.cpp:418] pool6 -> pool6
I0729 10:17:54.642184 19052 net.cpp:150] Setting up pool6
I0729 10:17:54.642184 19052 net.cpp:157] Top shape: 32 384 7 7 (602112)
I0729 10:17:54.642184 19052 net.cpp:165] Memory required for data: 579825152
I0729 10:17:54.642184 19052 layer_factory.hpp:77] Creating layer fire7/squeeze1x1
I0729 10:17:54.643185 19052 net.cpp:100] Creating Layer fire7/squeeze1x1
I0729 10:17:54.643185 19052 net.cpp:444] fire7/squeeze1x1 <- pool6
I0729 10:17:54.643185 19052 net.cpp:418] fire7/squeeze1x1 -> fire7/squeeze1x1
I0729 10:17:54.647188 19052 net.cpp:150] Setting up fire7/squeeze1x1
I0729 10:17:54.647188 19052 net.cpp:157] Top shape: 32 48 7 7 (75264)
I0729 10:17:54.647188 19052 net.cpp:165] Memory required for data: 580126208
I0729 10:17:54.647188 19052 layer_factory.hpp:77] Creating layer fire7/relu_squeeze1x1
I0729 10:17:54.648190 19052 net.cpp:100] Creating Layer fire7/relu_squeeze1x1
I0729 10:17:54.648190 19052 net.cpp:444] fire7/relu_squeeze1x1 <- fire7/squeeze1x1
I0729 10:17:54.648190 19052 net.cpp:405] fire7/relu_squeeze1x1 -> fire7/squeeze1x1 (in-place)
I0729 10:17:54.648190 19052 net.cpp:150] Setting up fire7/relu_squeeze1x1
I0729 10:17:54.648190 19052 net.cpp:157] Top shape: 32 48 7 7 (75264)
I0729 10:17:54.648190 19052 net.cpp:165] Memory required for data: 580427264
I0729 10:17:54.649189 19052 layer_factory.hpp:77] Creating layer fire7/squeeze1x1_fire7/relu_squeeze1x1_0_split
I0729 10:17:54.649189 19052 net.cpp:100] Creating Layer fire7/squeeze1x1_fire7/relu_squeeze1x1_0_split
I0729 10:17:54.649189 19052 net.cpp:444] fire7/squeeze1x1_fire7/relu_squeeze1x1_0_split <- fire7/squeeze1x1
I0729 10:17:54.649189 19052 net.cpp:418] fire7/squeeze1x1_fire7/relu_squeeze1x1_0_split -> fire7/squeeze1x1_fire7/relu_squeeze1x1_0_split_0
I0729 10:17:54.650194 19052 net.cpp:418] fire7/squeeze1x1_fire7/relu_squeeze1x1_0_split -> fire7/squeeze1x1_fire7/relu_squeeze1x1_0_split_1
I0729 10:17:54.650194 19052 net.cpp:150] Setting up fire7/squeeze1x1_fire7/relu_squeeze1x1_0_split
I0729 10:17:54.650194 19052 net.cpp:157] Top shape: 32 48 7 7 (75264)
I0729 10:17:54.651190 19052 net.cpp:157] Top shape: 32 48 7 7 (75264)
I0729 10:17:54.651190 19052 net.cpp:165] Memory required for data: 581029376
I0729 10:17:54.651190 19052 layer_factory.hpp:77] Creating layer fire7/expand1x1
I0729 10:17:54.651190 19052 net.cpp:100] Creating Layer fire7/expand1x1
I0729 10:17:54.651190 19052 net.cpp:444] fire7/expand1x1 <- fire7/squeeze1x1_fire7/relu_squeeze1x1_0_split_0
I0729 10:17:54.651190 19052 net.cpp:418] fire7/expand1x1 -> fire7/expand1x1
I0729 10:17:54.664199 19052 net.cpp:150] Setting up fire7/expand1x1
I0729 10:17:54.664199 19052 net.cpp:157] Top shape: 32 192 7 7 (301056)
I0729 10:17:54.665201 19052 net.cpp:165] Memory required for data: 582233600
I0729 10:17:54.665201 19052 layer_factory.hpp:77] Creating layer fire7/relu_expand1x1
I0729 10:17:54.665201 19052 net.cpp:100] Creating Layer fire7/relu_expand1x1
I0729 10:17:54.665201 19052 net.cpp:444] fire7/relu_expand1x1 <- fire7/expand1x1
I0729 10:17:54.665201 19052 net.cpp:405] fire7/relu_expand1x1 -> fire7/expand1x1 (in-place)
I0729 10:17:54.666201 19052 net.cpp:150] Setting up fire7/relu_expand1x1
I0729 10:17:54.666201 19052 net.cpp:157] Top shape: 32 192 7 7 (301056)
I0729 10:17:54.666201 19052 net.cpp:165] Memory required for data: 583437824
I0729 10:17:54.666201 19052 layer_factory.hpp:77] Creating layer fire7/expand3x3
I0729 10:17:54.666201 19052 net.cpp:100] Creating Layer fire7/expand3x3
I0729 10:17:54.667205 19052 net.cpp:444] fire7/expand3x3 <- fire7/squeeze1x1_fire7/relu_squeeze1x1_0_split_1
I0729 10:17:54.667205 19052 net.cpp:418] fire7/expand3x3 -> fire7/expand3x3
I0729 10:17:54.708230 19052 net.cpp:150] Setting up fire7/expand3x3
I0729 10:17:54.708230 19052 net.cpp:157] Top shape: 32 192 7 7 (301056)
I0729 10:17:54.708230 19052 net.cpp:165] Memory required for data: 584642048
I0729 10:17:54.708230 19052 layer_factory.hpp:77] Creating layer fire7/relu_expand3x3
I0729 10:17:54.708230 19052 net.cpp:100] Creating Layer fire7/relu_expand3x3
I0729 10:17:54.709231 19052 net.cpp:444] fire7/relu_expand3x3 <- fire7/expand3x3
I0729 10:17:54.709231 19052 net.cpp:405] fire7/relu_expand3x3 -> fire7/expand3x3 (in-place)
I0729 10:17:54.709231 19052 net.cpp:150] Setting up fire7/relu_expand3x3
I0729 10:17:54.709231 19052 net.cpp:157] Top shape: 32 192 7 7 (301056)
I0729 10:17:54.709231 19052 net.cpp:165] Memory required for data: 585846272
I0729 10:17:54.709231 19052 layer_factory.hpp:77] Creating layer fire7/concat
I0729 10:17:54.709231 19052 net.cpp:100] Creating Layer fire7/concat
I0729 10:17:54.709231 19052 net.cpp:444] fire7/concat <- fire7/expand1x1
I0729 10:17:54.710232 19052 net.cpp:444] fire7/concat <- fire7/expand3x3
I0729 10:17:54.710232 19052 net.cpp:418] fire7/concat -> fire7/concat
I0729 10:17:54.710232 19052 net.cpp:150] Setting up fire7/concat
I0729 10:17:54.710232 19052 net.cpp:157] Top shape: 32 384 7 7 (602112)
I0729 10:17:54.710232 19052 net.cpp:165] Memory required for data: 588254720
I0729 10:17:54.710232 19052 layer_factory.hpp:77] Creating layer pool7
I0729 10:17:54.710232 19052 net.cpp:100] Creating Layer pool7
I0729 10:17:54.711233 19052 net.cpp:444] pool7 <- fire7/concat
I0729 10:17:54.711233 19052 net.cpp:418] pool7 -> pool7
I0729 10:17:54.711233 19052 net.cpp:150] Setting up pool7
I0729 10:17:54.711233 19052 net.cpp:157] Top shape: 32 384 3 3 (110592)
I0729 10:17:54.711233 19052 net.cpp:165] Memory required for data: 588697088
I0729 10:17:54.711233 19052 layer_factory.hpp:77] Creating layer fire8/squeeze1x1
I0729 10:17:54.711233 19052 net.cpp:100] Creating Layer fire8/squeeze1x1
I0729 10:17:54.711233 19052 net.cpp:444] fire8/squeeze1x1 <- pool7
I0729 10:17:54.711233 19052 net.cpp:418] fire8/squeeze1x1 -> fire8/squeeze1x1
I0729 10:17:54.724242 19052 net.cpp:150] Setting up fire8/squeeze1x1
I0729 10:17:54.724242 19052 net.cpp:157] Top shape: 32 64 3 3 (18432)
I0729 10:17:54.724242 19052 net.cpp:165] Memory required for data: 588770816
I0729 10:17:54.725244 19052 layer_factory.hpp:77] Creating layer fire8/relu_squeeze1x1
I0729 10:17:54.725244 19052 net.cpp:100] Creating Layer fire8/relu_squeeze1x1
I0729 10:17:54.725244 19052 net.cpp:444] fire8/relu_squeeze1x1 <- fire8/squeeze1x1
I0729 10:17:54.725244 19052 net.cpp:405] fire8/relu_squeeze1x1 -> fire8/squeeze1x1 (in-place)
I0729 10:17:54.725244 19052 net.cpp:150] Setting up fire8/relu_squeeze1x1
I0729 10:17:54.725244 19052 net.cpp:157] Top shape: 32 64 3 3 (18432)
I0729 10:17:54.725244 19052 net.cpp:165] Memory required for data: 588844544
I0729 10:17:54.725244 19052 layer_factory.hpp:77] Creating layer fire8/squeeze1x1_fire8/relu_squeeze1x1_0_split
I0729 10:17:54.726243 19052 net.cpp:100] Creating Layer fire8/squeeze1x1_fire8/relu_squeeze1x1_0_split
I0729 10:17:54.726243 19052 net.cpp:444] fire8/squeeze1x1_fire8/relu_squeeze1x1_0_split <- fire8/squeeze1x1
I0729 10:17:54.726243 19052 net.cpp:418] fire8/squeeze1x1_fire8/relu_squeeze1x1_0_split -> fire8/squeeze1x1_fire8/relu_squeeze1x1_0_split_0
I0729 10:17:54.726243 19052 net.cpp:418] fire8/squeeze1x1_fire8/relu_squeeze1x1_0_split -> fire8/squeeze1x1_fire8/relu_squeeze1x1_0_split_1
I0729 10:17:54.726243 19052 net.cpp:150] Setting up fire8/squeeze1x1_fire8/relu_squeeze1x1_0_split
I0729 10:17:54.727244 19052 net.cpp:157] Top shape: 32 64 3 3 (18432)
I0729 10:17:54.727244 19052 net.cpp:157] Top shape: 32 64 3 3 (18432)
I0729 10:17:54.727244 19052 net.cpp:165] Memory required for data: 588992000
I0729 10:17:54.727244 19052 layer_factory.hpp:77] Creating layer fire8/expand1x1
I0729 10:17:54.727244 19052 net.cpp:100] Creating Layer fire8/expand1x1
I0729 10:17:54.727244 19052 net.cpp:444] fire8/expand1x1 <- fire8/squeeze1x1_fire8/relu_squeeze1x1_0_split_0
I0729 10:17:54.727244 19052 net.cpp:418] fire8/expand1x1 -> fire8/expand1x1
I0729 10:17:54.757264 19052 net.cpp:150] Setting up fire8/expand1x1
I0729 10:17:54.757264 19052 net.cpp:157] Top shape: 32 256 3 3 (73728)
I0729 10:17:54.757264 19052 net.cpp:165] Memory required for data: 589286912
I0729 10:17:54.757264 19052 layer_factory.hpp:77] Creating layer fire8/relu_expand1x1
I0729 10:17:54.757264 19052 net.cpp:100] Creating Layer fire8/relu_expand1x1
I0729 10:17:54.758266 19052 net.cpp:444] fire8/relu_expand1x1 <- fire8/expand1x1
I0729 10:17:54.758266 19052 net.cpp:405] fire8/relu_expand1x1 -> fire8/expand1x1 (in-place)
I0729 10:17:54.758266 19052 net.cpp:150] Setting up fire8/relu_expand1x1
I0729 10:17:54.758266 19052 net.cpp:157] Top shape: 32 256 3 3 (73728)
I0729 10:17:54.758266 19052 net.cpp:165] Memory required for data: 589581824
I0729 10:17:54.758266 19052 layer_factory.hpp:77] Creating layer fire8/expand3x3
I0729 10:17:54.759268 19052 net.cpp:100] Creating Layer fire8/expand3x3
I0729 10:17:54.759268 19052 net.cpp:444] fire8/expand3x3 <- fire8/squeeze1x1_fire8/relu_squeeze1x1_0_split_1
I0729 10:17:54.759268 19052 net.cpp:418] fire8/expand3x3 -> fire8/expand3x3
I0729 10:17:54.823312 20616 data_layer.cpp:102] Prefetch batch: 415 ms.
I0729 10:17:54.823312 20616 data_layer.cpp:103]      Read time: 1.002 ms.
I0729 10:17:54.823312 20616 data_layer.cpp:104] Transform time: 404.283 ms.
I0729 10:17:54.835320 19052 net.cpp:150] Setting up fire8/expand3x3
I0729 10:17:54.835320 19052 net.cpp:157] Top shape: 32 256 3 3 (73728)
I0729 10:17:54.835320 19052 net.cpp:165] Memory required for data: 589876736
I0729 10:17:54.835320 19052 layer_factory.hpp:77] Creating layer fire8/relu_expand3x3
I0729 10:17:54.835320 19052 net.cpp:100] Creating Layer fire8/relu_expand3x3
I0729 10:17:54.836323 19052 net.cpp:444] fire8/relu_expand3x3 <- fire8/expand3x3
I0729 10:17:54.836323 19052 net.cpp:405] fire8/relu_expand3x3 -> fire8/expand3x3 (in-place)
I0729 10:17:54.836323 19052 net.cpp:150] Setting up fire8/relu_expand3x3
I0729 10:17:54.836323 19052 net.cpp:157] Top shape: 32 256 3 3 (73728)
I0729 10:17:54.836323 19052 net.cpp:165] Memory required for data: 590171648
I0729 10:17:54.836323 19052 layer_factory.hpp:77] Creating layer fire8/concat
I0729 10:17:54.836323 19052 net.cpp:100] Creating Layer fire8/concat
I0729 10:17:54.836323 19052 net.cpp:444] fire8/concat <- fire8/expand1x1
I0729 10:17:54.836323 19052 net.cpp:444] fire8/concat <- fire8/expand3x3
I0729 10:17:54.836323 19052 net.cpp:418] fire8/concat -> fire8/concat
I0729 10:17:54.837323 19052 net.cpp:150] Setting up fire8/concat
I0729 10:17:54.837323 19052 net.cpp:157] Top shape: 32 512 3 3 (147456)
I0729 10:17:54.837323 19052 net.cpp:165] Memory required for data: 590761472
I0729 10:17:54.837323 19052 layer_factory.hpp:77] Creating layer pool8
I0729 10:17:54.837323 19052 net.cpp:100] Creating Layer pool8
I0729 10:17:54.837323 19052 net.cpp:444] pool8 <- fire8/concat
I0729 10:17:54.837323 19052 net.cpp:418] pool8 -> pool8
I0729 10:17:54.837323 19052 net.cpp:150] Setting up pool8
I0729 10:17:54.837323 19052 net.cpp:157] Top shape: 32 512 1 1 (16384)
I0729 10:17:54.837323 19052 net.cpp:165] Memory required for data: 590827008
I0729 10:17:54.838325 19052 layer_factory.hpp:77] Creating layer fire9/squeeze1x1
I0729 10:17:54.838325 19052 net.cpp:100] Creating Layer fire9/squeeze1x1
I0729 10:17:54.838325 19052 net.cpp:444] fire9/squeeze1x1 <- pool8
I0729 10:17:54.838325 19052 net.cpp:418] fire9/squeeze1x1 -> fire9/squeeze1x1
I0729 10:17:54.845329 19052 net.cpp:150] Setting up fire9/squeeze1x1
I0729 10:17:54.845329 19052 net.cpp:157] Top shape: 32 64 1 1 (2048)
I0729 10:17:54.845329 19052 net.cpp:165] Memory required for data: 590835200
I0729 10:17:54.845329 19052 layer_factory.hpp:77] Creating layer fire9/relu_squeeze1x1
I0729 10:17:54.845329 19052 net.cpp:100] Creating Layer fire9/relu_squeeze1x1
I0729 10:17:54.845329 19052 net.cpp:444] fire9/relu_squeeze1x1 <- fire9/squeeze1x1
I0729 10:17:54.846329 19052 net.cpp:405] fire9/relu_squeeze1x1 -> fire9/squeeze1x1 (in-place)
I0729 10:17:54.846329 19052 net.cpp:150] Setting up fire9/relu_squeeze1x1
I0729 10:17:54.846329 19052 net.cpp:157] Top shape: 32 64 1 1 (2048)
I0729 10:17:54.846329 19052 net.cpp:165] Memory required for data: 590843392
I0729 10:17:54.846329 19052 layer_factory.hpp:77] Creating layer fire9/squeeze1x1_fire9/relu_squeeze1x1_0_split
I0729 10:17:54.846329 19052 net.cpp:100] Creating Layer fire9/squeeze1x1_fire9/relu_squeeze1x1_0_split
I0729 10:17:54.846329 19052 net.cpp:444] fire9/squeeze1x1_fire9/relu_squeeze1x1_0_split <- fire9/squeeze1x1
I0729 10:17:54.846329 19052 net.cpp:418] fire9/squeeze1x1_fire9/relu_squeeze1x1_0_split -> fire9/squeeze1x1_fire9/relu_squeeze1x1_0_split_0
I0729 10:17:54.846329 19052 net.cpp:418] fire9/squeeze1x1_fire9/relu_squeeze1x1_0_split -> fire9/squeeze1x1_fire9/relu_squeeze1x1_0_split_1
I0729 10:17:54.847331 19052 net.cpp:150] Setting up fire9/squeeze1x1_fire9/relu_squeeze1x1_0_split
I0729 10:17:54.847331 19052 net.cpp:157] Top shape: 32 64 1 1 (2048)
I0729 10:17:54.847331 19052 net.cpp:157] Top shape: 32 64 1 1 (2048)
I0729 10:17:54.847331 19052 net.cpp:165] Memory required for data: 590859776
I0729 10:17:54.847331 19052 layer_factory.hpp:77] Creating layer fire9/expand1x1
I0729 10:17:54.847331 19052 net.cpp:100] Creating Layer fire9/expand1x1
I0729 10:17:54.847331 19052 net.cpp:444] fire9/expand1x1 <- fire9/squeeze1x1_fire9/relu_squeeze1x1_0_split_0
I0729 10:17:54.847331 19052 net.cpp:418] fire9/expand1x1 -> fire9/expand1x1
I0729 10:17:54.872346 19052 net.cpp:150] Setting up fire9/expand1x1
I0729 10:17:54.872346 19052 net.cpp:157] Top shape: 32 256 3 3 (73728)
I0729 10:17:54.872346 19052 net.cpp:165] Memory required for data: 591154688
I0729 10:17:54.872346 19052 layer_factory.hpp:77] Creating layer fire9/relu_expand1x1
I0729 10:17:54.872346 19052 net.cpp:100] Creating Layer fire9/relu_expand1x1
I0729 10:17:54.872346 19052 net.cpp:444] fire9/relu_expand1x1 <- fire9/expand1x1
I0729 10:17:54.872346 19052 net.cpp:405] fire9/relu_expand1x1 -> fire9/expand1x1 (in-place)
I0729 10:17:54.872346 19052 net.cpp:150] Setting up fire9/relu_expand1x1
I0729 10:17:54.872346 19052 net.cpp:157] Top shape: 32 256 3 3 (73728)
I0729 10:17:54.873347 19052 net.cpp:165] Memory required for data: 591449600
I0729 10:17:54.873347 19052 layer_factory.hpp:77] Creating layer fire9/expand3x3
I0729 10:17:54.873347 19052 net.cpp:100] Creating Layer fire9/expand3x3
I0729 10:17:54.873347 19052 net.cpp:444] fire9/expand3x3 <- fire9/squeeze1x1_fire9/relu_squeeze1x1_0_split_1
I0729 10:17:54.873347 19052 net.cpp:418] fire9/expand3x3 -> fire9/expand3x3
I0729 10:17:54.949403 19052 net.cpp:150] Setting up fire9/expand3x3
I0729 10:17:54.949403 19052 net.cpp:157] Top shape: 32 256 3 3 (73728)
I0729 10:17:54.949403 19052 net.cpp:165] Memory required for data: 591744512
I0729 10:17:54.949403 19052 layer_factory.hpp:77] Creating layer fire9/relu_expand3x3
I0729 10:17:54.950402 19052 net.cpp:100] Creating Layer fire9/relu_expand3x3
I0729 10:17:54.950402 19052 net.cpp:444] fire9/relu_expand3x3 <- fire9/expand3x3
I0729 10:17:54.950402 19052 net.cpp:405] fire9/relu_expand3x3 -> fire9/expand3x3 (in-place)
I0729 10:17:54.950402 19052 net.cpp:150] Setting up fire9/relu_expand3x3
I0729 10:17:54.950402 19052 net.cpp:157] Top shape: 32 256 3 3 (73728)
I0729 10:17:54.950402 19052 net.cpp:165] Memory required for data: 592039424
I0729 10:17:54.950402 19052 layer_factory.hpp:77] Creating layer fire9/concat
I0729 10:17:54.950402 19052 net.cpp:100] Creating Layer fire9/concat
I0729 10:17:54.950402 19052 net.cpp:444] fire9/concat <- fire9/expand1x1
I0729 10:17:54.951402 19052 net.cpp:444] fire9/concat <- fire9/expand3x3
I0729 10:17:54.951402 19052 net.cpp:418] fire9/concat -> fire9/concat
I0729 10:17:54.951402 19052 net.cpp:150] Setting up fire9/concat
I0729 10:17:54.951402 19052 net.cpp:157] Top shape: 32 512 3 3 (147456)
I0729 10:17:54.951402 19052 net.cpp:165] Memory required for data: 592629248
I0729 10:17:54.951402 19052 layer_factory.hpp:77] Creating layer drop9
I0729 10:17:54.951402 19052 net.cpp:100] Creating Layer drop9
I0729 10:17:54.951402 19052 net.cpp:444] drop9 <- fire9/concat
I0729 10:17:54.952404 19052 net.cpp:405] drop9 -> fire9/concat (in-place)
I0729 10:17:54.952404 19052 net.cpp:150] Setting up drop9
I0729 10:17:54.952404 19052 net.cpp:157] Top shape: 32 512 3 3 (147456)
I0729 10:17:54.952404 19052 net.cpp:165] Memory required for data: 593219072
I0729 10:17:54.952404 19052 layer_factory.hpp:77] Creating layer conv10
I0729 10:17:54.952404 19052 net.cpp:100] Creating Layer conv10
I0729 10:17:54.952404 19052 net.cpp:444] conv10 <- fire9/concat
I0729 10:17:54.952404 19052 net.cpp:418] conv10 -> conv10
I0729 10:17:54.985426 19052 net.cpp:150] Setting up conv10
I0729 10:17:54.985426 19052 net.cpp:157] Top shape: 32 10 3 3 (2880)
I0729 10:17:54.985426 19052 net.cpp:165] Memory required for data: 593230592
I0729 10:17:54.986428 19052 layer_factory.hpp:77] Creating layer relu_conv10
I0729 10:17:54.986428 19052 net.cpp:100] Creating Layer relu_conv10
I0729 10:17:54.986428 19052 net.cpp:444] relu_conv10 <- conv10
I0729 10:17:54.986428 19052 net.cpp:405] relu_conv10 -> conv10 (in-place)
I0729 10:17:54.986428 19052 net.cpp:150] Setting up relu_conv10
I0729 10:17:54.986428 19052 net.cpp:157] Top shape: 32 10 3 3 (2880)
I0729 10:17:54.986428 19052 net.cpp:165] Memory required for data: 593242112
I0729 10:17:54.987429 19052 layer_factory.hpp:77] Creating layer pool10
I0729 10:17:54.987429 19052 net.cpp:100] Creating Layer pool10
I0729 10:17:54.987429 19052 net.cpp:444] pool10 <- conv10
I0729 10:17:54.987429 19052 net.cpp:418] pool10 -> pool10
I0729 10:17:54.987429 19052 net.cpp:150] Setting up pool10
I0729 10:17:54.987429 19052 net.cpp:157] Top shape: 32 10 1 1 (320)
I0729 10:17:54.987429 19052 net.cpp:165] Memory required for data: 593243392
I0729 10:17:54.987429 19052 layer_factory.hpp:77] Creating layer loss
I0729 10:17:54.987429 19052 net.cpp:100] Creating Layer loss
I0729 10:17:54.988430 19052 net.cpp:444] loss <- pool10
I0729 10:17:54.988430 19052 net.cpp:444] loss <- label
I0729 10:17:54.988430 19052 net.cpp:418] loss -> loss
I0729 10:17:54.988430 19052 layer_factory.hpp:77] Creating layer loss
…
I0729 10:17:55.017449 19052 net.cpp:332] The NetState phase (1) differed from the phase (0) specified by a rule in layer loss
I0729 10:17:55.024454 19052 net.cpp:58] Initializing net from parameters: 
state {
  phase: TEST
}
layer {
  name: "data"
  type: "Data"
  top: "data"
  top: "label"
  include {
    phase: TEST
  }
  transform_param {
    crop_size: 227
    mean_value: 104
    mean_value: 117
    mean_value: 123
  }
  data_param {
    source: "D:/Master/master_graduate/dataset/test/squeezt-test1/test_LEVELDB"
    batch_size: 25
    backend: LEVELDB
  }
}
layer {
  name: "conv1"
  type: "Convolution"
  bottom: "data"
  top: "conv1"
  convolution_param {
    num_output: 64
    kernel_size: 3
    stride: 2
    weight_filler {
      type: "xavier"
    }
  }
}
layer {
  name: "relu_conv1"
  type: "ReLU"
  bottom: "conv1"
  top: "conv1"
}
layer {
  name: "pool1"
  type: "Pooling"
  bottom: "conv1"
  top: "pool1"
  pooling_param {
    pool: MAX
    kernel_size: 3
    stride: 2
  }
}
layer {
  name: "fire3/squeeze1x1"
  type: "Convolution"
  bottom: "pool1"
  top: "fire3/squeeze1x1"
  convolution_param {
    num_output: 16
    kernel_size: 1
    weight_filler {
      type: "xavier"
    }
  }
}
layer {
  name: "fire3/relu_squeeze1x1"
  type: "ReLU"
  bottom: "fire3/squeeze1x1"
  top: "fire3/squeeze1x1"
}
layer {
  name: "fire3/expand1x1"
  type: "Convolution"
  bottom: "fire3/squeeze1x1"
  top: "fire3/expand1x1"
  convolution_param {
    num_output: 64
    pad: 1
    kernel_size: 3
    weight_filler {
      type: "xavier"
    }
  }
}
layer {
  name: "fire3/relu_expand1x1"
  type: "ReLU"
  bottom: "fire3/expand1x1"
  top: "fire3/expand1x1"
}
layer {
  name: "fire3/expand3x3"
  type: "Convolution"
  bottom: "fire3/squeeze1x1"
  top: "fire3/expand3x3"
  convolution_param {
    num_output: 64
    pad: 2
    kernel_size: 5
    weight_filler {
      type: "xavier"
    }
  }
}
layer {
  name: "fire3/relu_expand3x3"
  type: "ReLU"
  bottom: "fire3/expand3x3"
  top: "fire3/expand3x3"
}
layer {
  name: "fire3/concat"
  type: "Concat"
  bottom: "fire3/expand1x1"
  bottom: "fire3/expand3x3"
  top: "fire3/concat"
}
layer {
  name: "pool3"
  type: "Pooling"
  bottom: "fire3/concat"
  top: "pool3"
  pooling_param {
    pool: MAX
    kernel_size: 3
    stride: 2
  }
}
layer {
  name: "fire5/squeeze1x1"
  type: "Convolution"
  bottom: "pool3"
  top: "fire5/squeeze1x1"
  convolution_param {
    num_output: 32
    kernel_size: 1
    weight_filler {
      type: "xavier"
    }
  }
}
layer {
  name: "fire5/relu_squeeze1x1"
  type: "ReLU"
  bottom: "fire5/squeeze1x1"
  top: "fire5/squeeze1x1"
}
layer {
  name: "fire5/expand1x1"
  type: "Convolution"
  bottom: "fire5/squeeze1x1"
  top: "fire5/expand1x1"
  convolution_param {
    num_output: 128
    pad: 1
    kernel_size: 3
    weight_filler {
      type: "xavier"
    }
  }
}
layer {
  name: "fire5/relu_expand1x1"
  type: "ReLU"
  bottom: "fire5/expand1x1"
  top: "fire5/expand1x1"
}
layer {
  name: "fire5/expand3x3"
  type: "Convolution"
  bottom: "fire5/squeeze1x1"
  top: "fire5/expand3x3"
  convolution_param {
    num_output: 128
    pad: 2
    kernel_size: 5
    weight_filler {
      type: "xavier"
    }
  }
}
layer {
  name: "fire5/relu_expand3x3"
  type: "ReLU"
  bottom: "fire5/expand3x3"
  top: "fire5/expand3x3"
}
layer {
  name: "fire5/concat"
  type: "Concat"
  bottom: "fire5/expand1x1"
  bottom: "fire5/expand3x3"
  top: "fire5/concat"
}
layer {
  name: "pool5"
  type: "Pooling"
  bottom: "fire5/concat"
  top: "pool5"
  pooling_param {
    pool: MAX
    kernel_size: 3
    stride: 2
  }
}
layer {
  name: "fire6/squeeze1x1"
  type: "Convolution"
  bottom: "pool5"
  top: "fire6/squeeze1x1"
  convolution_param {
    num_output: 48
    kernel_size: 1
    weight_filler {
      type: "xavier"
    }
  }
}
layer {
  name: "fire6/relu_squeeze1x1"
  type: "ReLU"
  bottom: "fire6/squeeze1x1"
  top: "fire6/squeeze1x1"
}
layer {
  name: "fire6/expand1x1"
  type: "Convolution"
  bottom: "fire6/squeeze1x1"
  top: "fire6/expand1x1"
  convolution_param {
    num_output: 192
    pad: 1
    kernel_size: 3
    weight_filler {
      type: "xavier"
    }
  }
}
layer {
  name: "fire6/relu_expand1x1"
  type: "ReLU"
  bottom: "fire6/expand1x1"
  top: "fire6/expand1x1"
}
layer {
  name: "fire6/expand3x3"
  type: "Convolution"
  bottom: "fire6/squeeze1x1"
  top: "fire6/expand3x3"
  convolution_param {
    num_output: 192
    pad: 2
    kernel_size: 5
    weight_filler {
      type: "xavier"
    }
  }
}
layer {
  name: "fire6/relu_expand3x3"
  type: "ReLU"
  bottom: "fire6/expand3x3"
  top: "fire6/expand3x3"
}
layer {
  name: "fire6/concat"
  type: "Concat"
  bottom: "fire6/expand1x1"
  bottom: "fire6/expand3x3"
  top: "fire6/concat"
}
layer {
  name: "pool6"
  type: "Pooling"
  bottom: "fire6/concat"
  top: "pool6"
  pooling_param {
    pool: MAX
    kernel_size: 3
    stride: 2
  }
}
layer {
  name: "fire7/squeeze1x1"
  type: "Convolution"
  bottom: "pool6"
  top: "fire7/squeeze1x1"
  convolution_param {
    num_output: 48
    kernel_size: 1
    weight_filler {
      type: "xavier"
    }
  }
}
layer {
  name: "fire7/relu_squeeze1x1"
  type: "ReLU"
  bottom: "fire7/squeeze1x1"
  top: "fire7/squeeze1x1"
}
layer {
  name: "fire7/expand1x1"
  type: "Convolution"
  bottom: "fire7/squeeze1x1"
  top: "fire7/expand1x1"
  convolution_param {
    num_output: 192
    pad: 1
    kernel_size: 3
    weight_filler {
      type: "xavier"
    }
  }
}
layer {
  name: "fire7/relu_expand1x1"
  type: "ReLU"
  bottom: "fire7/expand1x1"
  top: "fire7/expand1x1"
}
layer {
  name: "fire7/expand3x3"
  type: "Convolution"
  bottom: "fire7/squeeze1x1"
  top: "fire7/expand3x3"
  convolution_param {
    num_output: 192
    pad: 2
    kernel_size: 5
    weight_filler {
      type: "xavier"
    }
  }
}
layer {
  name: "fire7/relu_expand3x3"
  type: "ReLU"
  bottom: "fire7/expand3x3"
  top: "fire7/expand3x3"
}
layer {
  name: "fire7/concat"
  type: "Concat"
  bottom: "fire7/expand1x1"
  bottom: "fire7/expand3x3"
  top: "fire7/concat"
}
layer {
  name: "pool7"
  type: "Pooling"
  bottom: "fire7/concat"
  top: "pool7"
  pooling_param {
    pool: MAX
    kernel_size: 3
    stride: 2
  }
}
layer {
  name: "fire8/squeeze1x1"
  type: "Convolution"
  bottom: "pool7"
  top: "fire8/squeeze1x1"
  convolution_param {
    num_output: 64
    kernel_size: 1
    weight_filler {
      type: "xavier"
    }
  }
}
layer {
  name: "fire8/relu_squeeze1x1"
  type: "ReLU"
  bottom: "fire8/squeeze1x1"
  top: "fire8/squeeze1x1"
}
layer {
  name: "fire8/expand1x1"
  type: "Convolution"
  bottom: "fire8/squeeze1x1"
  top: "fire8/expand1x1"
  convolution_param {
    num_output: 256
    pad: 1
    kernel_size: 3
    weight_filler {
      type: "xavier"
    }
  }
}
layer {
  name: "fire8/relu_expand1x1"
  type: "ReLU"
  bottom: "fire8/expand1x1"
  top: "fire8/expand1x1"
}
layer {
  name: "fire8/expand3x3"
  type: "Convolution"
  bottom: "fire8/squeeze1x1"
  top: "fire8/expand3x3"
  convolution_param {
    num_output: 256
    pad: 2
    kernel_size: 5
    weight_filler {
      type: "xavier"
    }
  }
}
layer {
  name: "fire8/relu_expand3x3"
  type: "ReLU"
  bottom: "fire8/expand3x3"
  top: "fire8/expand3x3"
}
layer {
  name: "fire8/concat"
  type: "Concat"
  bottom: "fire8/expand1x1"
  bottom: "fire8/expand3x3"
  top: "fire8/concat"
}
layer {
  name: "pool8"
  type: "Pooling"
  bottom: "fire8/concat"
  top: "pool8"
  pooling_param {
    pool: MAX
    kernel_size: 3
    stride: 2
  }
}
layer {
  name: "fire9/squeeze1x1"
  type: "Convolution"
  bottom: "pool8"
  top: "fire9/squeeze1x1"
  convolution_param {
    num_output: 64
    kernel_size: 1
    weight_filler {
      type: "xavier"
    }
  }
}
layer {
  name: "fire9/relu_squeeze1x1"
  type: "ReLU"
  bottom: "fire9/squeeze1x1"
  top: "fire9/squeeze1x1"
}
layer {
  name: "fire9/expand1x1"
  type: "Convolution"
  bottom: "fire9/squeeze1x1"
  top: "fire9/expand1x1"
  convolution_param {
    num_output: 256
    pad: 2
    kernel_size: 3
    weight_filler {
      type: "xavier"
    }
  }
}
layer {
  name: "fire9/relu_expand1x1"
  type: "ReLU"
  bottom: "fire9/expand1x1"
  top: "fire9/expand1x1"
}
layer {
  name: "fire9/expand3x3"
  type: "Convolution"
  bottom: "fire9/squeeze1x1"
  top: "fire9/expand3x3"
  convolution_param {
    num_output: 256
    pad: 3
    kernel_size: 5
    weight_filler {
      type: "xavier"
    }
  }
}
layer {
  name: "fire9/relu_expand3x3"
  type: "ReLU"
  bottom: "fire9/expand3x3"
  top: "fire9/expand3x3"
}
layer {
  name: "fire9/concat"
  type: "Concat"
  bottom: "fire9/expand1x1"
  bottom: "fire9/expand3x3"
  top: "fire9/concat"
}
layer {
  name: "drop9"
  type: "Dropout"
  bottom: "fire9/concat"
  top: "fire9/concat"
  dropout_param {
    dropout_ratio: 0.5
  }
}
layer {
  name: "conv10"
  type: "Convolution"
  bottom: "fire9/concat"
  top: "conv10"
  convolution_param {
    num_output: 10
    kernel_size: 1
    weight_filler {
      type: "gaussian"
      mean: 0
      std: 0.01
    }
  }
}
layer {
  name: "relu_conv10"
  type: "ReLU"
  bottom: "conv10"
  top: "conv10"
}
layer {
  name: "pool10"
  type: "Pooling"
  bottom: "conv10"
  top: "pool10"
  pooling_param {
    pool: AVE
    global_pooling: true
  }
}
layer {
  name: "accuracy"
  type: "Accuracy"
  bottom: "pool10"
  bottom: "label"
  top: "accuracy"
  include {
    phase: TEST
  }
}
layer {
  name: "accuracy_top5"
  type: "Accuracy"
  bottom: "pool10"
  bottom: "label"
  top: "accuracy_top5"
  include {
    phase: TEST
  }
  accuracy_param {
    top_k: 5
  }
}
I0729 10:17:55.030460 19052 layer_factory.hpp:77] Creating layer data
I0729 10:17:55.031461 19052 net.cpp:100] Creating Layer data
I0729 10:17:55.031461 19052 net.cpp:418] data -> data
I0729 10:17:55.031461 19052 net.cpp:418] data -> label
I0729 10:17:55.061481 20704 db_leveldb.cpp:18] Opened leveldb D:/Master/master_graduate/dataset/test/squeezt-test1/test_LEVELDB
I0729 10:17:55.073488 19052 data_layer.cpp:41] output data size: 25,3,227,227
I0729 10:17:55.100512 19052 base_data_layer.cpp:69] Initializing prefetch
I0729 10:17:55.100512 19052 base_data_layer.cpp:72] Prefetch initialized.
I0729 10:17:55.100512 19052 net.cpp:150] Setting up data
I0729 10:17:55.101511 19052 net.cpp:157] Top shape: 25 3 227 227 (3864675)
I0729 10:17:55.102510 19052 net.cpp:157] Top shape: 25 (25)
I0729 10:17:55.102510 19052 net.cpp:165] Memory required for data: 15458800
I0729 10:17:55.102510 19052 layer_factory.hpp:77] Creating layer label_data_1_split
I0729 10:17:55.102510 19052 net.cpp:100] Creating Layer label_data_1_split
I0729 10:17:55.102510 19052 net.cpp:444] label_data_1_split <- label
I0729 10:17:55.102510 19052 net.cpp:418] label_data_1_split -> label_data_1_split_0
I0729 10:17:55.102510 19052 net.cpp:418] label_data_1_split -> label_data_1_split_1
I0729 10:17:55.103509 19052 net.cpp:150] Setting up label_data_1_split
I0729 10:17:55.103509 19052 net.cpp:157] Top shape: 25 (25)
I0729 10:17:55.103509 19052 net.cpp:157] Top shape: 25 (25)
I0729 10:17:55.103509 19052 net.cpp:165] Memory required for data: 15459000
I0729 10:17:55.103509 19052 layer_factory.hpp:77] Creating layer conv1
I0729 10:17:55.105512 19052 net.cpp:100] Creating Layer conv1
I0729 10:17:55.105512 19052 net.cpp:444] conv1 <- data
I0729 10:17:55.106513 19052 net.cpp:418] conv1 -> conv1
I0729 10:17:55.107513 19052 net.cpp:150] Setting up conv1
I0729 10:17:55.107513 19052 net.cpp:157] Top shape: 25 64 113 113 (20430400)
I0729 10:17:55.107513 19052 net.cpp:165] Memory required for data: 97180600
I0729 10:17:55.107513 19052 layer_factory.hpp:77] Creating layer relu_conv1
I0729 10:17:55.108515 19052 net.cpp:100] Creating Layer relu_conv1
I0729 10:17:55.108515 19052 net.cpp:444] relu_conv1 <- conv1
I0729 10:17:55.108515 19052 net.cpp:405] relu_conv1 -> conv1 (in-place)
I0729 10:17:55.108515 19052 net.cpp:150] Setting up relu_conv1
I0729 10:17:55.108515 19052 net.cpp:157] Top shape: 25 64 113 113 (20430400)
I0729 10:17:55.111516 19052 net.cpp:165] Memory required for data: 178902200
I0729 10:17:55.111516 19052 layer_factory.hpp:77] Creating layer pool1
I0729 10:17:55.112516 19052 net.cpp:100] Creating Layer pool1
I0729 10:17:55.112516 19052 net.cpp:444] pool1 <- conv1
I0729 10:17:55.112516 19052 net.cpp:418] pool1 -> pool1
I0729 10:17:55.113518 19052 net.cpp:150] Setting up pool1
I0729 10:17:55.113518 19052 net.cpp:157] Top shape: 25 64 56 56 (5017600)
I0729 10:17:55.113518 19052 net.cpp:165] Memory required for data: 198972600
I0729 10:17:55.113518 19052 layer_factory.hpp:77] Creating layer fire3/squeeze1x1
I0729 10:17:55.114518 19052 net.cpp:100] Creating Layer fire3/squeeze1x1
I0729 10:17:55.114518 19052 net.cpp:444] fire3/squeeze1x1 <- pool1
I0729 10:17:55.114518 19052 net.cpp:418] fire3/squeeze1x1 -> fire3/squeeze1x1
I0729 10:17:55.115520 19052 net.cpp:150] Setting up fire3/squeeze1x1
I0729 10:17:55.116523 19052 net.cpp:157] Top shape: 25 16 56 56 (1254400)
I0729 10:17:55.117521 19052 net.cpp:165] Memory required for data: 203990200
I0729 10:17:55.117521 19052 layer_factory.hpp:77] Creating layer fire3/relu_squeeze1x1
I0729 10:17:55.117521 19052 net.cpp:100] Creating Layer fire3/relu_squeeze1x1
I0729 10:17:55.118520 19052 net.cpp:444] fire3/relu_squeeze1x1 <- fire3/squeeze1x1
I0729 10:17:55.118520 19052 net.cpp:405] fire3/relu_squeeze1x1 -> fire3/squeeze1x1 (in-place)
I0729 10:17:55.118520 19052 net.cpp:150] Setting up fire3/relu_squeeze1x1
I0729 10:17:55.118520 19052 net.cpp:157] Top shape: 25 16 56 56 (1254400)
I0729 10:17:55.118520 19052 net.cpp:165] Memory required for data: 209007800
I0729 10:17:55.118520 19052 layer_factory.hpp:77] Creating layer fire3/squeeze1x1_fire3/relu_squeeze1x1_0_split
I0729 10:17:55.118520 19052 net.cpp:100] Creating Layer fire3/squeeze1x1_fire3/relu_squeeze1x1_0_split
I0729 10:17:55.119523 19052 net.cpp:444] fire3/squeeze1x1_fire3/relu_squeeze1x1_0_split <- fire3/squeeze1x1
I0729 10:17:55.120522 19052 net.cpp:418] fire3/squeeze1x1_fire3/relu_squeeze1x1_0_split -> fire3/squeeze1x1_fire3/relu_squeeze1x1_0_split_0
I0729 10:17:55.120522 19052 net.cpp:418] fire3/squeeze1x1_fire3/relu_squeeze1x1_0_split -> fire3/squeeze1x1_fire3/relu_squeeze1x1_0_split_1
I0729 10:17:55.120522 19052 net.cpp:150] Setting up fire3/squeeze1x1_fire3/relu_squeeze1x1_0_split
I0729 10:17:55.120522 19052 net.cpp:157] Top shape: 25 16 56 56 (1254400)
I0729 10:17:55.121523 19052 net.cpp:157] Top shape: 25 16 56 56 (1254400)
I0729 10:17:55.121523 19052 net.cpp:165] Memory required for data: 219043000
I0729 10:17:55.121523 19052 layer_factory.hpp:77] Creating layer fire3/expand1x1
I0729 10:17:55.121523 19052 net.cpp:100] Creating Layer fire3/expand1x1
I0729 10:17:55.121523 19052 net.cpp:444] fire3/expand1x1 <- fire3/squeeze1x1_fire3/relu_squeeze1x1_0_split_0
I0729 10:17:55.121523 19052 net.cpp:418] fire3/expand1x1 -> fire3/expand1x1
I0729 10:17:55.124524 19052 net.cpp:150] Setting up fire3/expand1x1
I0729 10:17:55.124524 19052 net.cpp:157] Top shape: 25 64 56 56 (5017600)
I0729 10:17:55.124524 19052 net.cpp:165] Memory required for data: 239113400
I0729 10:17:55.124524 19052 layer_factory.hpp:77] Creating layer fire3/relu_expand1x1
I0729 10:17:55.125526 19052 net.cpp:100] Creating Layer fire3/relu_expand1x1
I0729 10:17:55.125526 19052 net.cpp:444] fire3/relu_expand1x1 <- fire3/expand1x1
I0729 10:17:55.125526 19052 net.cpp:405] fire3/relu_expand1x1 -> fire3/expand1x1 (in-place)
I0729 10:17:55.125526 19052 net.cpp:150] Setting up fire3/relu_expand1x1
I0729 10:17:55.125526 19052 net.cpp:157] Top shape: 25 64 56 56 (5017600)
I0729 10:17:55.125526 19052 net.cpp:165] Memory required for data: 259183800
I0729 10:17:55.125526 19052 layer_factory.hpp:77] Creating layer fire3/expand3x3
I0729 10:17:55.125526 19052 net.cpp:100] Creating Layer fire3/expand3x3
I0729 10:17:55.125526 19052 net.cpp:444] fire3/expand3x3 <- fire3/squeeze1x1_fire3/relu_squeeze1x1_0_split_1
I0729 10:17:55.126526 19052 net.cpp:418] fire3/expand3x3 -> fire3/expand3x3
I0729 10:17:55.132534 19052 net.cpp:150] Setting up fire3/expand3x3
I0729 10:17:55.133532 19052 net.cpp:157] Top shape: 25 64 56 56 (5017600)
I0729 10:17:55.133532 19052 net.cpp:165] Memory required for data: 279254200
I0729 10:17:55.133532 19052 layer_factory.hpp:77] Creating layer fire3/relu_expand3x3
I0729 10:17:55.133532 19052 net.cpp:100] Creating Layer fire3/relu_expand3x3
I0729 10:17:55.133532 19052 net.cpp:444] fire3/relu_expand3x3 <- fire3/expand3x3
I0729 10:17:55.133532 19052 net.cpp:405] fire3/relu_expand3x3 -> fire3/expand3x3 (in-place)
I0729 10:17:55.134532 19052 net.cpp:150] Setting up fire3/relu_expand3x3
I0729 10:17:55.134532 19052 net.cpp:157] Top shape: 25 64 56 56 (5017600)
I0729 10:17:55.134532 19052 net.cpp:165] Memory required for data: 299324600
I0729 10:17:55.134532 19052 layer_factory.hpp:77] Creating layer fire3/concat
I0729 10:17:55.134532 19052 net.cpp:100] Creating Layer fire3/concat
I0729 10:17:55.134532 19052 net.cpp:444] fire3/concat <- fire3/expand1x1
I0729 10:17:55.134532 19052 net.cpp:444] fire3/concat <- fire3/expand3x3
I0729 10:17:55.134532 19052 net.cpp:418] fire3/concat -> fire3/concat
I0729 10:17:55.135534 19052 net.cpp:150] Setting up fire3/concat
I0729 10:17:55.135534 19052 net.cpp:157] Top shape: 25 128 56 56 (10035200)
I0729 10:17:55.135534 19052 net.cpp:165] Memory required for data: 339465400
I0729 10:17:55.135534 19052 layer_factory.hpp:77] Creating layer pool3
I0729 10:17:55.136533 19052 net.cpp:100] Creating Layer pool3
I0729 10:17:55.136533 19052 net.cpp:444] pool3 <- fire3/concat
I0729 10:17:55.136533 19052 net.cpp:418] pool3 -> pool3
I0729 10:17:55.136533 19052 net.cpp:150] Setting up pool3
I0729 10:17:55.136533 19052 net.cpp:157] Top shape: 25 128 28 28 (2508800)
I0729 10:17:55.137534 19052 net.cpp:165] Memory required for data: 349500600
I0729 10:17:55.137534 19052 layer_factory.hpp:77] Creating layer fire5/squeeze1x1
I0729 10:17:55.137534 19052 net.cpp:100] Creating Layer fire5/squeeze1x1
I0729 10:17:55.137534 19052 net.cpp:444] fire5/squeeze1x1 <- pool3
I0729 10:17:55.137534 19052 net.cpp:418] fire5/squeeze1x1 -> fire5/squeeze1x1
I0729 10:17:55.139535 19052 net.cpp:150] Setting up fire5/squeeze1x1
I0729 10:17:55.139535 19052 net.cpp:157] Top shape: 25 32 28 28 (627200)
I0729 10:17:55.139535 19052 net.cpp:165] Memory required for data: 352009400
I0729 10:17:55.140537 19052 layer_factory.hpp:77] Creating layer fire5/relu_squeeze1x1
I0729 10:17:55.140537 19052 net.cpp:100] Creating Layer fire5/relu_squeeze1x1
I0729 10:17:55.140537 19052 net.cpp:444] fire5/relu_squeeze1x1 <- fire5/squeeze1x1
I0729 10:17:55.140537 19052 net.cpp:405] fire5/relu_squeeze1x1 -> fire5/squeeze1x1 (in-place)
I0729 10:17:55.140537 19052 net.cpp:150] Setting up fire5/relu_squeeze1x1
I0729 10:17:55.140537 19052 net.cpp:157] Top shape: 25 32 28 28 (627200)
I0729 10:17:55.140537 19052 net.cpp:165] Memory required for data: 354518200
I0729 10:17:55.140537 19052 layer_factory.hpp:77] Creating layer fire5/squeeze1x1_fire5/relu_squeeze1x1_0_split
I0729 10:17:55.140537 19052 net.cpp:100] Creating Layer fire5/squeeze1x1_fire5/relu_squeeze1x1_0_split
I0729 10:17:55.141537 19052 net.cpp:444] fire5/squeeze1x1_fire5/relu_squeeze1x1_0_split <- fire5/squeeze1x1
I0729 10:17:55.141537 19052 net.cpp:418] fire5/squeeze1x1_fire5/relu_squeeze1x1_0_split -> fire5/squeeze1x1_fire5/relu_squeeze1x1_0_split_0
I0729 10:17:55.141537 19052 net.cpp:418] fire5/squeeze1x1_fire5/relu_squeeze1x1_0_split -> fire5/squeeze1x1_fire5/relu_squeeze1x1_0_split_1
I0729 10:17:55.141537 19052 net.cpp:150] Setting up fire5/squeeze1x1_fire5/relu_squeeze1x1_0_split
I0729 10:17:55.141537 19052 net.cpp:157] Top shape: 25 32 28 28 (627200)
I0729 10:17:55.141537 19052 net.cpp:157] Top shape: 25 32 28 28 (627200)
I0729 10:17:55.142537 19052 net.cpp:165] Memory required for data: 359535800
I0729 10:17:55.142537 19052 layer_factory.hpp:77] Creating layer fire5/expand1x1
I0729 10:17:55.142537 19052 net.cpp:100] Creating Layer fire5/expand1x1
I0729 10:17:55.142537 19052 net.cpp:444] fire5/expand1x1 <- fire5/squeeze1x1_fire5/relu_squeeze1x1_0_split_0
I0729 10:17:55.142537 19052 net.cpp:418] fire5/expand1x1 -> fire5/expand1x1
I0729 10:17:55.174561 19052 net.cpp:150] Setting up fire5/expand1x1
I0729 10:17:55.174561 19052 net.cpp:157] Top shape: 25 128 28 28 (2508800)
I0729 10:17:55.174561 19052 net.cpp:165] Memory required for data: 369571000
I0729 10:17:55.175560 19052 layer_factory.hpp:77] Creating layer fire5/relu_expand1x1
I0729 10:17:55.175560 19052 net.cpp:100] Creating Layer fire5/relu_expand1x1
I0729 10:17:55.175560 19052 net.cpp:444] fire5/relu_expand1x1 <- fire5/expand1x1
I0729 10:17:55.175560 19052 net.cpp:405] fire5/relu_expand1x1 -> fire5/expand1x1 (in-place)
I0729 10:17:55.175560 19052 net.cpp:150] Setting up fire5/relu_expand1x1
I0729 10:17:55.176561 19052 net.cpp:157] Top shape: 25 128 28 28 (2508800)
I0729 10:17:55.176561 19052 net.cpp:165] Memory required for data: 379606200
I0729 10:17:55.176561 19052 layer_factory.hpp:77] Creating layer fire5/expand3x3
I0729 10:17:55.176561 19052 net.cpp:100] Creating Layer fire5/expand3x3
I0729 10:17:55.176561 19052 net.cpp:444] fire5/expand3x3 <- fire5/squeeze1x1_fire5/relu_squeeze1x1_0_split_1
I0729 10:17:55.176561 19052 net.cpp:418] fire5/expand3x3 -> fire5/expand3x3
I0729 10:17:55.197576 19052 net.cpp:150] Setting up fire5/expand3x3
I0729 10:17:55.197576 19052 net.cpp:157] Top shape: 25 128 28 28 (2508800)
I0729 10:17:55.197576 19052 net.cpp:165] Memory required for data: 389641400
I0729 10:17:55.197576 19052 layer_factory.hpp:77] Creating layer fire5/relu_expand3x3
I0729 10:17:55.198578 19052 net.cpp:100] Creating Layer fire5/relu_expand3x3
I0729 10:17:55.198578 19052 net.cpp:444] fire5/relu_expand3x3 <- fire5/expand3x3
I0729 10:17:55.198578 19052 net.cpp:405] fire5/relu_expand3x3 -> fire5/expand3x3 (in-place)
I0729 10:17:55.198578 19052 net.cpp:150] Setting up fire5/relu_expand3x3
I0729 10:17:55.198578 19052 net.cpp:157] Top shape: 25 128 28 28 (2508800)
I0729 10:17:55.198578 19052 net.cpp:165] Memory required for data: 399676600
I0729 10:17:55.198578 19052 layer_factory.hpp:77] Creating layer fire5/concat
I0729 10:17:55.199579 19052 net.cpp:100] Creating Layer fire5/concat
I0729 10:17:55.199579 19052 net.cpp:444] fire5/concat <- fire5/expand1x1
I0729 10:17:55.199579 19052 net.cpp:444] fire5/concat <- fire5/expand3x3
I0729 10:17:55.199579 19052 net.cpp:418] fire5/concat -> fire5/concat
I0729 10:17:55.199579 19052 net.cpp:150] Setting up fire5/concat
I0729 10:17:55.199579 19052 net.cpp:157] Top shape: 25 256 28 28 (5017600)
I0729 10:17:55.199579 19052 net.cpp:165] Memory required for data: 419747000
I0729 10:17:55.200579 19052 layer_factory.hpp:77] Creating layer pool5
I0729 10:17:55.200579 19052 net.cpp:100] Creating Layer pool5
I0729 10:17:55.200579 19052 net.cpp:444] pool5 <- fire5/concat
I0729 10:17:55.200579 19052 net.cpp:418] pool5 -> pool5
I0729 10:17:55.200579 19052 net.cpp:150] Setting up pool5
I0729 10:17:55.200579 19052 net.cpp:157] Top shape: 25 256 14 14 (1254400)
I0729 10:17:55.200579 19052 net.cpp:165] Memory required for data: 424764600
I0729 10:17:55.200579 19052 layer_factory.hpp:77] Creating layer fire6/squeeze1x1
I0729 10:17:55.200579 19052 net.cpp:100] Creating Layer fire6/squeeze1x1
I0729 10:17:55.201578 19052 net.cpp:444] fire6/squeeze1x1 <- pool5
I0729 10:17:55.201578 19052 net.cpp:418] fire6/squeeze1x1 -> fire6/squeeze1x1
I0729 10:17:55.204581 19052 net.cpp:150] Setting up fire6/squeeze1x1
I0729 10:17:55.204581 19052 net.cpp:157] Top shape: 25 48 14 14 (235200)
I0729 10:17:55.204581 19052 net.cpp:165] Memory required for data: 425705400
I0729 10:17:55.204581 19052 layer_factory.hpp:77] Creating layer fire6/relu_squeeze1x1
I0729 10:17:55.204581 19052 net.cpp:100] Creating Layer fire6/relu_squeeze1x1
I0729 10:17:55.204581 19052 net.cpp:444] fire6/relu_squeeze1x1 <- fire6/squeeze1x1
I0729 10:17:55.204581 19052 net.cpp:405] fire6/relu_squeeze1x1 -> fire6/squeeze1x1 (in-place)
I0729 10:17:55.205582 19052 net.cpp:150] Setting up fire6/relu_squeeze1x1
I0729 10:17:55.205582 19052 net.cpp:157] Top shape: 25 48 14 14 (235200)
I0729 10:17:55.205582 19052 net.cpp:165] Memory required for data: 426646200
I0729 10:17:55.205582 19052 layer_factory.hpp:77] Creating layer fire6/squeeze1x1_fire6/relu_squeeze1x1_0_split
I0729 10:17:55.205582 19052 net.cpp:100] Creating Layer fire6/squeeze1x1_fire6/relu_squeeze1x1_0_split
I0729 10:17:55.205582 19052 net.cpp:444] fire6/squeeze1x1_fire6/relu_squeeze1x1_0_split <- fire6/squeeze1x1
I0729 10:17:55.205582 19052 net.cpp:418] fire6/squeeze1x1_fire6/relu_squeeze1x1_0_split -> fire6/squeeze1x1_fire6/relu_squeeze1x1_0_split_0
I0729 10:17:55.206583 19052 net.cpp:418] fire6/squeeze1x1_fire6/relu_squeeze1x1_0_split -> fire6/squeeze1x1_fire6/relu_squeeze1x1_0_split_1
I0729 10:17:55.206583 19052 net.cpp:150] Setting up fire6/squeeze1x1_fire6/relu_squeeze1x1_0_split
I0729 10:17:55.206583 19052 net.cpp:157] Top shape: 25 48 14 14 (235200)
I0729 10:17:55.206583 19052 net.cpp:157] Top shape: 25 48 14 14 (235200)
I0729 10:17:55.206583 19052 net.cpp:165] Memory required for data: 428527800
I0729 10:17:55.206583 19052 layer_factory.hpp:77] Creating layer fire6/expand1x1
I0729 10:17:55.206583 19052 net.cpp:100] Creating Layer fire6/expand1x1
I0729 10:17:55.206583 19052 net.cpp:444] fire6/expand1x1 <- fire6/squeeze1x1_fire6/relu_squeeze1x1_0_split_0
I0729 10:17:55.206583 19052 net.cpp:418] fire6/expand1x1 -> fire6/expand1x1
I0729 10:17:55.208585 20616 data_layer.cpp:102] Prefetch batch: 385 ms.
I0729 10:17:55.209586 20616 data_layer.cpp:103]      Read time: 0 ms.
I0729 10:17:55.209586 20616 data_layer.cpp:104] Transform time: 370.262 ms.
I0729 10:17:55.253617 19052 net.cpp:150] Setting up fire6/expand1x1
I0729 10:17:55.253617 19052 net.cpp:157] Top shape: 25 192 14 14 (940800)
I0729 10:17:55.253617 19052 net.cpp:165] Memory required for data: 432291000
I0729 10:17:55.253617 19052 layer_factory.hpp:77] Creating layer fire6/relu_expand1x1
I0729 10:17:55.253617 19052 net.cpp:100] Creating Layer fire6/relu_expand1x1
I0729 10:17:55.253617 19052 net.cpp:444] fire6/relu_expand1x1 <- fire6/expand1x1
I0729 10:17:55.254617 19052 net.cpp:405] fire6/relu_expand1x1 -> fire6/expand1x1 (in-place)
I0729 10:17:55.254617 19052 net.cpp:150] Setting up fire6/relu_expand1x1
I0729 10:17:55.254617 19052 net.cpp:157] Top shape: 25 192 14 14 (940800)
I0729 10:17:55.254617 19052 net.cpp:165] Memory required for data: 436054200
I0729 10:17:55.254617 19052 layer_factory.hpp:77] Creating layer fire6/expand3x3
I0729 10:17:55.254617 19052 net.cpp:100] Creating Layer fire6/expand3x3
I0729 10:17:55.254617 19052 net.cpp:444] fire6/expand3x3 <- fire6/squeeze1x1_fire6/relu_squeeze1x1_0_split_1
I0729 10:17:55.255617 19052 net.cpp:418] fire6/expand3x3 -> fire6/expand3x3
I0729 10:17:55.304652 20704 data_reader.cpp:114] Restarting data prefetching from start.
I0729 10:17:55.322664 19052 net.cpp:150] Setting up fire6/expand3x3
I0729 10:17:55.322664 19052 net.cpp:157] Top shape: 25 192 14 14 (940800)
I0729 10:17:55.322664 19052 net.cpp:165] Memory required for data: 439817400
I0729 10:17:55.327668 19052 layer_factory.hpp:77] Creating layer fire6/relu_expand3x3
I0729 10:17:55.327668 19052 net.cpp:100] Creating Layer fire6/relu_expand3x3
I0729 10:17:55.327668 19052 net.cpp:444] fire6/relu_expand3x3 <- fire6/expand3x3
I0729 10:17:55.328670 19052 net.cpp:405] fire6/relu_expand3x3 -> fire6/expand3x3 (in-place)
I0729 10:17:55.328670 19052 net.cpp:150] Setting up fire6/relu_expand3x3
I0729 10:17:55.328670 19052 net.cpp:157] Top shape: 25 192 14 14 (940800)
I0729 10:17:55.328670 19052 net.cpp:165] Memory required for data: 443580600
I0729 10:17:55.328670 19052 layer_factory.hpp:77] Creating layer fire6/concat
I0729 10:17:55.328670 19052 net.cpp:100] Creating Layer fire6/concat
I0729 10:17:55.329670 19052 net.cpp:444] fire6/concat <- fire6/expand1x1
I0729 10:17:55.329670 19052 net.cpp:444] fire6/concat <- fire6/expand3x3
I0729 10:17:55.329670 19052 net.cpp:418] fire6/concat -> fire6/concat
I0729 10:17:55.329670 19052 net.cpp:150] Setting up fire6/concat
I0729 10:17:55.329670 19052 net.cpp:157] Top shape: 25 384 14 14 (1881600)
I0729 10:17:55.329670 19052 net.cpp:165] Memory required for data: 451107000
I0729 10:17:55.330670 19052 layer_factory.hpp:77] Creating layer pool6
I0729 10:17:55.330670 19052 net.cpp:100] Creating Layer pool6
I0729 10:17:55.330670 19052 net.cpp:444] pool6 <- fire6/concat
I0729 10:17:55.330670 19052 net.cpp:418] pool6 -> pool6
I0729 10:17:55.330670 19052 net.cpp:150] Setting up pool6
I0729 10:17:55.330670 19052 net.cpp:157] Top shape: 25 384 7 7 (470400)
I0729 10:17:55.330670 19052 net.cpp:165] Memory required for data: 452988600
I0729 10:17:55.330670 19052 layer_factory.hpp:77] Creating layer fire7/squeeze1x1
I0729 10:17:55.330670 19052 net.cpp:100] Creating Layer fire7/squeeze1x1
I0729 10:17:55.331671 19052 net.cpp:444] fire7/squeeze1x1 <- pool6
I0729 10:17:55.331671 19052 net.cpp:418] fire7/squeeze1x1 -> fire7/squeeze1x1
I0729 10:17:55.334672 19052 net.cpp:150] Setting up fire7/squeeze1x1
I0729 10:17:55.335675 19052 net.cpp:157] Top shape: 25 48 7 7 (58800)
I0729 10:17:55.335675 19052 net.cpp:165] Memory required for data: 453223800
I0729 10:17:55.335675 19052 layer_factory.hpp:77] Creating layer fire7/relu_squeeze1x1
I0729 10:17:55.335675 19052 net.cpp:100] Creating Layer fire7/relu_squeeze1x1
I0729 10:17:55.335675 19052 net.cpp:444] fire7/relu_squeeze1x1 <- fire7/squeeze1x1
I0729 10:17:55.336675 19052 net.cpp:405] fire7/relu_squeeze1x1 -> fire7/squeeze1x1 (in-place)
I0729 10:17:55.336675 19052 net.cpp:150] Setting up fire7/relu_squeeze1x1
I0729 10:17:55.336675 19052 net.cpp:157] Top shape: 25 48 7 7 (58800)
I0729 10:17:55.336675 19052 net.cpp:165] Memory required for data: 453459000
I0729 10:17:55.336675 19052 layer_factory.hpp:77] Creating layer fire7/squeeze1x1_fire7/relu_squeeze1x1_0_split
I0729 10:17:55.336675 19052 net.cpp:100] Creating Layer fire7/squeeze1x1_fire7/relu_squeeze1x1_0_split
I0729 10:17:55.336675 19052 net.cpp:444] fire7/squeeze1x1_fire7/relu_squeeze1x1_0_split <- fire7/squeeze1x1
I0729 10:17:55.336675 19052 net.cpp:418] fire7/squeeze1x1_fire7/relu_squeeze1x1_0_split -> fire7/squeeze1x1_fire7/relu_squeeze1x1_0_split_0
I0729 10:17:55.337676 19052 net.cpp:418] fire7/squeeze1x1_fire7/relu_squeeze1x1_0_split -> fire7/squeeze1x1_fire7/relu_squeeze1x1_0_split_1
I0729 10:17:55.337676 19052 net.cpp:150] Setting up fire7/squeeze1x1_fire7/relu_squeeze1x1_0_split
I0729 10:17:55.337676 19052 net.cpp:157] Top shape: 25 48 7 7 (58800)
I0729 10:17:55.337676 19052 net.cpp:157] Top shape: 25 48 7 7 (58800)
I0729 10:17:55.337676 19052 net.cpp:165] Memory required for data: 453929400
I0729 10:17:55.337676 19052 layer_factory.hpp:77] Creating layer fire7/expand1x1
I0729 10:17:55.337676 19052 net.cpp:100] Creating Layer fire7/expand1x1
I0729 10:17:55.337676 19052 net.cpp:444] fire7/expand1x1 <- fire7/squeeze1x1_fire7/relu_squeeze1x1_0_split_0
I0729 10:17:55.337676 19052 net.cpp:418] fire7/expand1x1 -> fire7/expand1x1
I0729 10:17:55.355688 19052 net.cpp:150] Setting up fire7/expand1x1
I0729 10:17:55.355688 19052 net.cpp:157] Top shape: 25 192 7 7 (235200)
I0729 10:17:55.355688 19052 net.cpp:165] Memory required for data: 454870200
I0729 10:17:55.355688 19052 layer_factory.hpp:77] Creating layer fire7/relu_expand1x1
I0729 10:17:55.355688 19052 net.cpp:100] Creating Layer fire7/relu_expand1x1
I0729 10:17:55.355688 19052 net.cpp:444] fire7/relu_expand1x1 <- fire7/expand1x1
I0729 10:17:55.355688 19052 net.cpp:405] fire7/relu_expand1x1 -> fire7/expand1x1 (in-place)
I0729 10:17:55.355688 19052 net.cpp:150] Setting up fire7/relu_expand1x1
I0729 10:17:55.356688 19052 net.cpp:157] Top shape: 25 192 7 7 (235200)
I0729 10:17:55.356688 19052 net.cpp:165] Memory required for data: 455811000
I0729 10:17:55.356688 19052 layer_factory.hpp:77] Creating layer fire7/expand3x3
I0729 10:17:55.356688 19052 net.cpp:100] Creating Layer fire7/expand3x3
I0729 10:17:55.356688 19052 net.cpp:444] fire7/expand3x3 <- fire7/squeeze1x1_fire7/relu_squeeze1x1_0_split_1
I0729 10:17:55.356688 19052 net.cpp:418] fire7/expand3x3 -> fire7/expand3x3
I0729 10:17:55.401721 19052 net.cpp:150] Setting up fire7/expand3x3
I0729 10:17:55.401721 19052 net.cpp:157] Top shape: 25 192 7 7 (235200)
I0729 10:17:55.401721 19052 net.cpp:165] Memory required for data: 456751800
I0729 10:17:55.401721 19052 layer_factory.hpp:77] Creating layer fire7/relu_expand3x3
I0729 10:17:55.402721 19052 net.cpp:100] Creating Layer fire7/relu_expand3x3
I0729 10:17:55.402721 19052 net.cpp:444] fire7/relu_expand3x3 <- fire7/expand3x3
I0729 10:17:55.402721 19052 net.cpp:405] fire7/relu_expand3x3 -> fire7/expand3x3 (in-place)
I0729 10:17:55.402721 19052 net.cpp:150] Setting up fire7/relu_expand3x3
I0729 10:17:55.402721 19052 net.cpp:157] Top shape: 25 192 7 7 (235200)
I0729 10:17:55.402721 19052 net.cpp:165] Memory required for data: 457692600
I0729 10:17:55.402721 19052 layer_factory.hpp:77] Creating layer fire7/concat
I0729 10:17:55.402721 19052 net.cpp:100] Creating Layer fire7/concat
I0729 10:17:55.402721 19052 net.cpp:444] fire7/concat <- fire7/expand1x1
I0729 10:17:55.402721 19052 net.cpp:444] fire7/concat <- fire7/expand3x3
I0729 10:17:55.403722 19052 net.cpp:418] fire7/concat -> fire7/concat
I0729 10:17:55.403722 19052 net.cpp:150] Setting up fire7/concat
I0729 10:17:55.403722 19052 net.cpp:157] Top shape: 25 384 7 7 (470400)
I0729 10:17:55.403722 19052 net.cpp:165] Memory required for data: 459574200
I0729 10:17:55.403722 19052 layer_factory.hpp:77] Creating layer pool7
I0729 10:17:55.403722 19052 net.cpp:100] Creating Layer pool7
I0729 10:17:55.403722 19052 net.cpp:444] pool7 <- fire7/concat
I0729 10:17:55.403722 19052 net.cpp:418] pool7 -> pool7
I0729 10:17:55.404722 19052 net.cpp:150] Setting up pool7
I0729 10:17:55.404722 19052 net.cpp:157] Top shape: 25 384 3 3 (86400)
I0729 10:17:55.404722 19052 net.cpp:165] Memory required for data: 459919800
I0729 10:17:55.404722 19052 layer_factory.hpp:77] Creating layer fire8/squeeze1x1
I0729 10:17:55.404722 19052 net.cpp:100] Creating Layer fire8/squeeze1x1
I0729 10:17:55.404722 19052 net.cpp:444] fire8/squeeze1x1 <- pool7
I0729 10:17:55.404722 19052 net.cpp:418] fire8/squeeze1x1 -> fire8/squeeze1x1
I0729 10:17:55.409725 19052 net.cpp:150] Setting up fire8/squeeze1x1
I0729 10:17:55.409725 19052 net.cpp:157] Top shape: 25 64 3 3 (14400)
I0729 10:17:55.409725 19052 net.cpp:165] Memory required for data: 459977400
I0729 10:17:55.410727 19052 layer_factory.hpp:77] Creating layer fire8/relu_squeeze1x1
I0729 10:17:55.410727 19052 net.cpp:100] Creating Layer fire8/relu_squeeze1x1
I0729 10:17:55.410727 19052 net.cpp:444] fire8/relu_squeeze1x1 <- fire8/squeeze1x1
I0729 10:17:55.410727 19052 net.cpp:405] fire8/relu_squeeze1x1 -> fire8/squeeze1x1 (in-place)
I0729 10:17:55.410727 19052 net.cpp:150] Setting up fire8/relu_squeeze1x1
I0729 10:17:55.410727 19052 net.cpp:157] Top shape: 25 64 3 3 (14400)
I0729 10:17:55.410727 19052 net.cpp:165] Memory required for data: 460035000
I0729 10:17:55.410727 19052 layer_factory.hpp:77] Creating layer fire8/squeeze1x1_fire8/relu_squeeze1x1_0_split
I0729 10:17:55.411727 19052 net.cpp:100] Creating Layer fire8/squeeze1x1_fire8/relu_squeeze1x1_0_split
I0729 10:17:55.411727 19052 net.cpp:444] fire8/squeeze1x1_fire8/relu_squeeze1x1_0_split <- fire8/squeeze1x1
I0729 10:17:55.411727 19052 net.cpp:418] fire8/squeeze1x1_fire8/relu_squeeze1x1_0_split -> fire8/squeeze1x1_fire8/relu_squeeze1x1_0_split_0
I0729 10:17:55.411727 19052 net.cpp:418] fire8/squeeze1x1_fire8/relu_squeeze1x1_0_split -> fire8/squeeze1x1_fire8/relu_squeeze1x1_0_split_1
I0729 10:17:55.411727 19052 net.cpp:150] Setting up fire8/squeeze1x1_fire8/relu_squeeze1x1_0_split
I0729 10:17:55.411727 19052 net.cpp:157] Top shape: 25 64 3 3 (14400)
I0729 10:17:55.411727 19052 net.cpp:157] Top shape: 25 64 3 3 (14400)
I0729 10:17:55.411727 19052 net.cpp:165] Memory required for data: 460150200
I0729 10:17:55.411727 19052 layer_factory.hpp:77] Creating layer fire8/expand1x1
I0729 10:17:55.412727 19052 net.cpp:100] Creating Layer fire8/expand1x1
I0729 10:17:55.412727 19052 net.cpp:444] fire8/expand1x1 <- fire8/squeeze1x1_fire8/relu_squeeze1x1_0_split_0
I0729 10:17:55.412727 19052 net.cpp:418] fire8/expand1x1 -> fire8/expand1x1
I0729 10:17:55.480741 20688 data_layer.cpp:102] Prefetch batch: 363 ms.
I0729 10:17:55.480741 20688 data_layer.cpp:103]      Read time: 1.002 ms.
I0729 10:17:55.481742 20688 data_layer.cpp:104] Transform time: 362.219 ms.
I0729 10:17:55.484743 19052 net.cpp:150] Setting up fire8/expand1x1
I0729 10:17:55.485744 19052 net.cpp:157] Top shape: 25 256 3 3 (57600)
I0729 10:17:55.485744 19052 net.cpp:165] Memory required for data: 460380600
I0729 10:17:55.485744 19052 layer_factory.hpp:77] Creating layer fire8/relu_expand1x1
I0729 10:17:55.485744 19052 net.cpp:100] Creating Layer fire8/relu_expand1x1
I0729 10:17:55.485744 19052 net.cpp:444] fire8/relu_expand1x1 <- fire8/expand1x1
I0729 10:17:55.485744 19052 net.cpp:405] fire8/relu_expand1x1 -> fire8/expand1x1 (in-place)
I0729 10:17:55.486745 19052 net.cpp:150] Setting up fire8/relu_expand1x1
I0729 10:17:55.486745 19052 net.cpp:157] Top shape: 25 256 3 3 (57600)
I0729 10:17:55.486745 19052 net.cpp:165] Memory required for data: 460611000
I0729 10:17:55.486745 19052 layer_factory.hpp:77] Creating layer fire8/expand3x3
I0729 10:17:55.486745 19052 net.cpp:100] Creating Layer fire8/expand3x3
I0729 10:17:55.486745 19052 net.cpp:444] fire8/expand3x3 <- fire8/squeeze1x1_fire8/relu_squeeze1x1_0_split_1
I0729 10:17:55.486745 19052 net.cpp:418] fire8/expand3x3 -> fire8/expand3x3
I0729 10:17:55.553792 19052 net.cpp:150] Setting up fire8/expand3x3
I0729 10:17:55.553792 19052 net.cpp:157] Top shape: 25 256 3 3 (57600)
I0729 10:17:55.554792 19052 net.cpp:165] Memory required for data: 460841400
I0729 10:17:55.554792 19052 layer_factory.hpp:77] Creating layer fire8/relu_expand3x3
I0729 10:17:55.554792 19052 net.cpp:100] Creating Layer fire8/relu_expand3x3
I0729 10:17:55.554792 19052 net.cpp:444] fire8/relu_expand3x3 <- fire8/expand3x3
I0729 10:17:55.554792 19052 net.cpp:405] fire8/relu_expand3x3 -> fire8/expand3x3 (in-place)
I0729 10:17:55.554792 19052 net.cpp:150] Setting up fire8/relu_expand3x3
I0729 10:17:55.554792 19052 net.cpp:157] Top shape: 25 256 3 3 (57600)
I0729 10:17:55.555794 19052 net.cpp:165] Memory required for data: 461071800
I0729 10:17:55.555794 19052 layer_factory.hpp:77] Creating layer fire8/concat
I0729 10:17:55.555794 19052 net.cpp:100] Creating Layer fire8/concat
I0729 10:17:55.555794 19052 net.cpp:444] fire8/concat <- fire8/expand1x1
I0729 10:17:55.555794 19052 net.cpp:444] fire8/concat <- fire8/expand3x3
I0729 10:17:55.555794 19052 net.cpp:418] fire8/concat -> fire8/concat
I0729 10:17:55.555794 19052 net.cpp:150] Setting up fire8/concat
I0729 10:17:55.555794 19052 net.cpp:157] Top shape: 25 512 3 3 (115200)
I0729 10:17:55.555794 19052 net.cpp:165] Memory required for data: 461532600
I0729 10:17:55.555794 19052 layer_factory.hpp:77] Creating layer pool8
I0729 10:17:55.556793 19052 net.cpp:100] Creating Layer pool8
I0729 10:17:55.556793 19052 net.cpp:444] pool8 <- fire8/concat
I0729 10:17:55.556793 19052 net.cpp:418] pool8 -> pool8
I0729 10:17:55.556793 19052 net.cpp:150] Setting up pool8
I0729 10:17:55.556793 19052 net.cpp:157] Top shape: 25 512 1 1 (12800)
I0729 10:17:55.556793 19052 net.cpp:165] Memory required for data: 461583800
I0729 10:17:55.556793 19052 layer_factory.hpp:77] Creating layer fire9/squeeze1x1
I0729 10:17:55.556793 19052 net.cpp:100] Creating Layer fire9/squeeze1x1
I0729 10:17:55.556793 19052 net.cpp:444] fire9/squeeze1x1 <- pool8
I0729 10:17:55.556793 19052 net.cpp:418] fire9/squeeze1x1 -> fire9/squeeze1x1
I0729 10:17:55.562798 19052 net.cpp:150] Setting up fire9/squeeze1x1
I0729 10:17:55.562798 19052 net.cpp:157] Top shape: 25 64 1 1 (1600)
I0729 10:17:55.562798 19052 net.cpp:165] Memory required for data: 461590200
I0729 10:17:55.562798 19052 layer_factory.hpp:77] Creating layer fire9/relu_squeeze1x1
I0729 10:17:55.562798 19052 net.cpp:100] Creating Layer fire9/relu_squeeze1x1
I0729 10:17:55.562798 19052 net.cpp:444] fire9/relu_squeeze1x1 <- fire9/squeeze1x1
I0729 10:17:55.563799 19052 net.cpp:405] fire9/relu_squeeze1x1 -> fire9/squeeze1x1 (in-place)
I0729 10:17:55.563799 19052 net.cpp:150] Setting up fire9/relu_squeeze1x1
I0729 10:17:55.563799 19052 net.cpp:157] Top shape: 25 64 1 1 (1600)
I0729 10:17:55.563799 19052 net.cpp:165] Memory required for data: 461596600
I0729 10:17:55.563799 19052 layer_factory.hpp:77] Creating layer fire9/squeeze1x1_fire9/relu_squeeze1x1_0_split
I0729 10:17:55.563799 19052 net.cpp:100] Creating Layer fire9/squeeze1x1_fire9/relu_squeeze1x1_0_split
I0729 10:17:55.563799 19052 net.cpp:444] fire9/squeeze1x1_fire9/relu_squeeze1x1_0_split <- fire9/squeeze1x1
I0729 10:17:55.563799 19052 net.cpp:418] fire9/squeeze1x1_fire9/relu_squeeze1x1_0_split -> fire9/squeeze1x1_fire9/relu_squeeze1x1_0_split_0
I0729 10:17:55.563799 19052 net.cpp:418] fire9/squeeze1x1_fire9/relu_squeeze1x1_0_split -> fire9/squeeze1x1_fire9/relu_squeeze1x1_0_split_1
I0729 10:17:55.563799 19052 net.cpp:150] Setting up fire9/squeeze1x1_fire9/relu_squeeze1x1_0_split
I0729 10:17:55.563799 19052 net.cpp:157] Top shape: 25 64 1 1 (1600)
I0729 10:17:55.563799 19052 net.cpp:157] Top shape: 25 64 1 1 (1600)
I0729 10:17:55.564800 19052 net.cpp:165] Memory required for data: 461609400
I0729 10:17:55.564800 19052 layer_factory.hpp:77] Creating layer fire9/expand1x1
I0729 10:17:55.564800 19052 net.cpp:100] Creating Layer fire9/expand1x1
I0729 10:17:55.564800 19052 net.cpp:444] fire9/expand1x1 <- fire9/squeeze1x1_fire9/relu_squeeze1x1_0_split_0
I0729 10:17:55.564800 19052 net.cpp:418] fire9/expand1x1 -> fire9/expand1x1
I0729 10:17:55.587815 19052 net.cpp:150] Setting up fire9/expand1x1
I0729 10:17:55.587815 19052 net.cpp:157] Top shape: 25 256 3 3 (57600)
I0729 10:17:55.587815 19052 net.cpp:165] Memory required for data: 461839800
I0729 10:17:55.587815 19052 layer_factory.hpp:77] Creating layer fire9/relu_expand1x1
I0729 10:17:55.588816 19052 net.cpp:100] Creating Layer fire9/relu_expand1x1
I0729 10:17:55.588816 19052 net.cpp:444] fire9/relu_expand1x1 <- fire9/expand1x1
I0729 10:17:55.588816 19052 net.cpp:405] fire9/relu_expand1x1 -> fire9/expand1x1 (in-place)
I0729 10:17:55.588816 19052 net.cpp:150] Setting up fire9/relu_expand1x1
I0729 10:17:55.588816 19052 net.cpp:157] Top shape: 25 256 3 3 (57600)
I0729 10:17:55.588816 19052 net.cpp:165] Memory required for data: 462070200
I0729 10:17:55.588816 19052 layer_factory.hpp:77] Creating layer fire9/expand3x3
I0729 10:17:55.588816 19052 net.cpp:100] Creating Layer fire9/expand3x3
I0729 10:17:55.588816 19052 net.cpp:444] fire9/expand3x3 <- fire9/squeeze1x1_fire9/relu_squeeze1x1_0_split_1
I0729 10:17:55.588816 19052 net.cpp:418] fire9/expand3x3 -> fire9/expand3x3
I0729 10:17:55.629845 20616 data_layer.cpp:102] Prefetch batch: 420 ms.
I0729 10:17:55.629845 20616 data_layer.cpp:103]      Read time: 2.002 ms.
I0729 10:17:55.629845 20616 data_layer.cpp:104] Transform time: 415.753 ms.
I0729 10:17:55.666872 19052 net.cpp:150] Setting up fire9/expand3x3
I0729 10:17:55.666872 19052 net.cpp:157] Top shape: 25 256 3 3 (57600)
I0729 10:17:55.666872 19052 net.cpp:165] Memory required for data: 462300600
I0729 10:17:55.667872 19052 layer_factory.hpp:77] Creating layer fire9/relu_expand3x3
I0729 10:17:55.667872 19052 net.cpp:100] Creating Layer fire9/relu_expand3x3
I0729 10:17:55.667872 19052 net.cpp:444] fire9/relu_expand3x3 <- fire9/expand3x3
I0729 10:17:55.667872 19052 net.cpp:405] fire9/relu_expand3x3 -> fire9/expand3x3 (in-place)
I0729 10:17:55.667872 19052 net.cpp:150] Setting up fire9/relu_expand3x3
I0729 10:17:55.667872 19052 net.cpp:157] Top shape: 25 256 3 3 (57600)
I0729 10:17:55.667872 19052 net.cpp:165] Memory required for data: 462531000
I0729 10:17:55.667872 19052 layer_factory.hpp:77] Creating layer fire9/concat
I0729 10:17:55.667872 19052 net.cpp:100] Creating Layer fire9/concat
I0729 10:17:55.667872 19052 net.cpp:444] fire9/concat <- fire9/expand1x1
I0729 10:17:55.668874 19052 net.cpp:444] fire9/concat <- fire9/expand3x3
I0729 10:17:55.668874 19052 net.cpp:418] fire9/concat -> fire9/concat
I0729 10:17:55.668874 19052 net.cpp:150] Setting up fire9/concat
I0729 10:17:55.668874 19052 net.cpp:157] Top shape: 25 512 3 3 (115200)
I0729 10:17:55.668874 19052 net.cpp:165] Memory required for data: 462991800
I0729 10:17:55.668874 19052 layer_factory.hpp:77] Creating layer drop9
I0729 10:17:55.668874 19052 net.cpp:100] Creating Layer drop9
I0729 10:17:55.668874 19052 net.cpp:444] drop9 <- fire9/concat
I0729 10:17:55.668874 19052 net.cpp:405] drop9 -> fire9/concat (in-place)
I0729 10:17:55.669874 19052 net.cpp:150] Setting up drop9
I0729 10:17:55.669874 19052 net.cpp:157] Top shape: 25 512 3 3 (115200)
I0729 10:17:55.669874 19052 net.cpp:165] Memory required for data: 463452600
I0729 10:17:55.669874 19052 layer_factory.hpp:77] Creating layer conv10
I0729 10:17:55.669874 19052 net.cpp:100] Creating Layer conv10
I0729 10:17:55.669874 19052 net.cpp:444] conv10 <- fire9/concat
I0729 10:17:55.669874 19052 net.cpp:418] conv10 -> conv10
I0729 10:17:55.672875 19052 net.cpp:150] Setting up conv10
I0729 10:17:55.672875 19052 net.cpp:157] Top shape: 25 10 3 3 (2250)
I0729 10:17:55.672875 19052 net.cpp:165] Memory required for data: 463461600
I0729 10:17:55.672875 19052 layer_factory.hpp:77] Creating layer relu_conv10
I0729 10:17:55.673877 19052 net.cpp:100] Creating Layer relu_conv10
I0729 10:17:55.673877 19052 net.cpp:444] relu_conv10 <- conv10
I0729 10:17:55.673877 19052 net.cpp:405] relu_conv10 -> conv10 (in-place)
I0729 10:17:55.673877 19052 net.cpp:150] Setting up relu_conv10
I0729 10:17:55.673877 19052 net.cpp:157] Top shape: 25 10 3 3 (2250)
I0729 10:17:55.673877 19052 net.cpp:165] Memory required for data: 463470600
I0729 10:17:55.673877 19052 layer_factory.hpp:77] Creating layer pool10
I0729 10:17:55.673877 19052 net.cpp:100] Creating Layer pool10
I0729 10:17:55.673877 19052 net.cpp:444] pool10 <- conv10
I0729 10:17:55.673877 19052 net.cpp:418] pool10 -> pool10
I0729 10:17:55.674877 19052 net.cpp:150] Setting up pool10
I0729 10:17:55.674877 19052 net.cpp:157] Top shape: 25 10 1 1 (250)
I0729 10:17:55.674877 19052 net.cpp:165] Memory required for data: 463471600
I0729 10:17:55.674877 19052 layer_factory.hpp:77] Creating layer pool10_pool10_0_split
I0729 10:17:55.674877 19052 net.cpp:100] Creating Layer pool10_pool10_0_split
I0729 10:17:55.674877 19052 net.cpp:444] pool10_pool10_0_split <- pool10
I0729 10:17:55.674877 19052 net.cpp:418] pool10_pool10_0_split -> pool10_pool10_0_split_0
I0729 10:17:55.674877 19052 net.cpp:418] pool10_pool10_0_split -> pool10_pool10_0_split_1
I0729 10:17:55.675879 19052 net.cpp:150] Setting up pool10_pool10_0_split
I0729 10:17:55.675879 19052 net.cpp:157] Top shape: 25 10 1 1 (250)
I0729 10:17:55.675879 19052 net.cpp:157] Top shape: 25 10 1 1 (250)
I0729 10:17:55.675879 19052 net.cpp:165] Memory required for data: 463473600
I0729 10:17:55.675879 19052 layer_factory.hpp:77] Creating layer accuracy
I0729 10:17:55.675879 19052 net.cpp:100] Creating Layer accuracy
I0729 10:17:55.675879 19052 net.cpp:444] accuracy <- pool10_pool10_0_split_0
I0729 10:17:55.675879 19052 net.cpp:444] accuracy <- label_data_1_split_0
I0729 10:17:55.676878 19052 net.cpp:418] accuracy -> accuracy
…
