…
I0725 09:30:39.863392  9052 net.cpp:332] The NetState phase (0) differed from the phase (1) specified by a rule in layer accuracy_top5
I0725 09:30:39.869380  9052 net.cpp:58] Initializing net from parameters: 
state {
  phase: TRAIN
  level: 0
  stage: ""
}
layer {
  name: "data"
  type: "Data"
  top: "data"
  top: "label"
  include {
    phase: TRAIN
  }
  transform_param {
    crop_size: 227
    mean_value: 104
    mean_value: 117
    mean_value: 123
  }
  data_param {
    source: "D:/Master/master_graduate/dataset/test/squeezt-test1/train_LEVELDB"
    batch_size: 32
    backend: LEVELDB
  }
}
layer {
  name: "conv1"
  type: "Convolution"
  bottom: "data"
  top: "conv1"
  convolution_param {
    num_output: 64
    kernel_size: 3
    stride: 2
    weight_filler {
      type: "xavier"
    }
  }
}
layer {
  name: "relu_conv1"
  type: "ReLU"
  bottom: "conv1"
  top: "conv1"
}
layer {
  name: "pool1"
  type: "Pooling"
  bottom: "conv1"
  top: "pool1"
  pooling_param {
    pool: MAX
    kernel_size: 3
    stride: 2
  }
}
layer {
  name: "fire3/squeeze1x1"
  type: "Convolution"
  bottom: "pool1"
  top: "fire3/squeeze1x1"
  convolution_param {
    num_output: 16
    kernel_size: 1
    weight_filler {
      type: "xavier"
    }
  }
}
layer {
  name: "fire3/relu_squeeze1x1"
  type: "ReLU"
  bottom: "fire3/squeeze1x1"
  top: "fire3/squeeze1x1"
}
layer {
  name: "fire3/expand1x1"
  type: "Convolution"
  bottom: "fire3/squeeze1x1"
  top: "fire3/expand1x1"
  convolution_param {
    num_output: 64
    kernel_size: 1
    weight_filler {
      type: "xavier"
    }
  }
}
layer {
  name: "fire3/relu_expand1x1"
  type: "ReLU"
  bottom: "fire3/expand1x1"
  top: "fire3/expand1x1"
}
layer {
  name: "fire3/expand3x3"
  type: "Convolution"
  bottom: "fire3/squeeze1x1"
  top: "fire3/expand3x3"
  convolution_param {
    num_output: 64
    pad: 2
    kernel_size: 5
    weight_filler {
      type: "xavier"
    }
  }
}
layer {
  name: "fire3/relu_expand3x3"
  type: "ReLU"
  bottom: "fire3/expand3x3"
  top: "fire3/expand3x3"
}
layer {
  name: "fire3/concat"
  type: "Concat"
  bottom: "fire3/expand1x1"
  bottom: "fire3/expand3x3"
  top: "fire3/concat"
}
layer {
  name: "pool3"
  type: "Pooling"
  bottom: "fire3/concat"
  top: "pool3"
  pooling_param {
    pool: MAX
    kernel_size: 3
    stride: 2
  }
}
layer {
  name: "fire5/squeeze1x1"
  type: "Convolution"
  bottom: "pool3"
  top: "fire5/squeeze1x1"
  convolution_param {
    num_output: 32
    kernel_size: 1
    weight_filler {
      type: "xavier"
    }
  }
}
layer {
  name: "fire5/relu_squeeze1x1"
  type: "ReLU"
  bottom: "fire5/squeeze1x1"
  top: "fire5/squeeze1x1"
}
layer {
  name: "fire5/expand1x1"
  type: "Convolution"
  bottom: "fire5/squeeze1x1"
  top: "fire5/expand1x1"
  convolution_param {
    num_output: 128
    kernel_size: 1
    weight_filler {
      type: "xavier"
    }
  }
}
layer {
  name: "fire5/relu_expand1x1"
  type: "ReLU"
  bottom: "fire5/expand1x1"
  top: "fire5/expand1x1"
}
layer {
  name: "fire5/expand3x3"
  type: "Convolution"
  bottom: "fire5/squeeze1x1"
  top: "fire5/expand3x3"
  convolution_param {
    num_output: 128
    pad: 2
    kernel_size: 5
    weight_filler {
      type: "xavier"
    }
  }
}
layer {
  name: "fire5/relu_expand3x3"
  type: "ReLU"
  bottom: "fire5/expand3x3"
  top: "fire5/expand3x3"
}
layer {
  name: "fire5/concat"
  type: "Concat"
  bottom: "fire5/expand1x1"
  bottom: "fire5/expand3x3"
  top: "fire5/concat"
}
layer {
  name: "pool5"
  type: "Pooling"
  bottom: "fire5/concat"
  top: "pool5"
  pooling_param {
    pool: MAX
    kernel_size: 3
    stride: 2
  }
}
layer {
  name: "fire6/squeeze1x1"
  type: "Convolution"
  bottom: "pool5"
  top: "fire6/squeeze1x1"
  convolution_param {
    num_output: 48
    kernel_size: 1
    weight_filler {
      type: "xavier"
    }
  }
}
layer {
  name: "fire6/relu_squeeze1x1"
  type: "ReLU"
  bottom: "fire6/squeeze1x1"
  top: "fire6/squeeze1x1"
}
layer {
  name: "fire6/expand1x1"
  type: "Convolution"
  bottom: "fire6/squeeze1x1"
  top: "fire6/expand1x1"
  convolution_param {
    num_output: 192
    kernel_size: 1
    weight_filler {
      type: "xavier"
    }
  }
}
layer {
  name: "fire6/relu_expand1x1"
  type: "ReLU"
  bottom: "fire6/expand1x1"
  top: "fire6/expand1x1"
}
layer {
  name: "fire6/expand3x3"
  type: "Convolution"
  bottom: "fire6/squeeze1x1"
  top: "fire6/expand3x3"
  convolution_param {
    num_output: 192
    pad: 2
    kernel_size: 5
    weight_filler {
      type: "xavier"
    }
  }
}
layer {
  name: "fire6/relu_expand3x3"
  type: "ReLU"
  bottom: "fire6/expand3x3"
  top: "fire6/expand3x3"
}
layer {
  name: "fire6/concat"
  type: "Concat"
  bottom: "fire6/expand1x1"
  bottom: "fire6/expand3x3"
  top: "fire6/concat"
}
layer {
  name: "pool6"
  type: "Pooling"
  bottom: "fire6/concat"
  top: "pool6"
  pooling_param {
    pool: MAX
    kernel_size: 3
    stride: 2
  }
}
layer {
  name: "fire7/squeeze1x1"
  type: "Convolution"
  bottom: "pool6"
  top: "fire7/squeeze1x1"
  convolution_param {
    num_output: 48
    kernel_size: 1
    weight_filler {
      type: "xavier"
    }
  }
}
layer {
  name: "fire7/relu_squeeze1x1"
  type: "ReLU"
  bottom: "fire7/squeeze1x1"
  top: "fire7/squeeze1x1"
}
layer {
  name: "fire7/expand1x1"
  type: "Convolution"
  bottom: "fire7/squeeze1x1"
  top: "fire7/expand1x1"
  convolution_param {
    num_output: 192
    kernel_size: 1
    weight_filler {
      type: "xavier"
    }
  }
}
layer {
  name: "fire7/relu_expand1x1"
  type: "ReLU"
  bottom: "fire7/expand1x1"
  top: "fire7/expand1x1"
}
layer {
  name: "fire7/expand3x3"
  type: "Convolution"
  bottom: "fire7/squeeze1x1"
  top: "fire7/expand3x3"
  convolution_param {
    num_output: 192
    pad: 2
    kernel_size: 5
    weight_filler {
      type: "xavier"
    }
  }
}
layer {
  name: "fire7/relu_expand3x3"
  type: "ReLU"
  bottom: "fire7/expand3x3"
  top: "fire7/expand3x3"
}
layer {
  name: "fire7/concat"
  type: "Concat"
  bottom: "fire7/expand1x1"
  bottom: "fire7/expand3x3"
  top: "fire7/concat"
}
layer {
  name: "pool7"
  type: "Pooling"
  bottom: "fire7/concat"
  top: "pool7"
  pooling_param {
    pool: MAX
    kernel_size: 3
    stride: 2
  }
}
layer {
  name: "fire8/squeeze1x1"
  type: "Convolution"
  bottom: "pool7"
  top: "fire8/squeeze1x1"
  convolution_param {
    num_output: 64
    kernel_size: 1
    weight_filler {
      type: "xavier"
    }
  }
}
layer {
  name: "fire8/relu_squeeze1x1"
  type: "ReLU"
  bottom: "fire8/squeeze1x1"
  top: "fire8/squeeze1x1"
}
layer {
  name: "fire8/expand1x1"
  type: "Convolution"
  bottom: "fire8/squeeze1x1"
  top: "fire8/expand1x1"
  convolution_param {
    num_output: 256
    kernel_size: 1
    weight_filler {
      type: "xavier"
    }
  }
}
layer {
  name: "fire8/relu_expand1x1"
  type: "ReLU"
  bottom: "fire8/expand1x1"
  top: "fire8/expand1x1"
}
layer {
  name: "fire8/expand3x3"
  type: "Convolution"
  bottom: "fire8/squeeze1x1"
  top: "fire8/expand3x3"
  convolution_param {
    num_output: 256
    pad: 2
    kernel_size: 5
    weight_filler {
      type: "xavier"
    }
  }
}
layer {
  name: "fire8/relu_expand3x3"
  type: "ReLU"
  bottom: "fire8/expand3x3"
  top: "fire8/expand3x3"
}
layer {
  name: "fire8/concat"
  type: "Concat"
  bottom: "fire8/expand1x1"
  bottom: "fire8/expand3x3"
  top: "fire8/concat"
}
layer {
  name: "pool8"
  type: "Pooling"
  bottom: "fire8/concat"
  top: "pool8"
  pooling_param {
    pool: MAX
    kernel_size: 3
    stride: 2
  }
}
layer {
  name: "fire9/squeeze1x1"
  type: "Convolution"
  bottom: "pool8"
  top: "fire9/squeeze1x1"
  convolution_param {
    num_output: 64
    kernel_size: 1
    weight_filler {
      type: "xavier"
    }
  }
}
layer {
  name: "fire9/relu_squeeze1x1"
  type: "ReLU"
  bottom: "fire9/squeeze1x1"
  top: "fire9/squeeze1x1"
}
layer {
  name: "fire9/expand1x1"
  type: "Convolution"
  bottom: "fire9/squeeze1x1"
  top: "fire9/expand1x1"
  convolution_param {
    num_output: 256
    kernel_size: 1
    weight_filler {
      type: "xavier"
    }
  }
}
layer {
  name: "fire9/relu_expand1x1"
  type: "ReLU"
  bottom: "fire9/expand1x1"
  top: "fire9/expand1x1"
}
layer {
  name: "fire9/expand3x3"
  type: "Convolution"
  bottom: "fire9/squeeze1x1"
  top: "fire9/expand3x3"
  convolution_param {
    num_output: 256
    pad: 2
    kernel_size: 5
    weight_filler {
      type: "xavier"
    }
  }
}
layer {
  name: "fire9/relu_expand3x3"
  type: "ReLU"
  bottom: "fire9/expand3x3"
  top: "fire9/expand3x3"
}
layer {
  name: "fire9/concat"
  type: "Concat"
  bottom: "fire9/expand1x1"
  bottom: "fire9/expand3x3"
  top: "fire9/concat"
}
layer {
  name: "drop9"
  type: "Dropout"
  bottom: "fire9/concat"
  top: "fire9/concat"
  dropout_param {
    dropout_ratio: 0.5
  }
}
layer {
  name: "conv10"
  type: "Convolution"
  bottom: "fire9/concat"
  top: "conv10"
  convolution_param {
    num_output: 10
    kernel_size: 1
    weight_filler {
      type: "gaussian"
      mean: 0
      std: 0.01
    }
  }
}
layer {
  name: "relu_conv10"
  type: "ReLU"
  bottom: "conv10"
  top: "conv10"
}
layer {
  name: "pool10"
  type: "Pooling"
  bottom: "conv10"
  top: "pool10"
  pooling_param {
    pool: AVE
    global_pooling: true
  }
}
layer {
  name: "loss"
  type: "SoftmaxWithLoss"
  bottom: "pool10"
  bottom: "label"
  top: "loss"
  include {
    phase: TRAIN
  }
}
I0725 09:30:39.874398  9052 layer_factory.hpp:77] Creating layer data
I0725 09:30:39.875386  9052 net.cpp:100] Creating Layer data
I0725 09:30:39.875386  9052 net.cpp:418] data -> data
I0725 09:30:39.877387  9052 net.cpp:418] data -> label
I0725 09:30:39.894698  7720 db_leveldb.cpp:18] Opened leveldb D:/Master/master_graduate/dataset/test/squeezt-test1/train_LEVELDB
I0725 09:30:39.921658  9052 data_layer.cpp:41] output data size: 32,3,227,227
I0725 09:30:39.947683  9052 base_data_layer.cpp:69] Initializing prefetch
I0725 09:30:39.948679  9052 base_data_layer.cpp:72] Prefetch initialized.
I0725 09:30:39.948679  9052 net.cpp:150] Setting up data
I0725 09:30:39.948679  9052 net.cpp:157] Top shape: 32 3 227 227 (4946784)
I0725 09:30:39.948679  9052 net.cpp:157] Top shape: 32 (32)
I0725 09:30:39.948679  9052 net.cpp:165] Memory required for data: 19787264
I0725 09:30:39.948679  9052 layer_factory.hpp:77] Creating layer conv1
I0725 09:30:39.949678  9052 net.cpp:100] Creating Layer conv1
I0725 09:30:39.949678  9052 net.cpp:444] conv1 <- data
I0725 09:30:39.949678  9052 net.cpp:418] conv1 -> conv1
I0725 09:30:39.951679  9052 net.cpp:150] Setting up conv1
I0725 09:30:39.951679  9052 net.cpp:157] Top shape: 32 64 113 113 (26150912)
I0725 09:30:39.951679  9052 net.cpp:165] Memory required for data: 124390912
I0725 09:30:39.951679  9052 layer_factory.hpp:77] Creating layer relu_conv1
I0725 09:30:39.951679  9052 net.cpp:100] Creating Layer relu_conv1
I0725 09:30:39.952682  9052 net.cpp:444] relu_conv1 <- conv1
I0725 09:30:39.952682  9052 net.cpp:405] relu_conv1 -> conv1 (in-place)
I0725 09:30:39.952682  9052 net.cpp:150] Setting up relu_conv1
I0725 09:30:39.952682  9052 net.cpp:157] Top shape: 32 64 113 113 (26150912)
I0725 09:30:39.952682  9052 net.cpp:165] Memory required for data: 228994560
I0725 09:30:39.952682  9052 layer_factory.hpp:77] Creating layer pool1
I0725 09:30:39.952682  9052 net.cpp:100] Creating Layer pool1
I0725 09:30:39.952682  9052 net.cpp:444] pool1 <- conv1
I0725 09:30:39.953681  9052 net.cpp:418] pool1 -> pool1
I0725 09:30:39.954682  9052 net.cpp:150] Setting up pool1
I0725 09:30:39.954682  9052 net.cpp:157] Top shape: 32 64 56 56 (6422528)
I0725 09:30:39.954682  9052 net.cpp:165] Memory required for data: 254684672
I0725 09:30:39.954682  9052 layer_factory.hpp:77] Creating layer fire3/squeeze1x1
I0725 09:30:39.954682  9052 net.cpp:100] Creating Layer fire3/squeeze1x1
I0725 09:30:39.954682  9052 net.cpp:444] fire3/squeeze1x1 <- pool1
I0725 09:30:39.954682  9052 net.cpp:418] fire3/squeeze1x1 -> fire3/squeeze1x1
I0725 09:30:39.955682  9052 net.cpp:150] Setting up fire3/squeeze1x1
I0725 09:30:39.955682  9052 net.cpp:157] Top shape: 32 16 56 56 (1605632)
I0725 09:30:39.955682  9052 net.cpp:165] Memory required for data: 261107200
I0725 09:30:39.955682  9052 layer_factory.hpp:77] Creating layer fire3/relu_squeeze1x1
I0725 09:30:39.955682  9052 net.cpp:100] Creating Layer fire3/relu_squeeze1x1
I0725 09:30:39.955682  9052 net.cpp:444] fire3/relu_squeeze1x1 <- fire3/squeeze1x1
I0725 09:30:39.955682  9052 net.cpp:405] fire3/relu_squeeze1x1 -> fire3/squeeze1x1 (in-place)
I0725 09:30:39.956683  9052 net.cpp:150] Setting up fire3/relu_squeeze1x1
I0725 09:30:39.956683  9052 net.cpp:157] Top shape: 32 16 56 56 (1605632)
I0725 09:30:39.956683  9052 net.cpp:165] Memory required for data: 267529728
I0725 09:30:39.956683  9052 layer_factory.hpp:77] Creating layer fire3/squeeze1x1_fire3/relu_squeeze1x1_0_split
I0725 09:30:39.956683  9052 net.cpp:100] Creating Layer fire3/squeeze1x1_fire3/relu_squeeze1x1_0_split
I0725 09:30:39.956683  9052 net.cpp:444] fire3/squeeze1x1_fire3/relu_squeeze1x1_0_split <- fire3/squeeze1x1
I0725 09:30:39.956683  9052 net.cpp:418] fire3/squeeze1x1_fire3/relu_squeeze1x1_0_split -> fire3/squeeze1x1_fire3/relu_squeeze1x1_0_split_0
I0725 09:30:39.957684  9052 net.cpp:418] fire3/squeeze1x1_fire3/relu_squeeze1x1_0_split -> fire3/squeeze1x1_fire3/relu_squeeze1x1_0_split_1
I0725 09:30:39.957684  9052 net.cpp:150] Setting up fire3/squeeze1x1_fire3/relu_squeeze1x1_0_split
I0725 09:30:39.957684  9052 net.cpp:157] Top shape: 32 16 56 56 (1605632)
I0725 09:30:39.957684  9052 net.cpp:157] Top shape: 32 16 56 56 (1605632)
I0725 09:30:39.957684  9052 net.cpp:165] Memory required for data: 280374784
I0725 09:30:39.957684  9052 layer_factory.hpp:77] Creating layer fire3/expand1x1
I0725 09:30:39.957684  9052 net.cpp:100] Creating Layer fire3/expand1x1
I0725 09:30:39.957684  9052 net.cpp:444] fire3/expand1x1 <- fire3/squeeze1x1_fire3/relu_squeeze1x1_0_split_0
I0725 09:30:39.957684  9052 net.cpp:418] fire3/expand1x1 -> fire3/expand1x1
I0725 09:30:39.958685  9052 net.cpp:150] Setting up fire3/expand1x1
I0725 09:30:39.958685  9052 net.cpp:157] Top shape: 32 64 56 56 (6422528)
I0725 09:30:39.958685  9052 net.cpp:165] Memory required for data: 306064896
I0725 09:30:39.958685  9052 layer_factory.hpp:77] Creating layer fire3/relu_expand1x1
I0725 09:30:39.958685  9052 net.cpp:100] Creating Layer fire3/relu_expand1x1
I0725 09:30:39.959683  9052 net.cpp:444] fire3/relu_expand1x1 <- fire3/expand1x1
I0725 09:30:39.959683  9052 net.cpp:405] fire3/relu_expand1x1 -> fire3/expand1x1 (in-place)
I0725 09:30:39.959683  9052 net.cpp:150] Setting up fire3/relu_expand1x1
I0725 09:30:39.959683  9052 net.cpp:157] Top shape: 32 64 56 56 (6422528)
I0725 09:30:39.959683  9052 net.cpp:165] Memory required for data: 331755008
I0725 09:30:39.959683  9052 layer_factory.hpp:77] Creating layer fire3/expand3x3
I0725 09:30:39.959683  9052 net.cpp:100] Creating Layer fire3/expand3x3
I0725 09:30:39.959683  9052 net.cpp:444] fire3/expand3x3 <- fire3/squeeze1x1_fire3/relu_squeeze1x1_0_split_1
I0725 09:30:39.959683  9052 net.cpp:418] fire3/expand3x3 -> fire3/expand3x3
I0725 09:30:39.965688  9052 net.cpp:150] Setting up fire3/expand3x3
I0725 09:30:39.965688  9052 net.cpp:157] Top shape: 32 64 56 56 (6422528)
I0725 09:30:39.965688  9052 net.cpp:165] Memory required for data: 357445120
I0725 09:30:39.965688  9052 layer_factory.hpp:77] Creating layer fire3/relu_expand3x3
I0725 09:30:39.966688  9052 net.cpp:100] Creating Layer fire3/relu_expand3x3
I0725 09:30:39.966688  9052 net.cpp:444] fire3/relu_expand3x3 <- fire3/expand3x3
I0725 09:30:39.966688  9052 net.cpp:405] fire3/relu_expand3x3 -> fire3/expand3x3 (in-place)
I0725 09:30:39.966688  9052 net.cpp:150] Setting up fire3/relu_expand3x3
I0725 09:30:39.966688  9052 net.cpp:157] Top shape: 32 64 56 56 (6422528)
I0725 09:30:39.966688  9052 net.cpp:165] Memory required for data: 383135232
I0725 09:30:39.966688  9052 layer_factory.hpp:77] Creating layer fire3/concat
I0725 09:30:39.967690  9052 net.cpp:100] Creating Layer fire3/concat
I0725 09:30:39.967690  9052 net.cpp:444] fire3/concat <- fire3/expand1x1
I0725 09:30:39.967690  9052 net.cpp:444] fire3/concat <- fire3/expand3x3
I0725 09:30:39.967690  9052 net.cpp:418] fire3/concat -> fire3/concat
I0725 09:30:39.968698  9052 net.cpp:150] Setting up fire3/concat
I0725 09:30:39.968698  9052 net.cpp:157] Top shape: 32 128 56 56 (12845056)
I0725 09:30:39.968698  9052 net.cpp:165] Memory required for data: 434515456
I0725 09:30:39.968698  9052 layer_factory.hpp:77] Creating layer pool3
I0725 09:30:39.968698  9052 net.cpp:100] Creating Layer pool3
I0725 09:30:39.968698  9052 net.cpp:444] pool3 <- fire3/concat
I0725 09:30:39.968698  9052 net.cpp:418] pool3 -> pool3
I0725 09:30:39.970691  9052 net.cpp:150] Setting up pool3
I0725 09:30:39.970691  9052 net.cpp:157] Top shape: 32 128 28 28 (3211264)
I0725 09:30:39.970691  9052 net.cpp:165] Memory required for data: 447360512
I0725 09:30:39.970691  9052 layer_factory.hpp:77] Creating layer fire5/squeeze1x1
I0725 09:30:39.970691  9052 net.cpp:100] Creating Layer fire5/squeeze1x1
I0725 09:30:39.970691  9052 net.cpp:444] fire5/squeeze1x1 <- pool3
I0725 09:30:39.970691  9052 net.cpp:418] fire5/squeeze1x1 -> fire5/squeeze1x1
I0725 09:30:39.971693  9052 net.cpp:150] Setting up fire5/squeeze1x1
I0725 09:30:39.971693  9052 net.cpp:157] Top shape: 32 32 28 28 (802816)
I0725 09:30:39.971693  9052 net.cpp:165] Memory required for data: 450571776
I0725 09:30:39.971693  9052 layer_factory.hpp:77] Creating layer fire5/relu_squeeze1x1
I0725 09:30:39.971693  9052 net.cpp:100] Creating Layer fire5/relu_squeeze1x1
I0725 09:30:39.971693  9052 net.cpp:444] fire5/relu_squeeze1x1 <- fire5/squeeze1x1
I0725 09:30:39.972692  9052 net.cpp:405] fire5/relu_squeeze1x1 -> fire5/squeeze1x1 (in-place)
I0725 09:30:39.972692  9052 net.cpp:150] Setting up fire5/relu_squeeze1x1
I0725 09:30:39.972692  9052 net.cpp:157] Top shape: 32 32 28 28 (802816)
I0725 09:30:39.972692  9052 net.cpp:165] Memory required for data: 453783040
I0725 09:30:39.972692  9052 layer_factory.hpp:77] Creating layer fire5/squeeze1x1_fire5/relu_squeeze1x1_0_split
I0725 09:30:39.972692  9052 net.cpp:100] Creating Layer fire5/squeeze1x1_fire5/relu_squeeze1x1_0_split
I0725 09:30:39.972692  9052 net.cpp:444] fire5/squeeze1x1_fire5/relu_squeeze1x1_0_split <- fire5/squeeze1x1
I0725 09:30:39.972692  9052 net.cpp:418] fire5/squeeze1x1_fire5/relu_squeeze1x1_0_split -> fire5/squeeze1x1_fire5/relu_squeeze1x1_0_split_0
I0725 09:30:39.972692  9052 net.cpp:418] fire5/squeeze1x1_fire5/relu_squeeze1x1_0_split -> fire5/squeeze1x1_fire5/relu_squeeze1x1_0_split_1
I0725 09:30:39.972692  9052 net.cpp:150] Setting up fire5/squeeze1x1_fire5/relu_squeeze1x1_0_split
I0725 09:30:39.972692  9052 net.cpp:157] Top shape: 32 32 28 28 (802816)
I0725 09:30:39.972692  9052 net.cpp:157] Top shape: 32 32 28 28 (802816)
I0725 09:30:39.972692  9052 net.cpp:165] Memory required for data: 460205568
I0725 09:30:39.973693  9052 layer_factory.hpp:77] Creating layer fire5/expand1x1
I0725 09:30:39.973693  9052 net.cpp:100] Creating Layer fire5/expand1x1
I0725 09:30:39.973693  9052 net.cpp:444] fire5/expand1x1 <- fire5/squeeze1x1_fire5/relu_squeeze1x1_0_split_0
I0725 09:30:39.973693  9052 net.cpp:418] fire5/expand1x1 -> fire5/expand1x1
I0725 09:30:39.974694  9052 net.cpp:150] Setting up fire5/expand1x1
I0725 09:30:39.974694  9052 net.cpp:157] Top shape: 32 128 28 28 (3211264)
I0725 09:30:39.974694  9052 net.cpp:165] Memory required for data: 473050624
I0725 09:30:39.974694  9052 layer_factory.hpp:77] Creating layer fire5/relu_expand1x1
I0725 09:30:39.974694  9052 net.cpp:100] Creating Layer fire5/relu_expand1x1
I0725 09:30:39.974694  9052 net.cpp:444] fire5/relu_expand1x1 <- fire5/expand1x1
I0725 09:30:39.975695  9052 net.cpp:405] fire5/relu_expand1x1 -> fire5/expand1x1 (in-place)
I0725 09:30:39.975695  9052 net.cpp:150] Setting up fire5/relu_expand1x1
I0725 09:30:39.975695  9052 net.cpp:157] Top shape: 32 128 28 28 (3211264)
I0725 09:30:39.975695  9052 net.cpp:165] Memory required for data: 485895680
I0725 09:30:39.975695  9052 layer_factory.hpp:77] Creating layer fire5/expand3x3
I0725 09:30:39.975695  9052 net.cpp:100] Creating Layer fire5/expand3x3
I0725 09:30:39.975695  9052 net.cpp:444] fire5/expand3x3 <- fire5/squeeze1x1_fire5/relu_squeeze1x1_0_split_1
I0725 09:30:39.975695  9052 net.cpp:418] fire5/expand3x3 -> fire5/expand3x3
I0725 09:30:39.991706  9052 net.cpp:150] Setting up fire5/expand3x3
I0725 09:30:39.991706  9052 net.cpp:157] Top shape: 32 128 28 28 (3211264)
I0725 09:30:39.991706  9052 net.cpp:165] Memory required for data: 498740736
I0725 09:30:39.991706  9052 layer_factory.hpp:77] Creating layer fire5/relu_expand3x3
I0725 09:30:39.991706  9052 net.cpp:100] Creating Layer fire5/relu_expand3x3
I0725 09:30:39.991706  9052 net.cpp:444] fire5/relu_expand3x3 <- fire5/expand3x3
I0725 09:30:39.992707  9052 net.cpp:405] fire5/relu_expand3x3 -> fire5/expand3x3 (in-place)
I0725 09:30:39.992707  9052 net.cpp:150] Setting up fire5/relu_expand3x3
I0725 09:30:39.992707  9052 net.cpp:157] Top shape: 32 128 28 28 (3211264)
I0725 09:30:39.992707  9052 net.cpp:165] Memory required for data: 511585792
I0725 09:30:39.992707  9052 layer_factory.hpp:77] Creating layer fire5/concat
I0725 09:30:39.992707  9052 net.cpp:100] Creating Layer fire5/concat
I0725 09:30:39.992707  9052 net.cpp:444] fire5/concat <- fire5/expand1x1
I0725 09:30:39.992707  9052 net.cpp:444] fire5/concat <- fire5/expand3x3
I0725 09:30:39.992707  9052 net.cpp:418] fire5/concat -> fire5/concat
I0725 09:30:39.992707  9052 net.cpp:150] Setting up fire5/concat
I0725 09:30:39.992707  9052 net.cpp:157] Top shape: 32 256 28 28 (6422528)
I0725 09:30:39.992707  9052 net.cpp:165] Memory required for data: 537275904
I0725 09:30:39.993710  9052 layer_factory.hpp:77] Creating layer pool5
I0725 09:30:39.993710  9052 net.cpp:100] Creating Layer pool5
I0725 09:30:39.993710  9052 net.cpp:444] pool5 <- fire5/concat
I0725 09:30:39.993710  9052 net.cpp:418] pool5 -> pool5
I0725 09:30:39.993710  9052 net.cpp:150] Setting up pool5
I0725 09:30:39.993710  9052 net.cpp:157] Top shape: 32 256 14 14 (1605632)
I0725 09:30:39.993710  9052 net.cpp:165] Memory required for data: 543698432
I0725 09:30:39.993710  9052 layer_factory.hpp:77] Creating layer fire6/squeeze1x1
I0725 09:30:39.993710  9052 net.cpp:100] Creating Layer fire6/squeeze1x1
I0725 09:30:39.994709  9052 net.cpp:444] fire6/squeeze1x1 <- pool5
I0725 09:30:39.994709  9052 net.cpp:418] fire6/squeeze1x1 -> fire6/squeeze1x1
I0725 09:30:39.995712  9052 net.cpp:150] Setting up fire6/squeeze1x1
I0725 09:30:39.995712  9052 net.cpp:157] Top shape: 32 48 14 14 (301056)
I0725 09:30:39.996711  9052 net.cpp:165] Memory required for data: 544902656
I0725 09:30:39.996711  9052 layer_factory.hpp:77] Creating layer fire6/relu_squeeze1x1
I0725 09:30:39.996711  9052 net.cpp:100] Creating Layer fire6/relu_squeeze1x1
I0725 09:30:39.996711  9052 net.cpp:444] fire6/relu_squeeze1x1 <- fire6/squeeze1x1
I0725 09:30:39.996711  9052 net.cpp:405] fire6/relu_squeeze1x1 -> fire6/squeeze1x1 (in-place)
I0725 09:30:39.996711  9052 net.cpp:150] Setting up fire6/relu_squeeze1x1
I0725 09:30:39.996711  9052 net.cpp:157] Top shape: 32 48 14 14 (301056)
I0725 09:30:39.996711  9052 net.cpp:165] Memory required for data: 546106880
I0725 09:30:39.996711  9052 layer_factory.hpp:77] Creating layer fire6/squeeze1x1_fire6/relu_squeeze1x1_0_split
I0725 09:30:39.996711  9052 net.cpp:100] Creating Layer fire6/squeeze1x1_fire6/relu_squeeze1x1_0_split
I0725 09:30:39.996711  9052 net.cpp:444] fire6/squeeze1x1_fire6/relu_squeeze1x1_0_split <- fire6/squeeze1x1
I0725 09:30:39.996711  9052 net.cpp:418] fire6/squeeze1x1_fire6/relu_squeeze1x1_0_split -> fire6/squeeze1x1_fire6/relu_squeeze1x1_0_split_0
I0725 09:30:39.997710  9052 net.cpp:418] fire6/squeeze1x1_fire6/relu_squeeze1x1_0_split -> fire6/squeeze1x1_fire6/relu_squeeze1x1_0_split_1
I0725 09:30:39.997710  9052 net.cpp:150] Setting up fire6/squeeze1x1_fire6/relu_squeeze1x1_0_split
I0725 09:30:39.997710  9052 net.cpp:157] Top shape: 32 48 14 14 (301056)
I0725 09:30:39.997710  9052 net.cpp:157] Top shape: 32 48 14 14 (301056)
I0725 09:30:39.997710  9052 net.cpp:165] Memory required for data: 548515328
I0725 09:30:39.997710  9052 layer_factory.hpp:77] Creating layer fire6/expand1x1
I0725 09:30:39.997710  9052 net.cpp:100] Creating Layer fire6/expand1x1
I0725 09:30:39.997710  9052 net.cpp:444] fire6/expand1x1 <- fire6/squeeze1x1_fire6/relu_squeeze1x1_0_split_0
I0725 09:30:39.997710  9052 net.cpp:418] fire6/expand1x1 -> fire6/expand1x1
I0725 09:30:39.999711  9052 net.cpp:150] Setting up fire6/expand1x1
I0725 09:30:39.999711  9052 net.cpp:157] Top shape: 32 192 14 14 (1204224)
I0725 09:30:39.999711  9052 net.cpp:165] Memory required for data: 553332224
I0725 09:30:40.000713  9052 layer_factory.hpp:77] Creating layer fire6/relu_expand1x1
I0725 09:30:40.000713  9052 net.cpp:100] Creating Layer fire6/relu_expand1x1
I0725 09:30:40.000713  9052 net.cpp:444] fire6/relu_expand1x1 <- fire6/expand1x1
I0725 09:30:40.000713  9052 net.cpp:405] fire6/relu_expand1x1 -> fire6/expand1x1 (in-place)
I0725 09:30:40.000713  9052 net.cpp:150] Setting up fire6/relu_expand1x1
I0725 09:30:40.000713  9052 net.cpp:157] Top shape: 32 192 14 14 (1204224)
I0725 09:30:40.000713  9052 net.cpp:165] Memory required for data: 558149120
I0725 09:30:40.000713  9052 layer_factory.hpp:77] Creating layer fire6/expand3x3
I0725 09:30:40.000713  9052 net.cpp:100] Creating Layer fire6/expand3x3
I0725 09:30:40.000713  9052 net.cpp:444] fire6/expand3x3 <- fire6/squeeze1x1_fire6/relu_squeeze1x1_0_split_1
I0725 09:30:40.001713  9052 net.cpp:418] fire6/expand3x3 -> fire6/expand3x3
I0725 09:30:40.035738  9052 net.cpp:150] Setting up fire6/expand3x3
I0725 09:30:40.035738  9052 net.cpp:157] Top shape: 32 192 14 14 (1204224)
I0725 09:30:40.035738  9052 net.cpp:165] Memory required for data: 562966016
I0725 09:30:40.036739  9052 layer_factory.hpp:77] Creating layer fire6/relu_expand3x3
I0725 09:30:40.036739  9052 net.cpp:100] Creating Layer fire6/relu_expand3x3
I0725 09:30:40.036739  9052 net.cpp:444] fire6/relu_expand3x3 <- fire6/expand3x3
I0725 09:30:40.036739  9052 net.cpp:405] fire6/relu_expand3x3 -> fire6/expand3x3 (in-place)
I0725 09:30:40.036739  9052 net.cpp:150] Setting up fire6/relu_expand3x3
I0725 09:30:40.036739  9052 net.cpp:157] Top shape: 32 192 14 14 (1204224)
I0725 09:30:40.036739  9052 net.cpp:165] Memory required for data: 567782912
I0725 09:30:40.036739  9052 layer_factory.hpp:77] Creating layer fire6/concat
I0725 09:30:40.036739  9052 net.cpp:100] Creating Layer fire6/concat
I0725 09:30:40.036739  9052 net.cpp:444] fire6/concat <- fire6/expand1x1
I0725 09:30:40.036739  9052 net.cpp:444] fire6/concat <- fire6/expand3x3
I0725 09:30:40.036739  9052 net.cpp:418] fire6/concat -> fire6/concat
I0725 09:30:40.037740  9052 net.cpp:150] Setting up fire6/concat
I0725 09:30:40.037740  9052 net.cpp:157] Top shape: 32 384 14 14 (2408448)
I0725 09:30:40.037740  9052 net.cpp:165] Memory required for data: 577416704
I0725 09:30:40.037740  9052 layer_factory.hpp:77] Creating layer pool6
I0725 09:30:40.037740  9052 net.cpp:100] Creating Layer pool6
I0725 09:30:40.037740  9052 net.cpp:444] pool6 <- fire6/concat
I0725 09:30:40.037740  9052 net.cpp:418] pool6 -> pool6
I0725 09:30:40.037740  9052 net.cpp:150] Setting up pool6
I0725 09:30:40.037740  9052 net.cpp:157] Top shape: 32 384 7 7 (602112)
I0725 09:30:40.037740  9052 net.cpp:165] Memory required for data: 579825152
I0725 09:30:40.037740  9052 layer_factory.hpp:77] Creating layer fire7/squeeze1x1
I0725 09:30:40.037740  9052 net.cpp:100] Creating Layer fire7/squeeze1x1
I0725 09:30:40.038741  9052 net.cpp:444] fire7/squeeze1x1 <- pool6
I0725 09:30:40.038741  9052 net.cpp:418] fire7/squeeze1x1 -> fire7/squeeze1x1
I0725 09:30:40.040742  9052 net.cpp:150] Setting up fire7/squeeze1x1
I0725 09:30:40.040742  9052 net.cpp:157] Top shape: 32 48 7 7 (75264)
I0725 09:30:40.040742  9052 net.cpp:165] Memory required for data: 580126208
I0725 09:30:40.041741  9052 layer_factory.hpp:77] Creating layer fire7/relu_squeeze1x1
I0725 09:30:40.041741  9052 net.cpp:100] Creating Layer fire7/relu_squeeze1x1
I0725 09:30:40.041741  9052 net.cpp:444] fire7/relu_squeeze1x1 <- fire7/squeeze1x1
I0725 09:30:40.041741  9052 net.cpp:405] fire7/relu_squeeze1x1 -> fire7/squeeze1x1 (in-place)
I0725 09:30:40.041741  9052 net.cpp:150] Setting up fire7/relu_squeeze1x1
I0725 09:30:40.041741  9052 net.cpp:157] Top shape: 32 48 7 7 (75264)
I0725 09:30:40.041741  9052 net.cpp:165] Memory required for data: 580427264
I0725 09:30:40.041741  9052 layer_factory.hpp:77] Creating layer fire7/squeeze1x1_fire7/relu_squeeze1x1_0_split
I0725 09:30:40.042743  9052 net.cpp:100] Creating Layer fire7/squeeze1x1_fire7/relu_squeeze1x1_0_split
I0725 09:30:40.042743  9052 net.cpp:444] fire7/squeeze1x1_fire7/relu_squeeze1x1_0_split <- fire7/squeeze1x1
I0725 09:30:40.042743  9052 net.cpp:418] fire7/squeeze1x1_fire7/relu_squeeze1x1_0_split -> fire7/squeeze1x1_fire7/relu_squeeze1x1_0_split_0
I0725 09:30:40.042743  9052 net.cpp:418] fire7/squeeze1x1_fire7/relu_squeeze1x1_0_split -> fire7/squeeze1x1_fire7/relu_squeeze1x1_0_split_1
I0725 09:30:40.042743  9052 net.cpp:150] Setting up fire7/squeeze1x1_fire7/relu_squeeze1x1_0_split
I0725 09:30:40.042743  9052 net.cpp:157] Top shape: 32 48 7 7 (75264)
I0725 09:30:40.042743  9052 net.cpp:157] Top shape: 32 48 7 7 (75264)
I0725 09:30:40.042743  9052 net.cpp:165] Memory required for data: 581029376
I0725 09:30:40.043745  9052 layer_factory.hpp:77] Creating layer fire7/expand1x1
I0725 09:30:40.043745  9052 net.cpp:100] Creating Layer fire7/expand1x1
I0725 09:30:40.043745  9052 net.cpp:444] fire7/expand1x1 <- fire7/squeeze1x1_fire7/relu_squeeze1x1_0_split_0
I0725 09:30:40.043745  9052 net.cpp:418] fire7/expand1x1 -> fire7/expand1x1
I0725 09:30:40.044744  9052 net.cpp:150] Setting up fire7/expand1x1
I0725 09:30:40.044744  9052 net.cpp:157] Top shape: 32 192 7 7 (301056)
I0725 09:30:40.044744  9052 net.cpp:165] Memory required for data: 582233600
I0725 09:30:40.044744  9052 layer_factory.hpp:77] Creating layer fire7/relu_expand1x1
I0725 09:30:40.045744  9052 net.cpp:100] Creating Layer fire7/relu_expand1x1
I0725 09:30:40.045744  9052 net.cpp:444] fire7/relu_expand1x1 <- fire7/expand1x1
I0725 09:30:40.045744  9052 net.cpp:405] fire7/relu_expand1x1 -> fire7/expand1x1 (in-place)
I0725 09:30:40.045744  9052 net.cpp:150] Setting up fire7/relu_expand1x1
I0725 09:30:40.045744  9052 net.cpp:157] Top shape: 32 192 7 7 (301056)
I0725 09:30:40.045744  9052 net.cpp:165] Memory required for data: 583437824
I0725 09:30:40.045744  9052 layer_factory.hpp:77] Creating layer fire7/expand3x3
I0725 09:30:40.045744  9052 net.cpp:100] Creating Layer fire7/expand3x3
I0725 09:30:40.045744  9052 net.cpp:444] fire7/expand3x3 <- fire7/squeeze1x1_fire7/relu_squeeze1x1_0_split_1
I0725 09:30:40.045744  9052 net.cpp:418] fire7/expand3x3 -> fire7/expand3x3
I0725 09:30:40.082770  9052 net.cpp:150] Setting up fire7/expand3x3
I0725 09:30:40.082770  9052 net.cpp:157] Top shape: 32 192 7 7 (301056)
I0725 09:30:40.082770  9052 net.cpp:165] Memory required for data: 584642048
I0725 09:30:40.083771  9052 layer_factory.hpp:77] Creating layer fire7/relu_expand3x3
I0725 09:30:40.083771  9052 net.cpp:100] Creating Layer fire7/relu_expand3x3
I0725 09:30:40.083771  9052 net.cpp:444] fire7/relu_expand3x3 <- fire7/expand3x3
I0725 09:30:40.083771  9052 net.cpp:405] fire7/relu_expand3x3 -> fire7/expand3x3 (in-place)
I0725 09:30:40.083771  9052 net.cpp:150] Setting up fire7/relu_expand3x3
I0725 09:30:40.083771  9052 net.cpp:157] Top shape: 32 192 7 7 (301056)
I0725 09:30:40.083771  9052 net.cpp:165] Memory required for data: 585846272
I0725 09:30:40.083771  9052 layer_factory.hpp:77] Creating layer fire7/concat
I0725 09:30:40.084772  9052 net.cpp:100] Creating Layer fire7/concat
I0725 09:30:40.096781  9052 net.cpp:444] fire7/concat <- fire7/expand1x1
I0725 09:30:40.096781  9052 net.cpp:444] fire7/concat <- fire7/expand3x3
I0725 09:30:40.096781  9052 net.cpp:418] fire7/concat -> fire7/concat
I0725 09:30:40.096781  9052 net.cpp:150] Setting up fire7/concat
I0725 09:30:40.096781  9052 net.cpp:157] Top shape: 32 384 7 7 (602112)
I0725 09:30:40.097784  9052 net.cpp:165] Memory required for data: 588254720
I0725 09:30:40.097784  9052 layer_factory.hpp:77] Creating layer pool7
I0725 09:30:40.097784  9052 net.cpp:100] Creating Layer pool7
I0725 09:30:40.097784  9052 net.cpp:444] pool7 <- fire7/concat
I0725 09:30:40.097784  9052 net.cpp:418] pool7 -> pool7
I0725 09:30:40.097784  9052 net.cpp:150] Setting up pool7
I0725 09:30:40.097784  9052 net.cpp:157] Top shape: 32 384 3 3 (110592)
I0725 09:30:40.097784  9052 net.cpp:165] Memory required for data: 588697088
I0725 09:30:40.097784  9052 layer_factory.hpp:77] Creating layer fire8/squeeze1x1
I0725 09:30:40.097784  9052 net.cpp:100] Creating Layer fire8/squeeze1x1
I0725 09:30:40.097784  9052 net.cpp:444] fire8/squeeze1x1 <- pool7
I0725 09:30:40.097784  9052 net.cpp:418] fire8/squeeze1x1 -> fire8/squeeze1x1
I0725 09:30:40.101783  9052 net.cpp:150] Setting up fire8/squeeze1x1
I0725 09:30:40.101783  9052 net.cpp:157] Top shape: 32 64 3 3 (18432)
I0725 09:30:40.101783  9052 net.cpp:165] Memory required for data: 588770816
I0725 09:30:40.102784  9052 layer_factory.hpp:77] Creating layer fire8/relu_squeeze1x1
I0725 09:30:40.102784  9052 net.cpp:100] Creating Layer fire8/relu_squeeze1x1
I0725 09:30:40.102784  9052 net.cpp:444] fire8/relu_squeeze1x1 <- fire8/squeeze1x1
I0725 09:30:40.102784  9052 net.cpp:405] fire8/relu_squeeze1x1 -> fire8/squeeze1x1 (in-place)
I0725 09:30:40.102784  9052 net.cpp:150] Setting up fire8/relu_squeeze1x1
I0725 09:30:40.102784  9052 net.cpp:157] Top shape: 32 64 3 3 (18432)
I0725 09:30:40.102784  9052 net.cpp:165] Memory required for data: 588844544
I0725 09:30:40.102784  9052 layer_factory.hpp:77] Creating layer fire8/squeeze1x1_fire8/relu_squeeze1x1_0_split
I0725 09:30:40.102784  9052 net.cpp:100] Creating Layer fire8/squeeze1x1_fire8/relu_squeeze1x1_0_split
I0725 09:30:40.103785  9052 net.cpp:444] fire8/squeeze1x1_fire8/relu_squeeze1x1_0_split <- fire8/squeeze1x1
I0725 09:30:40.103785  9052 net.cpp:418] fire8/squeeze1x1_fire8/relu_squeeze1x1_0_split -> fire8/squeeze1x1_fire8/relu_squeeze1x1_0_split_0
I0725 09:30:40.103785  9052 net.cpp:418] fire8/squeeze1x1_fire8/relu_squeeze1x1_0_split -> fire8/squeeze1x1_fire8/relu_squeeze1x1_0_split_1
I0725 09:30:40.103785  9052 net.cpp:150] Setting up fire8/squeeze1x1_fire8/relu_squeeze1x1_0_split
I0725 09:30:40.103785  9052 net.cpp:157] Top shape: 32 64 3 3 (18432)
I0725 09:30:40.103785  9052 net.cpp:157] Top shape: 32 64 3 3 (18432)
I0725 09:30:40.103785  9052 net.cpp:165] Memory required for data: 588992000
I0725 09:30:40.103785  9052 layer_factory.hpp:77] Creating layer fire8/expand1x1
I0725 09:30:40.103785  9052 net.cpp:100] Creating Layer fire8/expand1x1
I0725 09:30:40.103785  9052 net.cpp:444] fire8/expand1x1 <- fire8/squeeze1x1_fire8/relu_squeeze1x1_0_split_0
I0725 09:30:40.104789  9052 net.cpp:418] fire8/expand1x1 -> fire8/expand1x1
I0725 09:30:40.106789  9052 net.cpp:150] Setting up fire8/expand1x1
I0725 09:30:40.106789  9052 net.cpp:157] Top shape: 32 256 3 3 (73728)
I0725 09:30:40.106789  9052 net.cpp:165] Memory required for data: 589286912
I0725 09:30:40.106789  9052 layer_factory.hpp:77] Creating layer fire8/relu_expand1x1
I0725 09:30:40.106789  9052 net.cpp:100] Creating Layer fire8/relu_expand1x1
I0725 09:30:40.106789  9052 net.cpp:444] fire8/relu_expand1x1 <- fire8/expand1x1
I0725 09:30:40.107790  9052 net.cpp:405] fire8/relu_expand1x1 -> fire8/expand1x1 (in-place)
I0725 09:30:40.107790  9052 net.cpp:150] Setting up fire8/relu_expand1x1
I0725 09:30:40.107790  9052 net.cpp:157] Top shape: 32 256 3 3 (73728)
I0725 09:30:40.107790  9052 net.cpp:165] Memory required for data: 589581824
I0725 09:30:40.107790  9052 layer_factory.hpp:77] Creating layer fire8/expand3x3
I0725 09:30:40.107790  9052 net.cpp:100] Creating Layer fire8/expand3x3
I0725 09:30:40.107790  9052 net.cpp:444] fire8/expand3x3 <- fire8/squeeze1x1_fire8/relu_squeeze1x1_0_split_1
I0725 09:30:40.107790  9052 net.cpp:418] fire8/expand3x3 -> fire8/expand3x3
I0725 09:30:40.166831  9052 net.cpp:150] Setting up fire8/expand3x3
I0725 09:30:40.166831  9052 net.cpp:157] Top shape: 32 256 3 3 (73728)
I0725 09:30:40.166831  9052 net.cpp:165] Memory required for data: 589876736
I0725 09:30:40.166831  9052 layer_factory.hpp:77] Creating layer fire8/relu_expand3x3
I0725 09:30:40.166831  9052 net.cpp:100] Creating Layer fire8/relu_expand3x3
I0725 09:30:40.167834  9052 net.cpp:444] fire8/relu_expand3x3 <- fire8/expand3x3
I0725 09:30:40.167834  9052 net.cpp:405] fire8/relu_expand3x3 -> fire8/expand3x3 (in-place)
I0725 09:30:40.167834  9052 net.cpp:150] Setting up fire8/relu_expand3x3
I0725 09:30:40.167834  9052 net.cpp:157] Top shape: 32 256 3 3 (73728)
I0725 09:30:40.167834  9052 net.cpp:165] Memory required for data: 590171648
I0725 09:30:40.167834  9052 layer_factory.hpp:77] Creating layer fire8/concat
I0725 09:30:40.167834  9052 net.cpp:100] Creating Layer fire8/concat
I0725 09:30:40.167834  9052 net.cpp:444] fire8/concat <- fire8/expand1x1
I0725 09:30:40.167834  9052 net.cpp:444] fire8/concat <- fire8/expand3x3
I0725 09:30:40.167834  9052 net.cpp:418] fire8/concat -> fire8/concat
I0725 09:30:40.167834  9052 net.cpp:150] Setting up fire8/concat
I0725 09:30:40.167834  9052 net.cpp:157] Top shape: 32 512 3 3 (147456)
I0725 09:30:40.167834  9052 net.cpp:165] Memory required for data: 590761472
I0725 09:30:40.167834  9052 layer_factory.hpp:77] Creating layer pool8
I0725 09:30:40.168831  9052 net.cpp:100] Creating Layer pool8
I0725 09:30:40.168831  9052 net.cpp:444] pool8 <- fire8/concat
I0725 09:30:40.168831  9052 net.cpp:418] pool8 -> pool8
I0725 09:30:40.168831  9052 net.cpp:150] Setting up pool8
I0725 09:30:40.168831  9052 net.cpp:157] Top shape: 32 512 1 1 (16384)
I0725 09:30:40.168831  9052 net.cpp:165] Memory required for data: 590827008
I0725 09:30:40.168831  9052 layer_factory.hpp:77] Creating layer fire9/squeeze1x1
I0725 09:30:40.168831  9052 net.cpp:100] Creating Layer fire9/squeeze1x1
I0725 09:30:40.168831  9052 net.cpp:444] fire9/squeeze1x1 <- pool8
I0725 09:30:40.169832  9052 net.cpp:418] fire9/squeeze1x1 -> fire9/squeeze1x1
I0725 09:30:40.174835  9052 net.cpp:150] Setting up fire9/squeeze1x1
I0725 09:30:40.174835  9052 net.cpp:157] Top shape: 32 64 1 1 (2048)
I0725 09:30:40.174835  9052 net.cpp:165] Memory required for data: 590835200
I0725 09:30:40.175837  9052 layer_factory.hpp:77] Creating layer fire9/relu_squeeze1x1
I0725 09:30:40.175837  9052 net.cpp:100] Creating Layer fire9/relu_squeeze1x1
I0725 09:30:40.175837  9052 net.cpp:444] fire9/relu_squeeze1x1 <- fire9/squeeze1x1
I0725 09:30:40.175837  9052 net.cpp:405] fire9/relu_squeeze1x1 -> fire9/squeeze1x1 (in-place)
I0725 09:30:40.175837  9052 net.cpp:150] Setting up fire9/relu_squeeze1x1
I0725 09:30:40.175837  9052 net.cpp:157] Top shape: 32 64 1 1 (2048)
I0725 09:30:40.175837  9052 net.cpp:165] Memory required for data: 590843392
I0725 09:30:40.175837  9052 layer_factory.hpp:77] Creating layer fire9/squeeze1x1_fire9/relu_squeeze1x1_0_split
I0725 09:30:40.175837  9052 net.cpp:100] Creating Layer fire9/squeeze1x1_fire9/relu_squeeze1x1_0_split
I0725 09:30:40.175837  9052 net.cpp:444] fire9/squeeze1x1_fire9/relu_squeeze1x1_0_split <- fire9/squeeze1x1
I0725 09:30:40.175837  9052 net.cpp:418] fire9/squeeze1x1_fire9/relu_squeeze1x1_0_split -> fire9/squeeze1x1_fire9/relu_squeeze1x1_0_split_0
I0725 09:30:40.176837  9052 net.cpp:418] fire9/squeeze1x1_fire9/relu_squeeze1x1_0_split -> fire9/squeeze1x1_fire9/relu_squeeze1x1_0_split_1
I0725 09:30:40.176837  9052 net.cpp:150] Setting up fire9/squeeze1x1_fire9/relu_squeeze1x1_0_split
I0725 09:30:40.176837  9052 net.cpp:157] Top shape: 32 64 1 1 (2048)
I0725 09:30:40.176837  9052 net.cpp:157] Top shape: 32 64 1 1 (2048)
I0725 09:30:40.176837  9052 net.cpp:165] Memory required for data: 590859776
I0725 09:30:40.176837  9052 layer_factory.hpp:77] Creating layer fire9/expand1x1
I0725 09:30:40.176837  9052 net.cpp:100] Creating Layer fire9/expand1x1
I0725 09:30:40.176837  9052 net.cpp:444] fire9/expand1x1 <- fire9/squeeze1x1_fire9/relu_squeeze1x1_0_split_0
I0725 09:30:40.176837  9052 net.cpp:418] fire9/expand1x1 -> fire9/expand1x1
I0725 09:30:40.178838  9052 net.cpp:150] Setting up fire9/expand1x1
I0725 09:30:40.178838  9052 net.cpp:157] Top shape: 32 256 1 1 (8192)
I0725 09:30:40.179838  9052 net.cpp:165] Memory required for data: 590892544
I0725 09:30:40.179838  9052 layer_factory.hpp:77] Creating layer fire9/relu_expand1x1
I0725 09:30:40.179838  9052 net.cpp:100] Creating Layer fire9/relu_expand1x1
I0725 09:30:40.179838  9052 net.cpp:444] fire9/relu_expand1x1 <- fire9/expand1x1
I0725 09:30:40.179838  9052 net.cpp:405] fire9/relu_expand1x1 -> fire9/expand1x1 (in-place)
I0725 09:30:40.179838  9052 net.cpp:150] Setting up fire9/relu_expand1x1
I0725 09:30:40.179838  9052 net.cpp:157] Top shape: 32 256 1 1 (8192)
I0725 09:30:40.179838  9052 net.cpp:165] Memory required for data: 590925312
I0725 09:30:40.179838  9052 layer_factory.hpp:77] Creating layer fire9/expand3x3
I0725 09:30:40.179838  9052 net.cpp:100] Creating Layer fire9/expand3x3
I0725 09:30:40.179838  9052 net.cpp:444] fire9/expand3x3 <- fire9/squeeze1x1_fire9/relu_squeeze1x1_0_split_1
I0725 09:30:40.179838  9052 net.cpp:418] fire9/expand3x3 -> fire9/expand3x3
I0725 09:30:40.234880  5756 data_layer.cpp:102] Prefetch batch: 286 ms.
I0725 09:30:40.235880  5756 data_layer.cpp:103]      Read time: 0 ms.
I0725 09:30:40.235880  5756 data_layer.cpp:104] Transform time: 286.201 ms.
I0725 09:30:40.239881  9052 net.cpp:150] Setting up fire9/expand3x3
I0725 09:30:40.239881  9052 net.cpp:157] Top shape: 32 256 1 1 (8192)
I0725 09:30:40.239881  9052 net.cpp:165] Memory required for data: 590958080
I0725 09:30:40.239881  9052 layer_factory.hpp:77] Creating layer fire9/relu_expand3x3
I0725 09:30:40.239881  9052 net.cpp:100] Creating Layer fire9/relu_expand3x3
I0725 09:30:40.240882  9052 net.cpp:444] fire9/relu_expand3x3 <- fire9/expand3x3
I0725 09:30:40.240882  9052 net.cpp:405] fire9/relu_expand3x3 -> fire9/expand3x3 (in-place)
I0725 09:30:40.240882  9052 net.cpp:150] Setting up fire9/relu_expand3x3
I0725 09:30:40.240882  9052 net.cpp:157] Top shape: 32 256 1 1 (8192)
I0725 09:30:40.240882  9052 net.cpp:165] Memory required for data: 590990848
I0725 09:30:40.240882  9052 layer_factory.hpp:77] Creating layer fire9/concat
I0725 09:30:40.240882  9052 net.cpp:100] Creating Layer fire9/concat
I0725 09:30:40.240882  9052 net.cpp:444] fire9/concat <- fire9/expand1x1
I0725 09:30:40.240882  9052 net.cpp:444] fire9/concat <- fire9/expand3x3
I0725 09:30:40.240882  9052 net.cpp:418] fire9/concat -> fire9/concat
I0725 09:30:40.241883  9052 net.cpp:150] Setting up fire9/concat
I0725 09:30:40.241883  9052 net.cpp:157] Top shape: 32 512 1 1 (16384)
I0725 09:30:40.241883  9052 net.cpp:165] Memory required for data: 591056384
I0725 09:30:40.241883  9052 layer_factory.hpp:77] Creating layer drop9
I0725 09:30:40.241883  9052 net.cpp:100] Creating Layer drop9
I0725 09:30:40.241883  9052 net.cpp:444] drop9 <- fire9/concat
I0725 09:30:40.241883  9052 net.cpp:405] drop9 -> fire9/concat (in-place)
I0725 09:30:40.241883  9052 net.cpp:150] Setting up drop9
I0725 09:30:40.241883  9052 net.cpp:157] Top shape: 32 512 1 1 (16384)
I0725 09:30:40.241883  9052 net.cpp:165] Memory required for data: 591121920
I0725 09:30:40.241883  9052 layer_factory.hpp:77] Creating layer conv10
I0725 09:30:40.242883  9052 net.cpp:100] Creating Layer conv10
I0725 09:30:40.242883  9052 net.cpp:444] conv10 <- fire9/concat
I0725 09:30:40.242883  9052 net.cpp:418] conv10 -> conv10
I0725 09:30:40.245885  9052 net.cpp:150] Setting up conv10
I0725 09:30:40.245885  9052 net.cpp:157] Top shape: 32 10 1 1 (320)
I0725 09:30:40.245885  9052 net.cpp:165] Memory required for data: 591123200
I0725 09:30:40.246886  9052 layer_factory.hpp:77] Creating layer relu_conv10
I0725 09:30:40.246886  9052 net.cpp:100] Creating Layer relu_conv10
I0725 09:30:40.246886  9052 net.cpp:444] relu_conv10 <- conv10
I0725 09:30:40.246886  9052 net.cpp:405] relu_conv10 -> conv10 (in-place)
I0725 09:30:40.246886  9052 net.cpp:150] Setting up relu_conv10
I0725 09:30:40.246886  9052 net.cpp:157] Top shape: 32 10 1 1 (320)
I0725 09:30:40.246886  9052 net.cpp:165] Memory required for data: 591124480
I0725 09:30:40.246886  9052 layer_factory.hpp:77] Creating layer pool10
I0725 09:30:40.246886  9052 net.cpp:100] Creating Layer pool10
I0725 09:30:40.246886  9052 net.cpp:444] pool10 <- conv10
I0725 09:30:40.247886  9052 net.cpp:418] pool10 -> pool10
I0725 09:30:40.247886  9052 net.cpp:150] Setting up pool10
I0725 09:30:40.247886  9052 net.cpp:157] Top shape: 32 10 1 1 (320)
I0725 09:30:40.247886  9052 net.cpp:165] Memory required for data: 591125760
I0725 09:30:40.247886  9052 layer_factory.hpp:77] Creating layer loss
I0725 09:30:40.247886  9052 net.cpp:100] Creating Layer loss
I0725 09:30:40.247886  9052 net.cpp:444] loss <- pool10
I0725 09:30:40.248888  9052 net.cpp:444] loss <- label
I0725 09:30:40.248888  9052 net.cpp:418] loss -> loss
I0725 09:30:40.248888  9052 layer_factory.hpp:77] Creating layer loss
…
I0725 09:30:40.276908  9052 net.cpp:332] The NetState phase (1) differed from the phase (0) specified by a rule in layer loss
I0725 09:30:40.283915  9052 net.cpp:58] Initializing net from parameters: 
state {
  phase: TEST
}
layer {
  name: "data"
  type: "Data"
  top: "data"
  top: "label"
  include {
    phase: TEST
  }
  transform_param {
    crop_size: 227
    mean_value: 104
    mean_value: 117
    mean_value: 123
  }
  data_param {
    source: "D:/Master/master_graduate/dataset/test/squeezt-test1/test_LEVELDB"
    batch_size: 25
    backend: LEVELDB
  }
}
layer {
  name: "conv1"
  type: "Convolution"
  bottom: "data"
  top: "conv1"
  convolution_param {
    num_output: 64
    kernel_size: 3
    stride: 2
    weight_filler {
      type: "xavier"
    }
  }
}
layer {
  name: "relu_conv1"
  type: "ReLU"
  bottom: "conv1"
  top: "conv1"
}
layer {
  name: "pool1"
  type: "Pooling"
  bottom: "conv1"
  top: "pool1"
  pooling_param {
    pool: MAX
    kernel_size: 3
    stride: 2
  }
}
layer {
  name: "fire3/squeeze1x1"
  type: "Convolution"
  bottom: "pool1"
  top: "fire3/squeeze1x1"
  convolution_param {
    num_output: 16
    kernel_size: 1
    weight_filler {
      type: "xavier"
    }
  }
}
layer {
  name: "fire3/relu_squeeze1x1"
  type: "ReLU"
  bottom: "fire3/squeeze1x1"
  top: "fire3/squeeze1x1"
}
layer {
  name: "fire3/expand1x1"
  type: "Convolution"
  bottom: "fire3/squeeze1x1"
  top: "fire3/expand1x1"
  convolution_param {
    num_output: 64
    kernel_size: 1
    weight_filler {
      type: "xavier"
    }
  }
}
layer {
  name: "fire3/relu_expand1x1"
  type: "ReLU"
  bottom: "fire3/expand1x1"
  top: "fire3/expand1x1"
}
layer {
  name: "fire3/expand3x3"
  type: "Convolution"
  bottom: "fire3/squeeze1x1"
  top: "fire3/expand3x3"
  convolution_param {
    num_output: 64
    pad: 2
    kernel_size: 5
    weight_filler {
      type: "xavier"
    }
  }
}
layer {
  name: "fire3/relu_expand3x3"
  type: "ReLU"
  bottom: "fire3/expand3x3"
  top: "fire3/expand3x3"
}
layer {
  name: "fire3/concat"
  type: "Concat"
  bottom: "fire3/expand1x1"
  bottom: "fire3/expand3x3"
  top: "fire3/concat"
}
layer {
  name: "pool3"
  type: "Pooling"
  bottom: "fire3/concat"
  top: "pool3"
  pooling_param {
    pool: MAX
    kernel_size: 3
    stride: 2
  }
}
layer {
  name: "fire5/squeeze1x1"
  type: "Convolution"
  bottom: "pool3"
  top: "fire5/squeeze1x1"
  convolution_param {
    num_output: 32
    kernel_size: 1
    weight_filler {
      type: "xavier"
    }
  }
}
layer {
  name: "fire5/relu_squeeze1x1"
  type: "ReLU"
  bottom: "fire5/squeeze1x1"
  top: "fire5/squeeze1x1"
}
layer {
  name: "fire5/expand1x1"
  type: "Convolution"
  bottom: "fire5/squeeze1x1"
  top: "fire5/expand1x1"
  convolution_param {
    num_output: 128
    kernel_size: 1
    weight_filler {
      type: "xavier"
    }
  }
}
layer {
  name: "fire5/relu_expand1x1"
  type: "ReLU"
  bottom: "fire5/expand1x1"
  top: "fire5/expand1x1"
}
layer {
  name: "fire5/expand3x3"
  type: "Convolution"
  bottom: "fire5/squeeze1x1"
  top: "fire5/expand3x3"
  convolution_param {
    num_output: 128
    pad: 2
    kernel_size: 5
    weight_filler {
      type: "xavier"
    }
  }
}
layer {
  name: "fire5/relu_expand3x3"
  type: "ReLU"
  bottom: "fire5/expand3x3"
  top: "fire5/expand3x3"
}
layer {
  name: "fire5/concat"
  type: "Concat"
  bottom: "fire5/expand1x1"
  bottom: "fire5/expand3x3"
  top: "fire5/concat"
}
layer {
  name: "pool5"
  type: "Pooling"
  bottom: "fire5/concat"
  top: "pool5"
  pooling_param {
    pool: MAX
    kernel_size: 3
    stride: 2
  }
}
layer {
  name: "fire6/squeeze1x1"
  type: "Convolution"
  bottom: "pool5"
  top: "fire6/squeeze1x1"
  convolution_param {
    num_output: 48
    kernel_size: 1
    weight_filler {
      type: "xavier"
    }
  }
}
layer {
  name: "fire6/relu_squeeze1x1"
  type: "ReLU"
  bottom: "fire6/squeeze1x1"
  top: "fire6/squeeze1x1"
}
layer {
  name: "fire6/expand1x1"
  type: "Convolution"
  bottom: "fire6/squeeze1x1"
  top: "fire6/expand1x1"
  convolution_param {
    num_output: 192
    kernel_size: 1
    weight_filler {
      type: "xavier"
    }
  }
}
layer {
  name: "fire6/relu_expand1x1"
  type: "ReLU"
  bottom: "fire6/expand1x1"
  top: "fire6/expand1x1"
}
layer {
  name: "fire6/expand3x3"
  type: "Convolution"
  bottom: "fire6/squeeze1x1"
  top: "fire6/expand3x3"
  convolution_param {
    num_output: 192
    pad: 2
    kernel_size: 5
    weight_filler {
      type: "xavier"
    }
  }
}
layer {
  name: "fire6/relu_expand3x3"
  type: "ReLU"
  bottom: "fire6/expand3x3"
  top: "fire6/expand3x3"
}
layer {
  name: "fire6/concat"
  type: "Concat"
  bottom: "fire6/expand1x1"
  bottom: "fire6/expand3x3"
  top: "fire6/concat"
}
layer {
  name: "pool6"
  type: "Pooling"
  bottom: "fire6/concat"
  top: "pool6"
  pooling_param {
    pool: MAX
    kernel_size: 3
    stride: 2
  }
}
layer {
  name: "fire7/squeeze1x1"
  type: "Convolution"
  bottom: "pool6"
  top: "fire7/squeeze1x1"
  convolution_param {
    num_output: 48
    kernel_size: 1
    weight_filler {
      type: "xavier"
    }
  }
}
layer {
  name: "fire7/relu_squeeze1x1"
  type: "ReLU"
  bottom: "fire7/squeeze1x1"
  top: "fire7/squeeze1x1"
}
layer {
  name: "fire7/expand1x1"
  type: "Convolution"
  bottom: "fire7/squeeze1x1"
  top: "fire7/expand1x1"
  convolution_param {
    num_output: 192
    kernel_size: 1
    weight_filler {
      type: "xavier"
    }
  }
}
layer {
  name: "fire7/relu_expand1x1"
  type: "ReLU"
  bottom: "fire7/expand1x1"
  top: "fire7/expand1x1"
}
layer {
  name: "fire7/expand3x3"
  type: "Convolution"
  bottom: "fire7/squeeze1x1"
  top: "fire7/expand3x3"
  convolution_param {
    num_output: 192
    pad: 2
    kernel_size: 5
    weight_filler {
      type: "xavier"
    }
  }
}
layer {
  name: "fire7/relu_expand3x3"
  type: "ReLU"
  bottom: "fire7/expand3x3"
  top: "fire7/expand3x3"
}
layer {
  name: "fire7/concat"
  type: "Concat"
  bottom: "fire7/expand1x1"
  bottom: "fire7/expand3x3"
  top: "fire7/concat"
}
layer {
  name: "pool7"
  type: "Pooling"
  bottom: "fire7/concat"
  top: "pool7"
  pooling_param {
    pool: MAX
    kernel_size: 3
    stride: 2
  }
}
layer {
  name: "fire8/squeeze1x1"
  type: "Convolution"
  bottom: "pool7"
  top: "fire8/squeeze1x1"
  convolution_param {
    num_output: 64
    kernel_size: 1
    weight_filler {
      type: "xavier"
    }
  }
}
layer {
  name: "fire8/relu_squeeze1x1"
  type: "ReLU"
  bottom: "fire8/squeeze1x1"
  top: "fire8/squeeze1x1"
}
layer {
  name: "fire8/expand1x1"
  type: "Convolution"
  bottom: "fire8/squeeze1x1"
  top: "fire8/expand1x1"
  convolution_param {
    num_output: 256
    kernel_size: 1
    weight_filler {
      type: "xavier"
    }
  }
}
layer {
  name: "fire8/relu_expand1x1"
  type: "ReLU"
  bottom: "fire8/expand1x1"
  top: "fire8/expand1x1"
}
layer {
  name: "fire8/expand3x3"
  type: "Convolution"
  bottom: "fire8/squeeze1x1"
  top: "fire8/expand3x3"
  convolution_param {
    num_output: 256
    pad: 2
    kernel_size: 5
    weight_filler {
      type: "xavier"
    }
  }
}
layer {
  name: "fire8/relu_expand3x3"
  type: "ReLU"
  bottom: "fire8/expand3x3"
  top: "fire8/expand3x3"
}
layer {
  name: "fire8/concat"
  type: "Concat"
  bottom: "fire8/expand1x1"
  bottom: "fire8/expand3x3"
  top: "fire8/concat"
}
layer {
  name: "pool8"
  type: "Pooling"
  bottom: "fire8/concat"
  top: "pool8"
  pooling_param {
    pool: MAX
    kernel_size: 3
    stride: 2
  }
}
layer {
  name: "fire9/squeeze1x1"
  type: "Convolution"
  bottom: "pool8"
  top: "fire9/squeeze1x1"
  convolution_param {
    num_output: 64
    kernel_size: 1
    weight_filler {
      type: "xavier"
    }
  }
}
layer {
  name: "fire9/relu_squeeze1x1"
  type: "ReLU"
  bottom: "fire9/squeeze1x1"
  top: "fire9/squeeze1x1"
}
layer {
  name: "fire9/expand1x1"
  type: "Convolution"
  bottom: "fire9/squeeze1x1"
  top: "fire9/expand1x1"
  convolution_param {
    num_output: 256
    kernel_size: 1
    weight_filler {
      type: "xavier"
    }
  }
}
layer {
  name: "fire9/relu_expand1x1"
  type: "ReLU"
  bottom: "fire9/expand1x1"
  top: "fire9/expand1x1"
}
layer {
  name: "fire9/expand3x3"
  type: "Convolution"
  bottom: "fire9/squeeze1x1"
  top: "fire9/expand3x3"
  convolution_param {
    num_output: 256
    pad: 2
    kernel_size: 5
    weight_filler {
      type: "xavier"
    }
  }
}
layer {
  name: "fire9/relu_expand3x3"
  type: "ReLU"
  bottom: "fire9/expand3x3"
  top: "fire9/expand3x3"
}
layer {
  name: "fire9/concat"
  type: "Concat"
  bottom: "fire9/expand1x1"
  bottom: "fire9/expand3x3"
  top: "fire9/concat"
}
layer {
  name: "drop9"
  type: "Dropout"
  bottom: "fire9/concat"
  top: "fire9/concat"
  dropout_param {
    dropout_ratio: 0.5
  }
}
layer {
  name: "conv10"
  type: "Convolution"
  bottom: "fire9/concat"
  top: "conv10"
  convolution_param {
    num_output: 10
    kernel_size: 1
    weight_filler {
      type: "gaussian"
      mean: 0
      std: 0.01
    }
  }
}
layer {
  name: "relu_conv10"
  type: "ReLU"
  bottom: "conv10"
  top: "conv10"
}
layer {
  name: "pool10"
  type: "Pooling"
  bottom: "conv10"
  top: "pool10"
  pooling_param {
    pool: AVE
    global_pooling: true
  }
}
layer {
  name: "accuracy"
  type: "Accuracy"
  bottom: "pool10"
  bottom: "label"
  top: "accuracy"
  include {
    phase: TEST
  }
}
layer {
  name: "accuracy_top5"
  type: "Accuracy"
  bottom: "pool10"
  bottom: "label"
  top: "accuracy_top5"
  include {
    phase: TEST
  }
  accuracy_param {
    top_k: 5
  }
}
I0725 09:30:40.287915  9052 layer_factory.hpp:77] Creating layer data
I0725 09:30:40.288916  9052 net.cpp:100] Creating Layer data
I0725 09:30:40.288916  9052 net.cpp:418] data -> data
I0725 09:30:40.288916  9052 net.cpp:418] data -> label
I0725 09:30:40.315935 11964 db_leveldb.cpp:18] Opened leveldb D:/Master/master_graduate/dataset/test/squeezt-test1/test_LEVELDB
I0725 09:30:40.360967  9052 data_layer.cpp:41] output data size: 25,3,227,227
I0725 09:30:40.381984  9052 base_data_layer.cpp:69] Initializing prefetch
I0725 09:30:40.381984  9052 base_data_layer.cpp:72] Prefetch initialized.
I0725 09:30:40.381984  9052 net.cpp:150] Setting up data
I0725 09:30:40.381984  9052 net.cpp:157] Top shape: 25 3 227 227 (3864675)
I0725 09:30:40.381984  9052 net.cpp:157] Top shape: 25 (25)
I0725 09:30:40.381984  9052 net.cpp:165] Memory required for data: 15458800
I0725 09:30:40.381984  9052 layer_factory.hpp:77] Creating layer label_data_1_split
I0725 09:30:40.382983  9052 net.cpp:100] Creating Layer label_data_1_split
I0725 09:30:40.382983  9052 net.cpp:444] label_data_1_split <- label
I0725 09:30:40.382983  9052 net.cpp:418] label_data_1_split -> label_data_1_split_0
I0725 09:30:40.382983  9052 net.cpp:418] label_data_1_split -> label_data_1_split_1
I0725 09:30:40.382983  9052 net.cpp:150] Setting up label_data_1_split
I0725 09:30:40.382983  9052 net.cpp:157] Top shape: 25 (25)
I0725 09:30:40.382983  9052 net.cpp:157] Top shape: 25 (25)
I0725 09:30:40.382983  9052 net.cpp:165] Memory required for data: 15459000
I0725 09:30:40.382983  9052 layer_factory.hpp:77] Creating layer conv1
I0725 09:30:40.383986  9052 net.cpp:100] Creating Layer conv1
I0725 09:30:40.383986  9052 net.cpp:444] conv1 <- data
I0725 09:30:40.383986  9052 net.cpp:418] conv1 -> conv1
I0725 09:30:40.383986  9052 net.cpp:150] Setting up conv1
I0725 09:30:40.383986  9052 net.cpp:157] Top shape: 25 64 113 113 (20430400)
I0725 09:30:40.384984  9052 net.cpp:165] Memory required for data: 97180600
I0725 09:30:40.384984  9052 layer_factory.hpp:77] Creating layer relu_conv1
I0725 09:30:40.384984  9052 net.cpp:100] Creating Layer relu_conv1
I0725 09:30:40.384984  9052 net.cpp:444] relu_conv1 <- conv1
I0725 09:30:40.384984  9052 net.cpp:405] relu_conv1 -> conv1 (in-place)
I0725 09:30:40.384984  9052 net.cpp:150] Setting up relu_conv1
I0725 09:30:40.384984  9052 net.cpp:157] Top shape: 25 64 113 113 (20430400)
I0725 09:30:40.384984  9052 net.cpp:165] Memory required for data: 178902200
I0725 09:30:40.384984  9052 layer_factory.hpp:77] Creating layer pool1
I0725 09:30:40.385987  9052 net.cpp:100] Creating Layer pool1
I0725 09:30:40.385987  9052 net.cpp:444] pool1 <- conv1
I0725 09:30:40.385987  9052 net.cpp:418] pool1 -> pool1
I0725 09:30:40.385987  9052 net.cpp:150] Setting up pool1
I0725 09:30:40.385987  9052 net.cpp:157] Top shape: 25 64 56 56 (5017600)
I0725 09:30:40.385987  9052 net.cpp:165] Memory required for data: 198972600
I0725 09:30:40.385987  9052 layer_factory.hpp:77] Creating layer fire3/squeeze1x1
I0725 09:30:40.385987  9052 net.cpp:100] Creating Layer fire3/squeeze1x1
I0725 09:30:40.385987  9052 net.cpp:444] fire3/squeeze1x1 <- pool1
I0725 09:30:40.385987  9052 net.cpp:418] fire3/squeeze1x1 -> fire3/squeeze1x1
I0725 09:30:40.386987  9052 net.cpp:150] Setting up fire3/squeeze1x1
I0725 09:30:40.386987  9052 net.cpp:157] Top shape: 25 16 56 56 (1254400)
I0725 09:30:40.386987  9052 net.cpp:165] Memory required for data: 203990200
I0725 09:30:40.386987  9052 layer_factory.hpp:77] Creating layer fire3/relu_squeeze1x1
I0725 09:30:40.386987  9052 net.cpp:100] Creating Layer fire3/relu_squeeze1x1
I0725 09:30:40.386987  9052 net.cpp:444] fire3/relu_squeeze1x1 <- fire3/squeeze1x1
I0725 09:30:40.386987  9052 net.cpp:405] fire3/relu_squeeze1x1 -> fire3/squeeze1x1 (in-place)
I0725 09:30:40.393990  1048 blocking_queue.cpp:50] Waiting for data
I0725 09:30:40.418009  9052 net.cpp:150] Setting up fire3/relu_squeeze1x1
I0725 09:30:40.418009  9052 net.cpp:157] Top shape: 25 16 56 56 (1254400)
I0725 09:30:40.418009  9052 net.cpp:165] Memory required for data: 209007800
I0725 09:30:40.418009  9052 layer_factory.hpp:77] Creating layer fire3/squeeze1x1_fire3/relu_squeeze1x1_0_split
I0725 09:30:40.419009  9052 net.cpp:100] Creating Layer fire3/squeeze1x1_fire3/relu_squeeze1x1_0_split
I0725 09:30:40.419009  9052 net.cpp:444] fire3/squeeze1x1_fire3/relu_squeeze1x1_0_split <- fire3/squeeze1x1
I0725 09:30:40.419009  9052 net.cpp:418] fire3/squeeze1x1_fire3/relu_squeeze1x1_0_split -> fire3/squeeze1x1_fire3/relu_squeeze1x1_0_split_0
I0725 09:30:40.419009  9052 net.cpp:418] fire3/squeeze1x1_fire3/relu_squeeze1x1_0_split -> fire3/squeeze1x1_fire3/relu_squeeze1x1_0_split_1
I0725 09:30:40.419009  9052 net.cpp:150] Setting up fire3/squeeze1x1_fire3/relu_squeeze1x1_0_split
I0725 09:30:40.419009  9052 net.cpp:157] Top shape: 25 16 56 56 (1254400)
I0725 09:30:40.420009  9052 net.cpp:157] Top shape: 25 16 56 56 (1254400)
I0725 09:30:40.420009  9052 net.cpp:165] Memory required for data: 219043000
I0725 09:30:40.420009  9052 layer_factory.hpp:77] Creating layer fire3/expand1x1
I0725 09:30:40.420009  9052 net.cpp:100] Creating Layer fire3/expand1x1
I0725 09:30:40.420009  9052 net.cpp:444] fire3/expand1x1 <- fire3/squeeze1x1_fire3/relu_squeeze1x1_0_split_0
I0725 09:30:40.420009  9052 net.cpp:418] fire3/expand1x1 -> fire3/expand1x1
I0725 09:30:40.421011  9052 net.cpp:150] Setting up fire3/expand1x1
I0725 09:30:40.421011  9052 net.cpp:157] Top shape: 25 64 56 56 (5017600)
I0725 09:30:40.421011  9052 net.cpp:165] Memory required for data: 239113400
I0725 09:30:40.421011  9052 layer_factory.hpp:77] Creating layer fire3/relu_expand1x1
I0725 09:30:40.421011  9052 net.cpp:100] Creating Layer fire3/relu_expand1x1
I0725 09:30:40.421011  9052 net.cpp:444] fire3/relu_expand1x1 <- fire3/expand1x1
I0725 09:30:40.421011  9052 net.cpp:405] fire3/relu_expand1x1 -> fire3/expand1x1 (in-place)
I0725 09:30:40.422011  9052 net.cpp:150] Setting up fire3/relu_expand1x1
I0725 09:30:40.422011  9052 net.cpp:157] Top shape: 25 64 56 56 (5017600)
I0725 09:30:40.422011  9052 net.cpp:165] Memory required for data: 259183800
I0725 09:30:40.422011  9052 layer_factory.hpp:77] Creating layer fire3/expand3x3
I0725 09:30:40.422011  9052 net.cpp:100] Creating Layer fire3/expand3x3
I0725 09:30:40.422011  9052 net.cpp:444] fire3/expand3x3 <- fire3/squeeze1x1_fire3/relu_squeeze1x1_0_split_1
I0725 09:30:40.422011  9052 net.cpp:418] fire3/expand3x3 -> fire3/expand3x3
I0725 09:30:40.426015  9052 net.cpp:150] Setting up fire3/expand3x3
I0725 09:30:40.426015  9052 net.cpp:157] Top shape: 25 64 56 56 (5017600)
I0725 09:30:40.426015  9052 net.cpp:165] Memory required for data: 279254200
I0725 09:30:40.426015  9052 layer_factory.hpp:77] Creating layer fire3/relu_expand3x3
I0725 09:30:40.426015  9052 net.cpp:100] Creating Layer fire3/relu_expand3x3
I0725 09:30:40.426015  9052 net.cpp:444] fire3/relu_expand3x3 <- fire3/expand3x3
I0725 09:30:40.427016  9052 net.cpp:405] fire3/relu_expand3x3 -> fire3/expand3x3 (in-place)
I0725 09:30:40.427016  9052 net.cpp:150] Setting up fire3/relu_expand3x3
I0725 09:30:40.427016  9052 net.cpp:157] Top shape: 25 64 56 56 (5017600)
I0725 09:30:40.427016  9052 net.cpp:165] Memory required for data: 299324600
I0725 09:30:40.427016  9052 layer_factory.hpp:77] Creating layer fire3/concat
I0725 09:30:40.427016  9052 net.cpp:100] Creating Layer fire3/concat
I0725 09:30:40.427016  9052 net.cpp:444] fire3/concat <- fire3/expand1x1
I0725 09:30:40.427016  9052 net.cpp:444] fire3/concat <- fire3/expand3x3
I0725 09:30:40.427016  9052 net.cpp:418] fire3/concat -> fire3/concat
I0725 09:30:40.427016  9052 net.cpp:150] Setting up fire3/concat
I0725 09:30:40.428014  9052 net.cpp:157] Top shape: 25 128 56 56 (10035200)
I0725 09:30:40.428014  9052 net.cpp:165] Memory required for data: 339465400
I0725 09:30:40.428014  9052 layer_factory.hpp:77] Creating layer pool3
I0725 09:30:40.428014  9052 net.cpp:100] Creating Layer pool3
I0725 09:30:40.428014  9052 net.cpp:444] pool3 <- fire3/concat
I0725 09:30:40.428014  9052 net.cpp:418] pool3 -> pool3
I0725 09:30:40.428014  9052 net.cpp:150] Setting up pool3
I0725 09:30:40.428014  9052 net.cpp:157] Top shape: 25 128 28 28 (2508800)
I0725 09:30:40.428014  9052 net.cpp:165] Memory required for data: 349500600
I0725 09:30:40.429015  9052 layer_factory.hpp:77] Creating layer fire5/squeeze1x1
I0725 09:30:40.429015  9052 net.cpp:100] Creating Layer fire5/squeeze1x1
I0725 09:30:40.429015  9052 net.cpp:444] fire5/squeeze1x1 <- pool3
I0725 09:30:40.429015  9052 net.cpp:418] fire5/squeeze1x1 -> fire5/squeeze1x1
I0725 09:30:40.430016  9052 net.cpp:150] Setting up fire5/squeeze1x1
I0725 09:30:40.430016  9052 net.cpp:157] Top shape: 25 32 28 28 (627200)
I0725 09:30:40.430016  9052 net.cpp:165] Memory required for data: 352009400
I0725 09:30:40.430016  9052 layer_factory.hpp:77] Creating layer fire5/relu_squeeze1x1
I0725 09:30:40.431016  9052 net.cpp:100] Creating Layer fire5/relu_squeeze1x1
I0725 09:30:40.431016  9052 net.cpp:444] fire5/relu_squeeze1x1 <- fire5/squeeze1x1
I0725 09:30:40.431016  9052 net.cpp:405] fire5/relu_squeeze1x1 -> fire5/squeeze1x1 (in-place)
I0725 09:30:40.431016  9052 net.cpp:150] Setting up fire5/relu_squeeze1x1
I0725 09:30:40.431016  9052 net.cpp:157] Top shape: 25 32 28 28 (627200)
I0725 09:30:40.431016  9052 net.cpp:165] Memory required for data: 354518200
I0725 09:30:40.431016  9052 layer_factory.hpp:77] Creating layer fire5/squeeze1x1_fire5/relu_squeeze1x1_0_split
I0725 09:30:40.431016  9052 net.cpp:100] Creating Layer fire5/squeeze1x1_fire5/relu_squeeze1x1_0_split
I0725 09:30:40.431016  9052 net.cpp:444] fire5/squeeze1x1_fire5/relu_squeeze1x1_0_split <- fire5/squeeze1x1
I0725 09:30:40.431016  9052 net.cpp:418] fire5/squeeze1x1_fire5/relu_squeeze1x1_0_split -> fire5/squeeze1x1_fire5/relu_squeeze1x1_0_split_0
I0725 09:30:40.432018  9052 net.cpp:418] fire5/squeeze1x1_fire5/relu_squeeze1x1_0_split -> fire5/squeeze1x1_fire5/relu_squeeze1x1_0_split_1
I0725 09:30:40.432018  9052 net.cpp:150] Setting up fire5/squeeze1x1_fire5/relu_squeeze1x1_0_split
I0725 09:30:40.432018  9052 net.cpp:157] Top shape: 25 32 28 28 (627200)
I0725 09:30:40.432018  9052 net.cpp:157] Top shape: 25 32 28 28 (627200)
I0725 09:30:40.432018  9052 net.cpp:165] Memory required for data: 359535800
I0725 09:30:40.432018  9052 layer_factory.hpp:77] Creating layer fire5/expand1x1
I0725 09:30:40.432018  9052 net.cpp:100] Creating Layer fire5/expand1x1
I0725 09:30:40.432018  9052 net.cpp:444] fire5/expand1x1 <- fire5/squeeze1x1_fire5/relu_squeeze1x1_0_split_0
I0725 09:30:40.432018  9052 net.cpp:418] fire5/expand1x1 -> fire5/expand1x1
I0725 09:30:40.434020  9052 net.cpp:150] Setting up fire5/expand1x1
I0725 09:30:40.434020  9052 net.cpp:157] Top shape: 25 128 28 28 (2508800)
I0725 09:30:40.434020  9052 net.cpp:165] Memory required for data: 369571000
I0725 09:30:40.434020  9052 layer_factory.hpp:77] Creating layer fire5/relu_expand1x1
I0725 09:30:40.434020  9052 net.cpp:100] Creating Layer fire5/relu_expand1x1
I0725 09:30:40.434020  9052 net.cpp:444] fire5/relu_expand1x1 <- fire5/expand1x1
I0725 09:30:40.435021  9052 net.cpp:405] fire5/relu_expand1x1 -> fire5/expand1x1 (in-place)
I0725 09:30:40.435021  9052 net.cpp:150] Setting up fire5/relu_expand1x1
I0725 09:30:40.435021  9052 net.cpp:157] Top shape: 25 128 28 28 (2508800)
I0725 09:30:40.435021  9052 net.cpp:165] Memory required for data: 379606200
I0725 09:30:40.435021  9052 layer_factory.hpp:77] Creating layer fire5/expand3x3
I0725 09:30:40.435021  9052 net.cpp:100] Creating Layer fire5/expand3x3
I0725 09:30:40.435021  9052 net.cpp:444] fire5/expand3x3 <- fire5/squeeze1x1_fire5/relu_squeeze1x1_0_split_1
I0725 09:30:40.435021  9052 net.cpp:418] fire5/expand3x3 -> fire5/expand3x3
I0725 09:30:40.450031  9052 net.cpp:150] Setting up fire5/expand3x3
I0725 09:30:40.450031  9052 net.cpp:157] Top shape: 25 128 28 28 (2508800)
I0725 09:30:40.450031  9052 net.cpp:165] Memory required for data: 389641400
I0725 09:30:40.450031  9052 layer_factory.hpp:77] Creating layer fire5/relu_expand3x3
I0725 09:30:40.450031  9052 net.cpp:100] Creating Layer fire5/relu_expand3x3
I0725 09:30:40.450031  9052 net.cpp:444] fire5/relu_expand3x3 <- fire5/expand3x3
I0725 09:30:40.450031  9052 net.cpp:405] fire5/relu_expand3x3 -> fire5/expand3x3 (in-place)
I0725 09:30:40.451033  9052 net.cpp:150] Setting up fire5/relu_expand3x3
I0725 09:30:40.451033  9052 net.cpp:157] Top shape: 25 128 28 28 (2508800)
I0725 09:30:40.451033  9052 net.cpp:165] Memory required for data: 399676600
I0725 09:30:40.451033  9052 layer_factory.hpp:77] Creating layer fire5/concat
I0725 09:30:40.451033  9052 net.cpp:100] Creating Layer fire5/concat
I0725 09:30:40.451033  9052 net.cpp:444] fire5/concat <- fire5/expand1x1
I0725 09:30:40.451033  9052 net.cpp:444] fire5/concat <- fire5/expand3x3
I0725 09:30:40.451033  9052 net.cpp:418] fire5/concat -> fire5/concat
I0725 09:30:40.451033  9052 net.cpp:150] Setting up fire5/concat
I0725 09:30:40.451033  9052 net.cpp:157] Top shape: 25 256 28 28 (5017600)
I0725 09:30:40.451033  9052 net.cpp:165] Memory required for data: 419747000
I0725 09:30:40.451033  9052 layer_factory.hpp:77] Creating layer pool5
I0725 09:30:40.451033  9052 net.cpp:100] Creating Layer pool5
I0725 09:30:40.451033  9052 net.cpp:444] pool5 <- fire5/concat
I0725 09:30:40.451033  9052 net.cpp:418] pool5 -> pool5
I0725 09:30:40.452033  9052 net.cpp:150] Setting up pool5
I0725 09:30:40.452033  9052 net.cpp:157] Top shape: 25 256 14 14 (1254400)
I0725 09:30:40.452033  9052 net.cpp:165] Memory required for data: 424764600
I0725 09:30:40.452033  9052 layer_factory.hpp:77] Creating layer fire6/squeeze1x1
I0725 09:30:40.452033  9052 net.cpp:100] Creating Layer fire6/squeeze1x1
I0725 09:30:40.452033  9052 net.cpp:444] fire6/squeeze1x1 <- pool5
I0725 09:30:40.452033  9052 net.cpp:418] fire6/squeeze1x1 -> fire6/squeeze1x1
I0725 09:30:40.454035  9052 net.cpp:150] Setting up fire6/squeeze1x1
I0725 09:30:40.454035  9052 net.cpp:157] Top shape: 25 48 14 14 (235200)
I0725 09:30:40.454035  9052 net.cpp:165] Memory required for data: 425705400
I0725 09:30:40.454035  9052 layer_factory.hpp:77] Creating layer fire6/relu_squeeze1x1
I0725 09:30:40.455035  9052 net.cpp:100] Creating Layer fire6/relu_squeeze1x1
I0725 09:30:40.455035  9052 net.cpp:444] fire6/relu_squeeze1x1 <- fire6/squeeze1x1
I0725 09:30:40.455035  9052 net.cpp:405] fire6/relu_squeeze1x1 -> fire6/squeeze1x1 (in-place)
I0725 09:30:40.455035  9052 net.cpp:150] Setting up fire6/relu_squeeze1x1
I0725 09:30:40.455035  9052 net.cpp:157] Top shape: 25 48 14 14 (235200)
I0725 09:30:40.455035  9052 net.cpp:165] Memory required for data: 426646200
I0725 09:30:40.455035  9052 layer_factory.hpp:77] Creating layer fire6/squeeze1x1_fire6/relu_squeeze1x1_0_split
I0725 09:30:40.455035  9052 net.cpp:100] Creating Layer fire6/squeeze1x1_fire6/relu_squeeze1x1_0_split
I0725 09:30:40.456037  9052 net.cpp:444] fire6/squeeze1x1_fire6/relu_squeeze1x1_0_split <- fire6/squeeze1x1
I0725 09:30:40.456037  9052 net.cpp:418] fire6/squeeze1x1_fire6/relu_squeeze1x1_0_split -> fire6/squeeze1x1_fire6/relu_squeeze1x1_0_split_0
I0725 09:30:40.456037  9052 net.cpp:418] fire6/squeeze1x1_fire6/relu_squeeze1x1_0_split -> fire6/squeeze1x1_fire6/relu_squeeze1x1_0_split_1
I0725 09:30:40.456037  9052 net.cpp:150] Setting up fire6/squeeze1x1_fire6/relu_squeeze1x1_0_split
I0725 09:30:40.456037  9052 net.cpp:157] Top shape: 25 48 14 14 (235200)
I0725 09:30:40.456037  9052 net.cpp:157] Top shape: 25 48 14 14 (235200)
I0725 09:30:40.456037  9052 net.cpp:165] Memory required for data: 428527800
I0725 09:30:40.456037  9052 layer_factory.hpp:77] Creating layer fire6/expand1x1
I0725 09:30:40.456037  9052 net.cpp:100] Creating Layer fire6/expand1x1
I0725 09:30:40.456037  9052 net.cpp:444] fire6/expand1x1 <- fire6/squeeze1x1_fire6/relu_squeeze1x1_0_split_0
I0725 09:30:40.456037  9052 net.cpp:418] fire6/expand1x1 -> fire6/expand1x1
I0725 09:30:40.458037  9052 net.cpp:150] Setting up fire6/expand1x1
I0725 09:30:40.458037  9052 net.cpp:157] Top shape: 25 192 14 14 (940800)
I0725 09:30:40.458037  9052 net.cpp:165] Memory required for data: 432291000
I0725 09:30:40.458037  9052 layer_factory.hpp:77] Creating layer fire6/relu_expand1x1
I0725 09:30:40.458037  9052 net.cpp:100] Creating Layer fire6/relu_expand1x1
I0725 09:30:40.459038  9052 net.cpp:444] fire6/relu_expand1x1 <- fire6/expand1x1
I0725 09:30:40.459038  9052 net.cpp:405] fire6/relu_expand1x1 -> fire6/expand1x1 (in-place)
I0725 09:30:40.459038  9052 net.cpp:150] Setting up fire6/relu_expand1x1
I0725 09:30:40.459038  9052 net.cpp:157] Top shape: 25 192 14 14 (940800)
I0725 09:30:40.459038  9052 net.cpp:165] Memory required for data: 436054200
I0725 09:30:40.459038  9052 layer_factory.hpp:77] Creating layer fire6/expand3x3
I0725 09:30:40.459038  9052 net.cpp:100] Creating Layer fire6/expand3x3
I0725 09:30:40.459038  9052 net.cpp:444] fire6/expand3x3 <- fire6/squeeze1x1_fire6/relu_squeeze1x1_0_split_1
I0725 09:30:40.459038  9052 net.cpp:418] fire6/expand3x3 -> fire6/expand3x3
I0725 09:30:40.491060  9052 net.cpp:150] Setting up fire6/expand3x3
I0725 09:30:40.491060  9052 net.cpp:157] Top shape: 25 192 14 14 (940800)
I0725 09:30:40.491060  9052 net.cpp:165] Memory required for data: 439817400
I0725 09:30:40.491060  9052 layer_factory.hpp:77] Creating layer fire6/relu_expand3x3
I0725 09:30:40.491060  9052 net.cpp:100] Creating Layer fire6/relu_expand3x3
I0725 09:30:40.491060  9052 net.cpp:444] fire6/relu_expand3x3 <- fire6/expand3x3
I0725 09:30:40.491060  9052 net.cpp:405] fire6/relu_expand3x3 -> fire6/expand3x3 (in-place)
I0725 09:30:40.492061  9052 net.cpp:150] Setting up fire6/relu_expand3x3
I0725 09:30:40.492061  9052 net.cpp:157] Top shape: 25 192 14 14 (940800)
I0725 09:30:40.492061  9052 net.cpp:165] Memory required for data: 443580600
I0725 09:30:40.492061  9052 layer_factory.hpp:77] Creating layer fire6/concat
I0725 09:30:40.492061  9052 net.cpp:100] Creating Layer fire6/concat
I0725 09:30:40.492061  9052 net.cpp:444] fire6/concat <- fire6/expand1x1
I0725 09:30:40.492061  9052 net.cpp:444] fire6/concat <- fire6/expand3x3
I0725 09:30:40.492061  9052 net.cpp:418] fire6/concat -> fire6/concat
I0725 09:30:40.492061  9052 net.cpp:150] Setting up fire6/concat
I0725 09:30:40.492061  9052 net.cpp:157] Top shape: 25 384 14 14 (1881600)
I0725 09:30:40.492061  9052 net.cpp:165] Memory required for data: 451107000
I0725 09:30:40.492061  9052 layer_factory.hpp:77] Creating layer pool6
I0725 09:30:40.492061  9052 net.cpp:100] Creating Layer pool6
I0725 09:30:40.492061  9052 net.cpp:444] pool6 <- fire6/concat
I0725 09:30:40.492061  9052 net.cpp:418] pool6 -> pool6
I0725 09:30:40.493062  9052 net.cpp:150] Setting up pool6
I0725 09:30:40.493062  9052 net.cpp:157] Top shape: 25 384 7 7 (470400)
I0725 09:30:40.493062  9052 net.cpp:165] Memory required for data: 452988600
I0725 09:30:40.493062  9052 layer_factory.hpp:77] Creating layer fire7/squeeze1x1
I0725 09:30:40.493062  9052 net.cpp:100] Creating Layer fire7/squeeze1x1
I0725 09:30:40.493062  9052 net.cpp:444] fire7/squeeze1x1 <- pool6
I0725 09:30:40.493062  9052 net.cpp:418] fire7/squeeze1x1 -> fire7/squeeze1x1
I0725 09:30:40.495064  9052 net.cpp:150] Setting up fire7/squeeze1x1
I0725 09:30:40.496063  9052 net.cpp:157] Top shape: 25 48 7 7 (58800)
I0725 09:30:40.496063  9052 net.cpp:165] Memory required for data: 453223800
I0725 09:30:40.496063  9052 layer_factory.hpp:77] Creating layer fire7/relu_squeeze1x1
I0725 09:30:40.496063  9052 net.cpp:100] Creating Layer fire7/relu_squeeze1x1
I0725 09:30:40.496063  9052 net.cpp:444] fire7/relu_squeeze1x1 <- fire7/squeeze1x1
I0725 09:30:40.496063  9052 net.cpp:405] fire7/relu_squeeze1x1 -> fire7/squeeze1x1 (in-place)
I0725 09:30:40.496063  9052 net.cpp:150] Setting up fire7/relu_squeeze1x1
I0725 09:30:40.496063  9052 net.cpp:157] Top shape: 25 48 7 7 (58800)
I0725 09:30:40.496063  9052 net.cpp:165] Memory required for data: 453459000
I0725 09:30:40.496063  9052 layer_factory.hpp:77] Creating layer fire7/squeeze1x1_fire7/relu_squeeze1x1_0_split
I0725 09:30:40.497063  9052 net.cpp:100] Creating Layer fire7/squeeze1x1_fire7/relu_squeeze1x1_0_split
I0725 09:30:40.497063  9052 net.cpp:444] fire7/squeeze1x1_fire7/relu_squeeze1x1_0_split <- fire7/squeeze1x1
I0725 09:30:40.497063  9052 net.cpp:418] fire7/squeeze1x1_fire7/relu_squeeze1x1_0_split -> fire7/squeeze1x1_fire7/relu_squeeze1x1_0_split_0
I0725 09:30:40.497063  9052 net.cpp:418] fire7/squeeze1x1_fire7/relu_squeeze1x1_0_split -> fire7/squeeze1x1_fire7/relu_squeeze1x1_0_split_1
I0725 09:30:40.497063  9052 net.cpp:150] Setting up fire7/squeeze1x1_fire7/relu_squeeze1x1_0_split
I0725 09:30:40.497063  9052 net.cpp:157] Top shape: 25 48 7 7 (58800)
I0725 09:30:40.497063  9052 net.cpp:157] Top shape: 25 48 7 7 (58800)
I0725 09:30:40.498064  9052 net.cpp:165] Memory required for data: 453929400
I0725 09:30:40.498064  9052 layer_factory.hpp:77] Creating layer fire7/expand1x1
I0725 09:30:40.498064  9052 net.cpp:100] Creating Layer fire7/expand1x1
I0725 09:30:40.498064  9052 net.cpp:444] fire7/expand1x1 <- fire7/squeeze1x1_fire7/relu_squeeze1x1_0_split_0
I0725 09:30:40.498064  9052 net.cpp:418] fire7/expand1x1 -> fire7/expand1x1
I0725 09:30:40.500066  9052 net.cpp:150] Setting up fire7/expand1x1
I0725 09:30:40.500066  9052 net.cpp:157] Top shape: 25 192 7 7 (235200)
I0725 09:30:40.500066  9052 net.cpp:165] Memory required for data: 454870200
I0725 09:30:40.500066  9052 layer_factory.hpp:77] Creating layer fire7/relu_expand1x1
I0725 09:30:40.500066  9052 net.cpp:100] Creating Layer fire7/relu_expand1x1
I0725 09:30:40.500066  9052 net.cpp:444] fire7/relu_expand1x1 <- fire7/expand1x1
I0725 09:30:40.500066  9052 net.cpp:405] fire7/relu_expand1x1 -> fire7/expand1x1 (in-place)
I0725 09:30:40.500066  9052 net.cpp:150] Setting up fire7/relu_expand1x1
I0725 09:30:40.501067  9052 net.cpp:157] Top shape: 25 192 7 7 (235200)
I0725 09:30:40.501067  9052 net.cpp:165] Memory required for data: 455811000
I0725 09:30:40.501067  9052 layer_factory.hpp:77] Creating layer fire7/expand3x3
I0725 09:30:40.501067  9052 net.cpp:100] Creating Layer fire7/expand3x3
I0725 09:30:40.501067  9052 net.cpp:444] fire7/expand3x3 <- fire7/squeeze1x1_fire7/relu_squeeze1x1_0_split_1
I0725 09:30:40.501067  9052 net.cpp:418] fire7/expand3x3 -> fire7/expand3x3
I0725 09:30:40.526084  5756 data_layer.cpp:102] Prefetch batch: 290 ms.
I0725 09:30:40.526084  5756 data_layer.cpp:103]      Read time: 6.003 ms.
I0725 09:30:40.526084  5756 data_layer.cpp:104] Transform time: 278.197 ms.
I0725 09:30:40.535092  9052 net.cpp:150] Setting up fire7/expand3x3
I0725 09:30:40.535092  9052 net.cpp:157] Top shape: 25 192 7 7 (235200)
I0725 09:30:40.535092  9052 net.cpp:165] Memory required for data: 456751800
I0725 09:30:40.535092  9052 layer_factory.hpp:77] Creating layer fire7/relu_expand3x3
I0725 09:30:40.535092  9052 net.cpp:100] Creating Layer fire7/relu_expand3x3
I0725 09:30:40.535092  9052 net.cpp:444] fire7/relu_expand3x3 <- fire7/expand3x3
I0725 09:30:40.535092  9052 net.cpp:405] fire7/relu_expand3x3 -> fire7/expand3x3 (in-place)
I0725 09:30:40.535092  9052 net.cpp:150] Setting up fire7/relu_expand3x3
I0725 09:30:40.535092  9052 net.cpp:157] Top shape: 25 192 7 7 (235200)
I0725 09:30:40.535092  9052 net.cpp:165] Memory required for data: 457692600
I0725 09:30:40.535092  9052 layer_factory.hpp:77] Creating layer fire7/concat
I0725 09:30:40.535092  9052 net.cpp:100] Creating Layer fire7/concat
I0725 09:30:40.535092  9052 net.cpp:444] fire7/concat <- fire7/expand1x1
I0725 09:30:40.536093  9052 net.cpp:444] fire7/concat <- fire7/expand3x3
I0725 09:30:40.536093  9052 net.cpp:418] fire7/concat -> fire7/concat
I0725 09:30:40.536093  9052 net.cpp:150] Setting up fire7/concat
I0725 09:30:40.536093  9052 net.cpp:157] Top shape: 25 384 7 7 (470400)
I0725 09:30:40.536093  9052 net.cpp:165] Memory required for data: 459574200
I0725 09:30:40.536093  9052 layer_factory.hpp:77] Creating layer pool7
I0725 09:30:40.537092  9052 net.cpp:100] Creating Layer pool7
I0725 09:30:40.537092  9052 net.cpp:444] pool7 <- fire7/concat
I0725 09:30:40.537092  9052 net.cpp:418] pool7 -> pool7
I0725 09:30:40.537092  9052 net.cpp:150] Setting up pool7
I0725 09:30:40.537092  9052 net.cpp:157] Top shape: 25 384 3 3 (86400)
I0725 09:30:40.537092  9052 net.cpp:165] Memory required for data: 459919800
I0725 09:30:40.537092  9052 layer_factory.hpp:77] Creating layer fire8/squeeze1x1
I0725 09:30:40.538092  9052 net.cpp:100] Creating Layer fire8/squeeze1x1
I0725 09:30:40.538092  9052 net.cpp:444] fire8/squeeze1x1 <- pool7
I0725 09:30:40.538092  9052 net.cpp:418] fire8/squeeze1x1 -> fire8/squeeze1x1
I0725 09:30:40.543095  9052 net.cpp:150] Setting up fire8/squeeze1x1
I0725 09:30:40.543095  9052 net.cpp:157] Top shape: 25 64 3 3 (14400)
I0725 09:30:40.543095  9052 net.cpp:165] Memory required for data: 459977400
I0725 09:30:40.543095  9052 layer_factory.hpp:77] Creating layer fire8/relu_squeeze1x1
I0725 09:30:40.543095  9052 net.cpp:100] Creating Layer fire8/relu_squeeze1x1
I0725 09:30:40.543095  9052 net.cpp:444] fire8/relu_squeeze1x1 <- fire8/squeeze1x1
I0725 09:30:40.543095  9052 net.cpp:405] fire8/relu_squeeze1x1 -> fire8/squeeze1x1 (in-place)
I0725 09:30:40.544096  9052 net.cpp:150] Setting up fire8/relu_squeeze1x1
I0725 09:30:40.544096  9052 net.cpp:157] Top shape: 25 64 3 3 (14400)
I0725 09:30:40.544096  9052 net.cpp:165] Memory required for data: 460035000
I0725 09:30:40.544096  9052 layer_factory.hpp:77] Creating layer fire8/squeeze1x1_fire8/relu_squeeze1x1_0_split
I0725 09:30:40.544096  9052 net.cpp:100] Creating Layer fire8/squeeze1x1_fire8/relu_squeeze1x1_0_split
I0725 09:30:40.544096  9052 net.cpp:444] fire8/squeeze1x1_fire8/relu_squeeze1x1_0_split <- fire8/squeeze1x1
I0725 09:30:40.544096  9052 net.cpp:418] fire8/squeeze1x1_fire8/relu_squeeze1x1_0_split -> fire8/squeeze1x1_fire8/relu_squeeze1x1_0_split_0
I0725 09:30:40.544096  9052 net.cpp:418] fire8/squeeze1x1_fire8/relu_squeeze1x1_0_split -> fire8/squeeze1x1_fire8/relu_squeeze1x1_0_split_1
I0725 09:30:40.544096  9052 net.cpp:150] Setting up fire8/squeeze1x1_fire8/relu_squeeze1x1_0_split
I0725 09:30:40.545097  9052 net.cpp:157] Top shape: 25 64 3 3 (14400)
I0725 09:30:40.545097  9052 net.cpp:157] Top shape: 25 64 3 3 (14400)
I0725 09:30:40.545097  9052 net.cpp:165] Memory required for data: 460150200
I0725 09:30:40.545097  9052 layer_factory.hpp:77] Creating layer fire8/expand1x1
I0725 09:30:40.545097  9052 net.cpp:100] Creating Layer fire8/expand1x1
I0725 09:30:40.545097  9052 net.cpp:444] fire8/expand1x1 <- fire8/squeeze1x1_fire8/relu_squeeze1x1_0_split_0
I0725 09:30:40.546098  9052 net.cpp:418] fire8/expand1x1 -> fire8/expand1x1
I0725 09:30:40.549100  9052 net.cpp:150] Setting up fire8/expand1x1
I0725 09:30:40.549100  9052 net.cpp:157] Top shape: 25 256 3 3 (57600)
I0725 09:30:40.549100  9052 net.cpp:165] Memory required for data: 460380600
I0725 09:30:40.549100  9052 layer_factory.hpp:77] Creating layer fire8/relu_expand1x1
I0725 09:30:40.550101  9052 net.cpp:100] Creating Layer fire8/relu_expand1x1
I0725 09:30:40.550101  9052 net.cpp:444] fire8/relu_expand1x1 <- fire8/expand1x1
I0725 09:30:40.550101  9052 net.cpp:405] fire8/relu_expand1x1 -> fire8/expand1x1 (in-place)
I0725 09:30:40.550101  9052 net.cpp:150] Setting up fire8/relu_expand1x1
I0725 09:30:40.550101  9052 net.cpp:157] Top shape: 25 256 3 3 (57600)
I0725 09:30:40.550101  9052 net.cpp:165] Memory required for data: 460611000
I0725 09:30:40.550101  9052 layer_factory.hpp:77] Creating layer fire8/expand3x3
I0725 09:30:40.550101  9052 net.cpp:100] Creating Layer fire8/expand3x3
I0725 09:30:40.550101  9052 net.cpp:444] fire8/expand3x3 <- fire8/squeeze1x1_fire8/relu_squeeze1x1_0_split_1
I0725 09:30:40.551101  9052 net.cpp:418] fire8/expand3x3 -> fire8/expand3x3
I0725 09:30:40.615146  9052 net.cpp:150] Setting up fire8/expand3x3
I0725 09:30:40.615146  9052 net.cpp:157] Top shape: 25 256 3 3 (57600)
I0725 09:30:40.615146  9052 net.cpp:165] Memory required for data: 460841400
I0725 09:30:40.615146  9052 layer_factory.hpp:77] Creating layer fire8/relu_expand3x3
I0725 09:30:40.615146  9052 net.cpp:100] Creating Layer fire8/relu_expand3x3
I0725 09:30:40.615146  9052 net.cpp:444] fire8/relu_expand3x3 <- fire8/expand3x3
I0725 09:30:40.616149  9052 net.cpp:405] fire8/relu_expand3x3 -> fire8/expand3x3 (in-place)
I0725 09:30:40.616149  9052 net.cpp:150] Setting up fire8/relu_expand3x3
I0725 09:30:40.616149  9052 net.cpp:157] Top shape: 25 256 3 3 (57600)
I0725 09:30:40.616149  9052 net.cpp:165] Memory required for data: 461071800
I0725 09:30:40.616149  9052 layer_factory.hpp:77] Creating layer fire8/concat
I0725 09:30:40.616149  9052 net.cpp:100] Creating Layer fire8/concat
I0725 09:30:40.616149  9052 net.cpp:444] fire8/concat <- fire8/expand1x1
I0725 09:30:40.616149  9052 net.cpp:444] fire8/concat <- fire8/expand3x3
I0725 09:30:40.616149  9052 net.cpp:418] fire8/concat -> fire8/concat
I0725 09:30:40.616149  9052 net.cpp:150] Setting up fire8/concat
I0725 09:30:40.616149  9052 net.cpp:157] Top shape: 25 512 3 3 (115200)
I0725 09:30:40.616149  9052 net.cpp:165] Memory required for data: 461532600
I0725 09:30:40.617151  9052 layer_factory.hpp:77] Creating layer pool8
I0725 09:30:40.617151  9052 net.cpp:100] Creating Layer pool8
I0725 09:30:40.617151  9052 net.cpp:444] pool8 <- fire8/concat
I0725 09:30:40.617151  9052 net.cpp:418] pool8 -> pool8
I0725 09:30:40.617151  9052 net.cpp:150] Setting up pool8
I0725 09:30:40.617151  9052 net.cpp:157] Top shape: 25 512 1 1 (12800)
I0725 09:30:40.617151  9052 net.cpp:165] Memory required for data: 461583800
I0725 09:30:40.617151  9052 layer_factory.hpp:77] Creating layer fire9/squeeze1x1
I0725 09:30:40.617151  9052 net.cpp:100] Creating Layer fire9/squeeze1x1
I0725 09:30:40.617151  9052 net.cpp:444] fire9/squeeze1x1 <- pool8
I0725 09:30:40.617151  9052 net.cpp:418] fire9/squeeze1x1 -> fire9/squeeze1x1
I0725 09:30:40.622153  9052 net.cpp:150] Setting up fire9/squeeze1x1
I0725 09:30:40.622153  9052 net.cpp:157] Top shape: 25 64 1 1 (1600)
I0725 09:30:40.622153  9052 net.cpp:165] Memory required for data: 461590200
I0725 09:30:40.622153  9052 layer_factory.hpp:77] Creating layer fire9/relu_squeeze1x1
I0725 09:30:40.622153  9052 net.cpp:100] Creating Layer fire9/relu_squeeze1x1
I0725 09:30:40.622153  9052 net.cpp:444] fire9/relu_squeeze1x1 <- fire9/squeeze1x1
I0725 09:30:40.622153  9052 net.cpp:405] fire9/relu_squeeze1x1 -> fire9/squeeze1x1 (in-place)
I0725 09:30:40.622153  9052 net.cpp:150] Setting up fire9/relu_squeeze1x1
I0725 09:30:40.622153  9052 net.cpp:157] Top shape: 25 64 1 1 (1600)
I0725 09:30:40.622153  9052 net.cpp:165] Memory required for data: 461596600
I0725 09:30:40.622153  9052 layer_factory.hpp:77] Creating layer fire9/squeeze1x1_fire9/relu_squeeze1x1_0_split
I0725 09:30:40.622153  9052 net.cpp:100] Creating Layer fire9/squeeze1x1_fire9/relu_squeeze1x1_0_split
I0725 09:30:40.622153  9052 net.cpp:444] fire9/squeeze1x1_fire9/relu_squeeze1x1_0_split <- fire9/squeeze1x1
I0725 09:30:40.623154  9052 net.cpp:418] fire9/squeeze1x1_fire9/relu_squeeze1x1_0_split -> fire9/squeeze1x1_fire9/relu_squeeze1x1_0_split_0
I0725 09:30:40.623154  9052 net.cpp:418] fire9/squeeze1x1_fire9/relu_squeeze1x1_0_split -> fire9/squeeze1x1_fire9/relu_squeeze1x1_0_split_1
I0725 09:30:40.623154  9052 net.cpp:150] Setting up fire9/squeeze1x1_fire9/relu_squeeze1x1_0_split
I0725 09:30:40.623154  9052 net.cpp:157] Top shape: 25 64 1 1 (1600)
I0725 09:30:40.623154  9052 net.cpp:157] Top shape: 25 64 1 1 (1600)
I0725 09:30:40.623154  9052 net.cpp:165] Memory required for data: 461609400
I0725 09:30:40.623154  9052 layer_factory.hpp:77] Creating layer fire9/expand1x1
I0725 09:30:40.623154  9052 net.cpp:100] Creating Layer fire9/expand1x1
I0725 09:30:40.623154  9052 net.cpp:444] fire9/expand1x1 <- fire9/squeeze1x1_fire9/relu_squeeze1x1_0_split_0
I0725 09:30:40.623154  9052 net.cpp:418] fire9/expand1x1 -> fire9/expand1x1
I0725 09:30:40.626154  9052 net.cpp:150] Setting up fire9/expand1x1
I0725 09:30:40.626154  9052 net.cpp:157] Top shape: 25 256 1 1 (6400)
I0725 09:30:40.626154  9052 net.cpp:165] Memory required for data: 461635000
I0725 09:30:40.626154  9052 layer_factory.hpp:77] Creating layer fire9/relu_expand1x1
I0725 09:30:40.626154  9052 net.cpp:100] Creating Layer fire9/relu_expand1x1
I0725 09:30:40.626154  9052 net.cpp:444] fire9/relu_expand1x1 <- fire9/expand1x1
I0725 09:30:40.627154  9052 net.cpp:405] fire9/relu_expand1x1 -> fire9/expand1x1 (in-place)
I0725 09:30:40.627154  9052 net.cpp:150] Setting up fire9/relu_expand1x1
I0725 09:30:40.627154  9052 net.cpp:157] Top shape: 25 256 1 1 (6400)
I0725 09:30:40.627154  9052 net.cpp:165] Memory required for data: 461660600
I0725 09:30:40.627154  9052 layer_factory.hpp:77] Creating layer fire9/expand3x3
I0725 09:30:40.627154  9052 net.cpp:100] Creating Layer fire9/expand3x3
I0725 09:30:40.627154  9052 net.cpp:444] fire9/expand3x3 <- fire9/squeeze1x1_fire9/relu_squeeze1x1_0_split_1
I0725 09:30:40.627154  9052 net.cpp:418] fire9/expand3x3 -> fire9/expand3x3
I0725 09:30:40.691200  9052 net.cpp:150] Setting up fire9/expand3x3
I0725 09:30:40.691200  9052 net.cpp:157] Top shape: 25 256 1 1 (6400)
I0725 09:30:40.691200  9052 net.cpp:165] Memory required for data: 461686200
I0725 09:30:40.691200  9052 layer_factory.hpp:77] Creating layer fire9/relu_expand3x3
I0725 09:30:40.691200  9052 net.cpp:100] Creating Layer fire9/relu_expand3x3
I0725 09:30:40.691200  9052 net.cpp:444] fire9/relu_expand3x3 <- fire9/expand3x3
I0725 09:30:40.691200  9052 net.cpp:405] fire9/relu_expand3x3 -> fire9/expand3x3 (in-place)
I0725 09:30:40.691200  9052 net.cpp:150] Setting up fire9/relu_expand3x3
I0725 09:30:40.691200  9052 net.cpp:157] Top shape: 25 256 1 1 (6400)
I0725 09:30:40.691200  9052 net.cpp:165] Memory required for data: 461711800
I0725 09:30:40.692201  9052 layer_factory.hpp:77] Creating layer fire9/concat
I0725 09:30:40.692201  9052 net.cpp:100] Creating Layer fire9/concat
I0725 09:30:40.692201  9052 net.cpp:444] fire9/concat <- fire9/expand1x1
I0725 09:30:40.692201  9052 net.cpp:444] fire9/concat <- fire9/expand3x3
I0725 09:30:40.692201  9052 net.cpp:418] fire9/concat -> fire9/concat
I0725 09:30:40.692201  9052 net.cpp:150] Setting up fire9/concat
I0725 09:30:40.692201  9052 net.cpp:157] Top shape: 25 512 1 1 (12800)
I0725 09:30:40.692201  9052 net.cpp:165] Memory required for data: 461763000
I0725 09:30:40.692201  9052 layer_factory.hpp:77] Creating layer drop9
I0725 09:30:40.692201  9052 net.cpp:100] Creating Layer drop9
I0725 09:30:40.692201  9052 net.cpp:444] drop9 <- fire9/concat
I0725 09:30:40.692201  9052 net.cpp:405] drop9 -> fire9/concat (in-place)
I0725 09:30:40.692201  9052 net.cpp:150] Setting up drop9
I0725 09:30:40.692201  9052 net.cpp:157] Top shape: 25 512 1 1 (12800)
I0725 09:30:40.692201  9052 net.cpp:165] Memory required for data: 461814200
I0725 09:30:40.693202  9052 layer_factory.hpp:77] Creating layer conv10
I0725 09:30:40.693202  9052 net.cpp:100] Creating Layer conv10
I0725 09:30:40.693202  9052 net.cpp:444] conv10 <- fire9/concat
I0725 09:30:40.693202  9052 net.cpp:418] conv10 -> conv10
I0725 09:30:40.695204  9052 net.cpp:150] Setting up conv10
I0725 09:30:40.695204  9052 net.cpp:157] Top shape: 25 10 1 1 (250)
I0725 09:30:40.695204  9052 net.cpp:165] Memory required for data: 461815200
I0725 09:30:40.695204  9052 layer_factory.hpp:77] Creating layer relu_conv10
I0725 09:30:40.695204  9052 net.cpp:100] Creating Layer relu_conv10
I0725 09:30:40.695204  9052 net.cpp:444] relu_conv10 <- conv10
I0725 09:30:40.695204  9052 net.cpp:405] relu_conv10 -> conv10 (in-place)
I0725 09:30:40.695204  9052 net.cpp:150] Setting up relu_conv10
I0725 09:30:40.695204  9052 net.cpp:157] Top shape: 25 10 1 1 (250)
I0725 09:30:40.695204  9052 net.cpp:165] Memory required for data: 461816200
I0725 09:30:40.695204  9052 layer_factory.hpp:77] Creating layer pool10
I0725 09:30:40.695204  9052 net.cpp:100] Creating Layer pool10
I0725 09:30:40.695204  9052 net.cpp:444] pool10 <- conv10
I0725 09:30:40.695204  9052 net.cpp:418] pool10 -> pool10
I0725 09:30:40.696203  9052 net.cpp:150] Setting up pool10
I0725 09:30:40.696203  9052 net.cpp:157] Top shape: 25 10 1 1 (250)
I0725 09:30:40.696203  9052 net.cpp:165] Memory required for data: 461817200
I0725 09:30:40.696203  9052 layer_factory.hpp:77] Creating layer pool10_pool10_0_split
I0725 09:30:40.696203  9052 net.cpp:100] Creating Layer pool10_pool10_0_split
I0725 09:30:40.696203  9052 net.cpp:444] pool10_pool10_0_split <- pool10
I0725 09:30:40.696203  9052 net.cpp:418] pool10_pool10_0_split -> pool10_pool10_0_split_0
I0725 09:30:40.696203  9052 net.cpp:418] pool10_pool10_0_split -> pool10_pool10_0_split_1
I0725 09:30:40.696203  9052 net.cpp:150] Setting up pool10_pool10_0_split
I0725 09:30:40.696203  9052 net.cpp:157] Top shape: 25 10 1 1 (250)
I0725 09:30:40.696203  9052 net.cpp:157] Top shape: 25 10 1 1 (250)
I0725 09:30:40.696203  9052 net.cpp:165] Memory required for data: 461819200
I0725 09:30:40.696203  9052 layer_factory.hpp:77] Creating layer accuracy
I0725 09:30:40.697204  9052 net.cpp:100] Creating Layer accuracy
I0725 09:30:40.697204  9052 net.cpp:444] accuracy <- pool10_pool10_0_split_0
I0725 09:30:40.697204  9052 net.cpp:444] accuracy <- label_data_1_split_0
I0725 09:30:40.697204  9052 net.cpp:418] accuracy -> accuracy
…
