…
I0731 09:10:21.132436 26796 net.cpp:332] The NetState phase (0) differed from the phase (1) specified by a rule in layer accuracy_top5
I0731 09:10:21.141441 26796 net.cpp:58] Initializing net from parameters: 
state {
  phase: TRAIN
  level: 0
  stage: ""
}
layer {
  name: "data"
  type: "Data"
  top: "data"
  top: "label"
  include {
    phase: TRAIN
  }
  transform_param {
    crop_size: 227
    mean_value: 104
    mean_value: 117
    mean_value: 123
  }
  data_param {
    source: "D:/Master/master_graduate/dataset/test/squeezt-test1/train_LEVELDB"
    batch_size: 32
    backend: LEVELDB
  }
}
layer {
  name: "conv1"
  type: "Convolution"
  bottom: "data"
  top: "conv1"
  convolution_param {
    num_output: 64
    kernel_size: 3
    stride: 2
    weight_filler {
      type: "xavier"
    }
  }
}
layer {
  name: "relu_conv1"
  type: "ReLU"
  bottom: "conv1"
  top: "conv1"
}
layer {
  name: "pool1"
  type: "Pooling"
  bottom: "conv1"
  top: "pool1"
  pooling_param {
    pool: MAX
    kernel_size: 3
    stride: 2
  }
}
layer {
  name: "fire3/squeeze1x1"
  type: "Convolution"
  bottom: "pool1"
  top: "fire3/squeeze1x1"
  convolution_param {
    num_output: 16
    kernel_size: 1
    weight_filler {
      type: "xavier"
    }
  }
}
layer {
  name: "fire3/relu_squeeze1x1"
  type: "ReLU"
  bottom: "fire3/squeeze1x1"
  top: "fire3/squeeze1x1"
}
layer {
  name: "fire3/expand1x1"
  type: "Convolution"
  bottom: "fire3/squeeze1x1"
  top: "fire3/expand1x1"
  convolution_param {
    num_output: 64
    pad: 1
    kernel_size: 7
    weight_filler {
      type: "xavier"
    }
  }
}
layer {
  name: "fire3/relu_expand1x1"
  type: "ReLU"
  bottom: "fire3/expand1x1"
  top: "fire3/expand1x1"
}
layer {
  name: "fire3/expand3x3"
  type: "Convolution"
  bottom: "fire3/squeeze1x1"
  top: "fire3/expand3x3"
  convolution_param {
    num_output: 64
    kernel_size: 5
    weight_filler {
      type: "xavier"
    }
  }
}
layer {
  name: "fire3/relu_expand3x3"
  type: "ReLU"
  bottom: "fire3/expand3x3"
  top: "fire3/expand3x3"
}
layer {
  name: "fire3/concat"
  type: "Concat"
  bottom: "fire3/expand1x1"
  bottom: "fire3/expand3x3"
  top: "fire3/concat"
}
layer {
  name: "pool3"
  type: "Pooling"
  bottom: "fire3/concat"
  top: "pool3"
  pooling_param {
    pool: MAX
    kernel_size: 3
    stride: 2
  }
}
layer {
  name: "fire5/squeeze1x1"
  type: "Convolution"
  bottom: "pool3"
  top: "fire5/squeeze1x1"
  convolution_param {
    num_output: 32
    kernel_size: 1
    weight_filler {
      type: "xavier"
    }
  }
}
layer {
  name: "fire5/relu_squeeze1x1"
  type: "ReLU"
  bottom: "fire5/squeeze1x1"
  top: "fire5/squeeze1x1"
}
layer {
  name: "fire5/expand1x1"
  type: "Convolution"
  bottom: "fire5/squeeze1x1"
  top: "fire5/expand1x1"
  convolution_param {
    num_output: 128
    pad: 1
    kernel_size: 7
    weight_filler {
      type: "xavier"
    }
  }
}
layer {
  name: "fire5/relu_expand1x1"
  type: "ReLU"
  bottom: "fire5/expand1x1"
  top: "fire5/expand1x1"
}
layer {
  name: "fire5/expand3x3"
  type: "Convolution"
  bottom: "fire5/squeeze1x1"
  top: "fire5/expand3x3"
  convolution_param {
    num_output: 128
    kernel_size: 5
    weight_filler {
      type: "xavier"
    }
  }
}
layer {
  name: "fire5/relu_expand3x3"
  type: "ReLU"
  bottom: "fire5/expand3x3"
  top: "fire5/expand3x3"
}
layer {
  name: "fire5/concat"
  type: "Concat"
  bottom: "fire5/expand1x1"
  bottom: "fire5/expand3x3"
  top: "fire5/concat"
}
layer {
  name: "pool5"
  type: "Pooling"
  bottom: "fire5/concat"
  top: "pool5"
  pooling_param {
    pool: MAX
    kernel_size: 3
    stride: 2
  }
}
layer {
  name: "fire6/squeeze1x1"
  type: "Convolution"
  bottom: "pool5"
  top: "fire6/squeeze1x1"
  convolution_param {
    num_output: 48
    kernel_size: 1
    weight_filler {
      type: "xavier"
    }
  }
}
layer {
  name: "fire6/relu_squeeze1x1"
  type: "ReLU"
  bottom: "fire6/squeeze1x1"
  top: "fire6/squeeze1x1"
}
layer {
  name: "fire6/expand1x1"
  type: "Convolution"
  bottom: "fire6/squeeze1x1"
  top: "fire6/expand1x1"
  convolution_param {
    num_output: 192
    pad: 1
    kernel_size: 7
    weight_filler {
      type: "xavier"
    }
  }
}
layer {
  name: "fire6/relu_expand1x1"
  type: "ReLU"
  bottom: "fire6/expand1x1"
  top: "fire6/expand1x1"
}
layer {
  name: "fire6/expand3x3"
  type: "Convolution"
  bottom: "fire6/squeeze1x1"
  top: "fire6/expand3x3"
  convolution_param {
    num_output: 192
    kernel_size: 5
    weight_filler {
      type: "xavier"
    }
  }
}
layer {
  name: "fire6/relu_expand3x3"
  type: "ReLU"
  bottom: "fire6/expand3x3"
  top: "fire6/expand3x3"
}
layer {
  name: "fire6/concat"
  type: "Concat"
  bottom: "fire6/expand1x1"
  bottom: "fire6/expand3x3"
  top: "fire6/concat"
}
layer {
  name: "pool6"
  type: "Pooling"
  bottom: "fire6/concat"
  top: "pool6"
  pooling_param {
    pool: MAX
    kernel_size: 3
    stride: 2
  }
}
layer {
  name: "fire7/squeeze1x1"
  type: "Convolution"
  bottom: "pool6"
  top: "fire7/squeeze1x1"
  convolution_param {
    num_output: 48
    pad: 2
    kernel_size: 1
    weight_filler {
      type: "xavier"
    }
  }
}
layer {
  name: "fire7/relu_squeeze1x1"
  type: "ReLU"
  bottom: "fire7/squeeze1x1"
  top: "fire7/squeeze1x1"
}
layer {
  name: "fire7/expand1x1"
  type: "Convolution"
  bottom: "fire7/squeeze1x1"
  top: "fire7/expand1x1"
  convolution_param {
    num_output: 192
    pad: 1
    kernel_size: 7
    weight_filler {
      type: "xavier"
    }
  }
}
layer {
  name: "fire7/relu_expand1x1"
  type: "ReLU"
  bottom: "fire7/expand1x1"
  top: "fire7/expand1x1"
}
layer {
  name: "fire7/expand3x3"
  type: "Convolution"
  bottom: "fire7/squeeze1x1"
  top: "fire7/expand3x3"
  convolution_param {
    num_output: 192
    kernel_size: 5
    weight_filler {
      type: "xavier"
    }
  }
}
layer {
  name: "fire7/relu_expand3x3"
  type: "ReLU"
  bottom: "fire7/expand3x3"
  top: "fire7/expand3x3"
}
layer {
  name: "fire7/concat"
  type: "Concat"
  bottom: "fire7/expand1x1"
  bottom: "fire7/expand3x3"
  top: "fire7/concat"
}
layer {
  name: "pool7"
  type: "Pooling"
  bottom: "fire7/concat"
  top: "pool7"
  pooling_param {
    pool: MAX
    kernel_size: 3
    stride: 2
  }
}
layer {
  name: "fire8/squeeze1x1"
  type: "Convolution"
  bottom: "pool7"
  top: "fire8/squeeze1x1"
  convolution_param {
    num_output: 64
    pad: 3
    kernel_size: 1
    weight_filler {
      type: "xavier"
    }
  }
}
layer {
  name: "fire8/relu_squeeze1x1"
  type: "ReLU"
  bottom: "fire8/squeeze1x1"
  top: "fire8/squeeze1x1"
}
layer {
  name: "fire8/expand1x1"
  type: "Convolution"
  bottom: "fire8/squeeze1x1"
  top: "fire8/expand1x1"
  convolution_param {
    num_output: 256
    pad: 1
    kernel_size: 7
    weight_filler {
      type: "xavier"
    }
  }
}
layer {
  name: "fire8/relu_expand1x1"
  type: "ReLU"
  bottom: "fire8/expand1x1"
  top: "fire8/expand1x1"
}
layer {
  name: "fire8/expand3x3"
  type: "Convolution"
  bottom: "fire8/squeeze1x1"
  top: "fire8/expand3x3"
  convolution_param {
    num_output: 256
    kernel_size: 5
    weight_filler {
      type: "xavier"
    }
  }
}
layer {
  name: "fire8/relu_expand3x3"
  type: "ReLU"
  bottom: "fire8/expand3x3"
  top: "fire8/expand3x3"
}
layer {
  name: "fire8/concat"
  type: "Concat"
  bottom: "fire8/expand1x1"
  bottom: "fire8/expand3x3"
  top: "fire8/concat"
}
layer {
  name: "pool8"
  type: "Pooling"
  bottom: "fire8/concat"
  top: "pool8"
  pooling_param {
    pool: MAX
    kernel_size: 3
    stride: 2
  }
}
layer {
  name: "fire9/squeeze1x1"
  type: "Convolution"
  bottom: "pool8"
  top: "fire9/squeeze1x1"
  convolution_param {
    num_output: 64
    pad: 2
    kernel_size: 1
    weight_filler {
      type: "xavier"
    }
  }
}
layer {
  name: "fire9/relu_squeeze1x1"
  type: "ReLU"
  bottom: "fire9/squeeze1x1"
  top: "fire9/squeeze1x1"
}
layer {
  name: "fire9/expand1x1"
  type: "Convolution"
  bottom: "fire9/squeeze1x1"
  top: "fire9/expand1x1"
  convolution_param {
    num_output: 256
    pad: 5
    kernel_size: 7
    weight_filler {
      type: "xavier"
    }
  }
}
layer {
  name: "fire9/relu_expand1x1"
  type: "ReLU"
  bottom: "fire9/expand1x1"
  top: "fire9/expand1x1"
}
layer {
  name: "fire9/expand3x3"
  type: "Convolution"
  bottom: "fire9/squeeze1x1"
  top: "fire9/expand3x3"
  convolution_param {
    num_output: 256
    pad: 4
    kernel_size: 5
    weight_filler {
      type: "xavier"
    }
  }
}
layer {
  name: "fire9/relu_expand3x3"
  type: "ReLU"
  bottom: "fire9/expand3x3"
  top: "fire9/expand3x3"
}
layer {
  name: "fire9/concat"
  type: "Concat"
  bottom: "fire9/expand1x1"
  bottom: "fire9/expand3x3"
  top: "fire9/concat"
}
layer {
  name: "drop9"
  type: "Dropout"
  bottom: "fire9/concat"
  top: "fire9/concat"
  dropout_param {
    dropout_ratio: 0.5
  }
}
layer {
  name: "conv10"
  type: "Convolution"
  bottom: "fire9/concat"
  top: "conv10"
  convolution_param {
    num_output: 10
    kernel_size: 1
    weight_filler {
      type: "gaussian"
      mean: 0
      std: 0.01
    }
  }
}
layer {
  name: "relu_conv10"
  type: "ReLU"
  bottom: "conv10"
  top: "conv10"
}
layer {
  name: "pool10"
  type: "Pooling"
  bottom: "conv10"
  top: "pool10"
  pooling_param {
    pool: AVE
    global_pooling: true
  }
}
layer {
  name: "loss"
  type: "SoftmaxWithLoss"
  bottom: "pool10"
  bottom: "label"
  top: "loss"
  include {
    phase: TRAIN
  }
}
I0731 09:10:21.148447 26796 layer_factory.hpp:77] Creating layer data
I0731 09:10:21.149447 26796 net.cpp:100] Creating Layer data
I0731 09:10:21.149447 26796 net.cpp:418] data -> data
I0731 09:10:21.150449 26796 net.cpp:418] data -> label
I0731 09:10:21.164458 26740 db_leveldb.cpp:18] Opened leveldb D:/Master/master_graduate/dataset/test/squeezt-test1/train_LEVELDB
I0731 09:10:21.165458 26796 data_layer.cpp:41] output data size: 32,3,227,227
I0731 09:10:21.197481 26796 base_data_layer.cpp:69] Initializing prefetch
I0731 09:10:21.198485 26796 base_data_layer.cpp:72] Prefetch initialized.
I0731 09:10:21.198485 26796 net.cpp:150] Setting up data
I0731 09:10:21.199483 26796 net.cpp:157] Top shape: 32 3 227 227 (4946784)
I0731 09:10:21.199483 26796 net.cpp:157] Top shape: 32 (32)
I0731 09:10:21.199483 26796 net.cpp:165] Memory required for data: 19787264
I0731 09:10:21.199483 26796 layer_factory.hpp:77] Creating layer conv1
I0731 09:10:21.200484 26796 net.cpp:100] Creating Layer conv1
I0731 09:10:21.200484 26796 net.cpp:444] conv1 <- data
I0731 09:10:21.200484 26796 net.cpp:418] conv1 -> conv1
I0731 09:10:21.202486 26796 net.cpp:150] Setting up conv1
I0731 09:10:21.202486 26796 net.cpp:157] Top shape: 32 64 113 113 (26150912)
I0731 09:10:21.203486 26796 net.cpp:165] Memory required for data: 124390912
I0731 09:10:21.203486 26796 layer_factory.hpp:77] Creating layer relu_conv1
I0731 09:10:21.204486 26796 net.cpp:100] Creating Layer relu_conv1
I0731 09:10:21.204486 26796 net.cpp:444] relu_conv1 <- conv1
I0731 09:10:21.205487 26796 net.cpp:405] relu_conv1 -> conv1 (in-place)
I0731 09:10:21.205487 26796 net.cpp:150] Setting up relu_conv1
I0731 09:10:21.205487 26796 net.cpp:157] Top shape: 32 64 113 113 (26150912)
I0731 09:10:21.205487 26796 net.cpp:165] Memory required for data: 228994560
I0731 09:10:21.206488 26796 layer_factory.hpp:77] Creating layer pool1
I0731 09:10:21.207489 26796 net.cpp:100] Creating Layer pool1
I0731 09:10:21.207489 26796 net.cpp:444] pool1 <- conv1
I0731 09:10:21.207489 26796 net.cpp:418] pool1 -> pool1
I0731 09:10:21.208489 26796 net.cpp:150] Setting up pool1
I0731 09:10:21.208489 26796 net.cpp:157] Top shape: 32 64 56 56 (6422528)
I0731 09:10:21.209491 26796 net.cpp:165] Memory required for data: 254684672
I0731 09:10:21.209491 26796 layer_factory.hpp:77] Creating layer fire3/squeeze1x1
I0731 09:10:21.209491 26796 net.cpp:100] Creating Layer fire3/squeeze1x1
I0731 09:10:21.209491 26796 net.cpp:444] fire3/squeeze1x1 <- pool1
I0731 09:10:21.209491 26796 net.cpp:418] fire3/squeeze1x1 -> fire3/squeeze1x1
I0731 09:10:21.210490 26796 net.cpp:150] Setting up fire3/squeeze1x1
I0731 09:10:21.210490 26796 net.cpp:157] Top shape: 32 16 56 56 (1605632)
I0731 09:10:21.210490 26796 net.cpp:165] Memory required for data: 261107200
I0731 09:10:21.211491 26796 layer_factory.hpp:77] Creating layer fire3/relu_squeeze1x1
I0731 09:10:21.211491 26796 net.cpp:100] Creating Layer fire3/relu_squeeze1x1
I0731 09:10:21.211491 26796 net.cpp:444] fire3/relu_squeeze1x1 <- fire3/squeeze1x1
I0731 09:10:21.212491 26796 net.cpp:405] fire3/relu_squeeze1x1 -> fire3/squeeze1x1 (in-place)
I0731 09:10:21.212491 26796 net.cpp:150] Setting up fire3/relu_squeeze1x1
I0731 09:10:21.212491 26796 net.cpp:157] Top shape: 32 16 56 56 (1605632)
I0731 09:10:21.212491 26796 net.cpp:165] Memory required for data: 267529728
I0731 09:10:21.213492 26796 layer_factory.hpp:77] Creating layer fire3/squeeze1x1_fire3/relu_squeeze1x1_0_split
I0731 09:10:21.213492 26796 net.cpp:100] Creating Layer fire3/squeeze1x1_fire3/relu_squeeze1x1_0_split
I0731 09:10:21.213492 26796 net.cpp:444] fire3/squeeze1x1_fire3/relu_squeeze1x1_0_split <- fire3/squeeze1x1
I0731 09:10:21.213492 26796 net.cpp:418] fire3/squeeze1x1_fire3/relu_squeeze1x1_0_split -> fire3/squeeze1x1_fire3/relu_squeeze1x1_0_split_0
I0731 09:10:21.213492 26796 net.cpp:418] fire3/squeeze1x1_fire3/relu_squeeze1x1_0_split -> fire3/squeeze1x1_fire3/relu_squeeze1x1_0_split_1
I0731 09:10:21.213492 26796 net.cpp:150] Setting up fire3/squeeze1x1_fire3/relu_squeeze1x1_0_split
I0731 09:10:21.214493 26796 net.cpp:157] Top shape: 32 16 56 56 (1605632)
I0731 09:10:21.214493 26796 net.cpp:157] Top shape: 32 16 56 56 (1605632)
I0731 09:10:21.214493 26796 net.cpp:165] Memory required for data: 280374784
I0731 09:10:21.214493 26796 layer_factory.hpp:77] Creating layer fire3/expand1x1
I0731 09:10:21.214493 26796 net.cpp:100] Creating Layer fire3/expand1x1
I0731 09:10:21.214493 26796 net.cpp:444] fire3/expand1x1 <- fire3/squeeze1x1_fire3/relu_squeeze1x1_0_split_0
I0731 09:10:21.214493 26796 net.cpp:418] fire3/expand1x1 -> fire3/expand1x1
I0731 09:10:21.225502 26796 net.cpp:150] Setting up fire3/expand1x1
I0731 09:10:21.225502 26796 net.cpp:157] Top shape: 32 64 52 52 (5537792)
I0731 09:10:21.225502 26796 net.cpp:165] Memory required for data: 302525952
I0731 09:10:21.226502 26796 layer_factory.hpp:77] Creating layer fire3/relu_expand1x1
I0731 09:10:21.226502 26796 net.cpp:100] Creating Layer fire3/relu_expand1x1
I0731 09:10:21.226502 26796 net.cpp:444] fire3/relu_expand1x1 <- fire3/expand1x1
I0731 09:10:21.226502 26796 net.cpp:405] fire3/relu_expand1x1 -> fire3/expand1x1 (in-place)
I0731 09:10:21.227502 26796 net.cpp:150] Setting up fire3/relu_expand1x1
I0731 09:10:21.227502 26796 net.cpp:157] Top shape: 32 64 52 52 (5537792)
I0731 09:10:21.227502 26796 net.cpp:165] Memory required for data: 324677120
I0731 09:10:21.227502 26796 layer_factory.hpp:77] Creating layer fire3/expand3x3
I0731 09:10:21.227502 26796 net.cpp:100] Creating Layer fire3/expand3x3
I0731 09:10:21.228503 26796 net.cpp:444] fire3/expand3x3 <- fire3/squeeze1x1_fire3/relu_squeeze1x1_0_split_1
I0731 09:10:21.228503 26796 net.cpp:418] fire3/expand3x3 -> fire3/expand3x3
I0731 09:10:21.234508 26796 net.cpp:150] Setting up fire3/expand3x3
I0731 09:10:21.235508 26796 net.cpp:157] Top shape: 32 64 52 52 (5537792)
I0731 09:10:21.235508 26796 net.cpp:165] Memory required for data: 346828288
I0731 09:10:21.235508 26796 layer_factory.hpp:77] Creating layer fire3/relu_expand3x3
I0731 09:10:21.235508 26796 net.cpp:100] Creating Layer fire3/relu_expand3x3
I0731 09:10:21.235508 26796 net.cpp:444] fire3/relu_expand3x3 <- fire3/expand3x3
I0731 09:10:21.236508 26796 net.cpp:405] fire3/relu_expand3x3 -> fire3/expand3x3 (in-place)
I0731 09:10:21.236508 26796 net.cpp:150] Setting up fire3/relu_expand3x3
I0731 09:10:21.236508 26796 net.cpp:157] Top shape: 32 64 52 52 (5537792)
I0731 09:10:21.236508 26796 net.cpp:165] Memory required for data: 368979456
I0731 09:10:21.236508 26796 layer_factory.hpp:77] Creating layer fire3/concat
I0731 09:10:21.236508 26796 net.cpp:100] Creating Layer fire3/concat
I0731 09:10:21.237510 26796 net.cpp:444] fire3/concat <- fire3/expand1x1
I0731 09:10:21.237510 26796 net.cpp:444] fire3/concat <- fire3/expand3x3
I0731 09:10:21.237510 26796 net.cpp:418] fire3/concat -> fire3/concat
I0731 09:10:21.237510 26796 net.cpp:150] Setting up fire3/concat
I0731 09:10:21.237510 26796 net.cpp:157] Top shape: 32 128 52 52 (11075584)
I0731 09:10:21.237510 26796 net.cpp:165] Memory required for data: 413281792
I0731 09:10:21.238509 26796 layer_factory.hpp:77] Creating layer pool3
I0731 09:10:21.238509 26796 net.cpp:100] Creating Layer pool3
I0731 09:10:21.238509 26796 net.cpp:444] pool3 <- fire3/concat
I0731 09:10:21.239511 26796 net.cpp:418] pool3 -> pool3
I0731 09:10:21.239511 26796 net.cpp:150] Setting up pool3
I0731 09:10:21.239511 26796 net.cpp:157] Top shape: 32 128 26 26 (2768896)
I0731 09:10:21.239511 26796 net.cpp:165] Memory required for data: 424357376
I0731 09:10:21.240511 26796 layer_factory.hpp:77] Creating layer fire5/squeeze1x1
I0731 09:10:21.240511 26796 net.cpp:100] Creating Layer fire5/squeeze1x1
I0731 09:10:21.240511 26796 net.cpp:444] fire5/squeeze1x1 <- pool3
I0731 09:10:21.240511 26796 net.cpp:418] fire5/squeeze1x1 -> fire5/squeeze1x1
I0731 09:10:21.243515 26796 net.cpp:150] Setting up fire5/squeeze1x1
I0731 09:10:21.243515 26796 net.cpp:157] Top shape: 32 32 26 26 (692224)
I0731 09:10:21.243515 26796 net.cpp:165] Memory required for data: 427126272
I0731 09:10:21.244515 26796 layer_factory.hpp:77] Creating layer fire5/relu_squeeze1x1
I0731 09:10:21.244515 26796 net.cpp:100] Creating Layer fire5/relu_squeeze1x1
I0731 09:10:21.244515 26796 net.cpp:444] fire5/relu_squeeze1x1 <- fire5/squeeze1x1
I0731 09:10:21.245515 26796 net.cpp:405] fire5/relu_squeeze1x1 -> fire5/squeeze1x1 (in-place)
I0731 09:10:21.245515 26796 net.cpp:150] Setting up fire5/relu_squeeze1x1
I0731 09:10:21.245515 26796 net.cpp:157] Top shape: 32 32 26 26 (692224)
I0731 09:10:21.245515 26796 net.cpp:165] Memory required for data: 429895168
I0731 09:10:21.245515 26796 layer_factory.hpp:77] Creating layer fire5/squeeze1x1_fire5/relu_squeeze1x1_0_split
I0731 09:10:21.245515 26796 net.cpp:100] Creating Layer fire5/squeeze1x1_fire5/relu_squeeze1x1_0_split
I0731 09:10:21.246515 26796 net.cpp:444] fire5/squeeze1x1_fire5/relu_squeeze1x1_0_split <- fire5/squeeze1x1
I0731 09:10:21.246515 26796 net.cpp:418] fire5/squeeze1x1_fire5/relu_squeeze1x1_0_split -> fire5/squeeze1x1_fire5/relu_squeeze1x1_0_split_0
I0731 09:10:21.246515 26796 net.cpp:418] fire5/squeeze1x1_fire5/relu_squeeze1x1_0_split -> fire5/squeeze1x1_fire5/relu_squeeze1x1_0_split_1
I0731 09:10:21.247517 26796 net.cpp:150] Setting up fire5/squeeze1x1_fire5/relu_squeeze1x1_0_split
I0731 09:10:21.247517 26796 net.cpp:157] Top shape: 32 32 26 26 (692224)
I0731 09:10:21.247517 26796 net.cpp:157] Top shape: 32 32 26 26 (692224)
I0731 09:10:21.247517 26796 net.cpp:165] Memory required for data: 435432960
I0731 09:10:21.247517 26796 layer_factory.hpp:77] Creating layer fire5/expand1x1
I0731 09:10:21.248517 26796 net.cpp:100] Creating Layer fire5/expand1x1
I0731 09:10:21.248517 26796 net.cpp:444] fire5/expand1x1 <- fire5/squeeze1x1_fire5/relu_squeeze1x1_0_split_0
I0731 09:10:21.248517 26796 net.cpp:418] fire5/expand1x1 -> fire5/expand1x1
I0731 09:10:21.290546 26796 net.cpp:150] Setting up fire5/expand1x1
I0731 09:10:21.290546 26796 net.cpp:157] Top shape: 32 128 22 22 (1982464)
I0731 09:10:21.290546 26796 net.cpp:165] Memory required for data: 443362816
I0731 09:10:21.290546 26796 layer_factory.hpp:77] Creating layer fire5/relu_expand1x1
I0731 09:10:21.290546 26796 net.cpp:100] Creating Layer fire5/relu_expand1x1
I0731 09:10:21.291548 26796 net.cpp:444] fire5/relu_expand1x1 <- fire5/expand1x1
I0731 09:10:21.291548 26796 net.cpp:405] fire5/relu_expand1x1 -> fire5/expand1x1 (in-place)
I0731 09:10:21.291548 26796 net.cpp:150] Setting up fire5/relu_expand1x1
I0731 09:10:21.291548 26796 net.cpp:157] Top shape: 32 128 22 22 (1982464)
I0731 09:10:21.291548 26796 net.cpp:165] Memory required for data: 451292672
I0731 09:10:21.291548 26796 layer_factory.hpp:77] Creating layer fire5/expand3x3
I0731 09:10:21.291548 26796 net.cpp:100] Creating Layer fire5/expand3x3
I0731 09:10:21.291548 26796 net.cpp:444] fire5/expand3x3 <- fire5/squeeze1x1_fire5/relu_squeeze1x1_0_split_1
I0731 09:10:21.291548 26796 net.cpp:418] fire5/expand3x3 -> fire5/expand3x3
I0731 09:10:21.310562 26796 net.cpp:150] Setting up fire5/expand3x3
I0731 09:10:21.310562 26796 net.cpp:157] Top shape: 32 128 22 22 (1982464)
I0731 09:10:21.310562 26796 net.cpp:165] Memory required for data: 459222528
I0731 09:10:21.310562 26796 layer_factory.hpp:77] Creating layer fire5/relu_expand3x3
I0731 09:10:21.310562 26796 net.cpp:100] Creating Layer fire5/relu_expand3x3
I0731 09:10:21.310562 26796 net.cpp:444] fire5/relu_expand3x3 <- fire5/expand3x3
I0731 09:10:21.311561 26796 net.cpp:405] fire5/relu_expand3x3 -> fire5/expand3x3 (in-place)
I0731 09:10:21.311561 26796 net.cpp:150] Setting up fire5/relu_expand3x3
I0731 09:10:21.311561 26796 net.cpp:157] Top shape: 32 128 22 22 (1982464)
I0731 09:10:21.311561 26796 net.cpp:165] Memory required for data: 467152384
I0731 09:10:21.311561 26796 layer_factory.hpp:77] Creating layer fire5/concat
I0731 09:10:21.311561 26796 net.cpp:100] Creating Layer fire5/concat
I0731 09:10:21.311561 26796 net.cpp:444] fire5/concat <- fire5/expand1x1
I0731 09:10:21.311561 26796 net.cpp:444] fire5/concat <- fire5/expand3x3
I0731 09:10:21.311561 26796 net.cpp:418] fire5/concat -> fire5/concat
I0731 09:10:21.311561 26796 net.cpp:150] Setting up fire5/concat
I0731 09:10:21.311561 26796 net.cpp:157] Top shape: 32 256 22 22 (3964928)
I0731 09:10:21.311561 26796 net.cpp:165] Memory required for data: 483012096
I0731 09:10:21.311561 26796 layer_factory.hpp:77] Creating layer pool5
I0731 09:10:21.312562 26796 net.cpp:100] Creating Layer pool5
I0731 09:10:21.312562 26796 net.cpp:444] pool5 <- fire5/concat
I0731 09:10:21.312562 26796 net.cpp:418] pool5 -> pool5
I0731 09:10:21.312562 26796 net.cpp:150] Setting up pool5
I0731 09:10:21.312562 26796 net.cpp:157] Top shape: 32 256 11 11 (991232)
I0731 09:10:21.312562 26796 net.cpp:165] Memory required for data: 486977024
I0731 09:10:21.312562 26796 layer_factory.hpp:77] Creating layer fire6/squeeze1x1
I0731 09:10:21.312562 26796 net.cpp:100] Creating Layer fire6/squeeze1x1
I0731 09:10:21.312562 26796 net.cpp:444] fire6/squeeze1x1 <- pool5
I0731 09:10:21.312562 26796 net.cpp:418] fire6/squeeze1x1 -> fire6/squeeze1x1
I0731 09:10:21.315563 26796 net.cpp:150] Setting up fire6/squeeze1x1
I0731 09:10:21.315563 26796 net.cpp:157] Top shape: 32 48 11 11 (185856)
I0731 09:10:21.316565 26796 net.cpp:165] Memory required for data: 487720448
I0731 09:10:21.316565 26796 layer_factory.hpp:77] Creating layer fire6/relu_squeeze1x1
I0731 09:10:21.316565 26796 net.cpp:100] Creating Layer fire6/relu_squeeze1x1
I0731 09:10:21.316565 26796 net.cpp:444] fire6/relu_squeeze1x1 <- fire6/squeeze1x1
I0731 09:10:21.316565 26796 net.cpp:405] fire6/relu_squeeze1x1 -> fire6/squeeze1x1 (in-place)
I0731 09:10:21.316565 26796 net.cpp:150] Setting up fire6/relu_squeeze1x1
I0731 09:10:21.316565 26796 net.cpp:157] Top shape: 32 48 11 11 (185856)
I0731 09:10:21.316565 26796 net.cpp:165] Memory required for data: 488463872
I0731 09:10:21.316565 26796 layer_factory.hpp:77] Creating layer fire6/squeeze1x1_fire6/relu_squeeze1x1_0_split
I0731 09:10:21.316565 26796 net.cpp:100] Creating Layer fire6/squeeze1x1_fire6/relu_squeeze1x1_0_split
I0731 09:10:21.316565 26796 net.cpp:444] fire6/squeeze1x1_fire6/relu_squeeze1x1_0_split <- fire6/squeeze1x1
I0731 09:10:21.317566 26796 net.cpp:418] fire6/squeeze1x1_fire6/relu_squeeze1x1_0_split -> fire6/squeeze1x1_fire6/relu_squeeze1x1_0_split_0
I0731 09:10:21.317566 26796 net.cpp:418] fire6/squeeze1x1_fire6/relu_squeeze1x1_0_split -> fire6/squeeze1x1_fire6/relu_squeeze1x1_0_split_1
I0731 09:10:21.317566 26796 net.cpp:150] Setting up fire6/squeeze1x1_fire6/relu_squeeze1x1_0_split
I0731 09:10:21.317566 26796 net.cpp:157] Top shape: 32 48 11 11 (185856)
I0731 09:10:21.317566 26796 net.cpp:157] Top shape: 32 48 11 11 (185856)
I0731 09:10:21.317566 26796 net.cpp:165] Memory required for data: 489950720
I0731 09:10:21.317566 26796 layer_factory.hpp:77] Creating layer fire6/expand1x1
I0731 09:10:21.317566 26796 net.cpp:100] Creating Layer fire6/expand1x1
I0731 09:10:21.317566 26796 net.cpp:444] fire6/expand1x1 <- fire6/squeeze1x1_fire6/relu_squeeze1x1_0_split_0
I0731 09:10:21.317566 26796 net.cpp:418] fire6/expand1x1 -> fire6/expand1x1
I0731 09:10:21.384613 26796 net.cpp:150] Setting up fire6/expand1x1
I0731 09:10:21.384613 26796 net.cpp:157] Top shape: 32 192 7 7 (301056)
I0731 09:10:21.384613 26796 net.cpp:165] Memory required for data: 491154944
I0731 09:10:21.384613 26796 layer_factory.hpp:77] Creating layer fire6/relu_expand1x1
I0731 09:10:21.385613 26796 net.cpp:100] Creating Layer fire6/relu_expand1x1
I0731 09:10:21.385613 26796 net.cpp:444] fire6/relu_expand1x1 <- fire6/expand1x1
I0731 09:10:21.385613 26796 net.cpp:405] fire6/relu_expand1x1 -> fire6/expand1x1 (in-place)
I0731 09:10:21.385613 26796 net.cpp:150] Setting up fire6/relu_expand1x1
I0731 09:10:21.385613 26796 net.cpp:157] Top shape: 32 192 7 7 (301056)
I0731 09:10:21.385613 26796 net.cpp:165] Memory required for data: 492359168
I0731 09:10:21.385613 26796 layer_factory.hpp:77] Creating layer fire6/expand3x3
I0731 09:10:21.385613 26796 net.cpp:100] Creating Layer fire6/expand3x3
I0731 09:10:21.385613 26796 net.cpp:444] fire6/expand3x3 <- fire6/squeeze1x1_fire6/relu_squeeze1x1_0_split_1
I0731 09:10:21.385613 26796 net.cpp:418] fire6/expand3x3 -> fire6/expand3x3
I0731 09:10:21.418637 26796 net.cpp:150] Setting up fire6/expand3x3
I0731 09:10:21.418637 26796 net.cpp:157] Top shape: 32 192 7 7 (301056)
I0731 09:10:21.418637 26796 net.cpp:165] Memory required for data: 493563392
I0731 09:10:21.419639 26796 layer_factory.hpp:77] Creating layer fire6/relu_expand3x3
I0731 09:10:21.419639 26796 net.cpp:100] Creating Layer fire6/relu_expand3x3
I0731 09:10:21.419639 26796 net.cpp:444] fire6/relu_expand3x3 <- fire6/expand3x3
I0731 09:10:21.419639 26796 net.cpp:405] fire6/relu_expand3x3 -> fire6/expand3x3 (in-place)
I0731 09:10:21.419639 26796 net.cpp:150] Setting up fire6/relu_expand3x3
I0731 09:10:21.419639 26796 net.cpp:157] Top shape: 32 192 7 7 (301056)
I0731 09:10:21.419639 26796 net.cpp:165] Memory required for data: 494767616
I0731 09:10:21.419639 26796 layer_factory.hpp:77] Creating layer fire6/concat
I0731 09:10:21.419639 26796 net.cpp:100] Creating Layer fire6/concat
I0731 09:10:21.419639 26796 net.cpp:444] fire6/concat <- fire6/expand1x1
I0731 09:10:21.419639 26796 net.cpp:444] fire6/concat <- fire6/expand3x3
I0731 09:10:21.419639 26796 net.cpp:418] fire6/concat -> fire6/concat
I0731 09:10:21.419639 26796 net.cpp:150] Setting up fire6/concat
I0731 09:10:21.419639 26796 net.cpp:157] Top shape: 32 384 7 7 (602112)
I0731 09:10:21.420640 26796 net.cpp:165] Memory required for data: 497176064
I0731 09:10:21.420640 26796 layer_factory.hpp:77] Creating layer pool6
I0731 09:10:21.420640 26796 net.cpp:100] Creating Layer pool6
I0731 09:10:21.420640 26796 net.cpp:444] pool6 <- fire6/concat
I0731 09:10:21.420640 26796 net.cpp:418] pool6 -> pool6
I0731 09:10:21.420640 26796 net.cpp:150] Setting up pool6
I0731 09:10:21.420640 26796 net.cpp:157] Top shape: 32 384 3 3 (110592)
I0731 09:10:21.420640 26796 net.cpp:165] Memory required for data: 497618432
I0731 09:10:21.420640 26796 layer_factory.hpp:77] Creating layer fire7/squeeze1x1
I0731 09:10:21.420640 26796 net.cpp:100] Creating Layer fire7/squeeze1x1
I0731 09:10:21.420640 26796 net.cpp:444] fire7/squeeze1x1 <- pool6
I0731 09:10:21.420640 26796 net.cpp:418] fire7/squeeze1x1 -> fire7/squeeze1x1
I0731 09:10:21.423641 26796 net.cpp:150] Setting up fire7/squeeze1x1
I0731 09:10:21.423641 26796 net.cpp:157] Top shape: 32 48 7 7 (75264)
I0731 09:10:21.423641 26796 net.cpp:165] Memory required for data: 497919488
I0731 09:10:21.423641 26796 layer_factory.hpp:77] Creating layer fire7/relu_squeeze1x1
I0731 09:10:21.423641 26796 net.cpp:100] Creating Layer fire7/relu_squeeze1x1
I0731 09:10:21.423641 26796 net.cpp:444] fire7/relu_squeeze1x1 <- fire7/squeeze1x1
I0731 09:10:21.423641 26796 net.cpp:405] fire7/relu_squeeze1x1 -> fire7/squeeze1x1 (in-place)
I0731 09:10:21.423641 26796 net.cpp:150] Setting up fire7/relu_squeeze1x1
I0731 09:10:21.423641 26796 net.cpp:157] Top shape: 32 48 7 7 (75264)
I0731 09:10:21.424643 26796 net.cpp:165] Memory required for data: 498220544
I0731 09:10:21.424643 26796 layer_factory.hpp:77] Creating layer fire7/squeeze1x1_fire7/relu_squeeze1x1_0_split
I0731 09:10:21.424643 26796 net.cpp:100] Creating Layer fire7/squeeze1x1_fire7/relu_squeeze1x1_0_split
I0731 09:10:21.424643 26796 net.cpp:444] fire7/squeeze1x1_fire7/relu_squeeze1x1_0_split <- fire7/squeeze1x1
I0731 09:10:21.424643 26796 net.cpp:418] fire7/squeeze1x1_fire7/relu_squeeze1x1_0_split -> fire7/squeeze1x1_fire7/relu_squeeze1x1_0_split_0
I0731 09:10:21.424643 26796 net.cpp:418] fire7/squeeze1x1_fire7/relu_squeeze1x1_0_split -> fire7/squeeze1x1_fire7/relu_squeeze1x1_0_split_1
I0731 09:10:21.424643 26796 net.cpp:150] Setting up fire7/squeeze1x1_fire7/relu_squeeze1x1_0_split
I0731 09:10:21.424643 26796 net.cpp:157] Top shape: 32 48 7 7 (75264)
I0731 09:10:21.424643 26796 net.cpp:157] Top shape: 32 48 7 7 (75264)
I0731 09:10:21.424643 26796 net.cpp:165] Memory required for data: 498822656
I0731 09:10:21.424643 26796 layer_factory.hpp:77] Creating layer fire7/expand1x1
I0731 09:10:21.424643 26796 net.cpp:100] Creating Layer fire7/expand1x1
I0731 09:10:21.424643 26796 net.cpp:444] fire7/expand1x1 <- fire7/squeeze1x1_fire7/relu_squeeze1x1_0_split_0
I0731 09:10:21.424643 26796 net.cpp:418] fire7/expand1x1 -> fire7/expand1x1
I0731 09:10:21.543290 26796 net.cpp:150] Setting up fire7/expand1x1
I0731 09:10:21.544291 26796 net.cpp:157] Top shape: 32 192 3 3 (55296)
I0731 09:10:21.544291 26796 net.cpp:165] Memory required for data: 499043840
I0731 09:10:21.544291 26796 layer_factory.hpp:77] Creating layer fire7/relu_expand1x1
I0731 09:10:21.544291 26796 net.cpp:100] Creating Layer fire7/relu_expand1x1
I0731 09:10:21.544291 26796 net.cpp:444] fire7/relu_expand1x1 <- fire7/expand1x1
I0731 09:10:21.544291 26796 net.cpp:405] fire7/relu_expand1x1 -> fire7/expand1x1 (in-place)
I0731 09:10:21.544291 26796 net.cpp:150] Setting up fire7/relu_expand1x1
I0731 09:10:21.544291 26796 net.cpp:157] Top shape: 32 192 3 3 (55296)
I0731 09:10:21.544291 26796 net.cpp:165] Memory required for data: 499265024
I0731 09:10:21.545291 26796 layer_factory.hpp:77] Creating layer fire7/expand3x3
I0731 09:10:21.545291 26796 net.cpp:100] Creating Layer fire7/expand3x3
I0731 09:10:21.545291 26796 net.cpp:444] fire7/expand3x3 <- fire7/squeeze1x1_fire7/relu_squeeze1x1_0_split_1
I0731 09:10:21.545291 26796 net.cpp:418] fire7/expand3x3 -> fire7/expand3x3
I0731 09:10:21.580317 26796 net.cpp:150] Setting up fire7/expand3x3
I0731 09:10:21.580317 21860 data_layer.cpp:102] Prefetch batch: 368 ms.
I0731 09:10:21.580317 26796 net.cpp:157] Top shape: 32 192 3 3 (55296)
I0731 09:10:21.580317 21860 data_layer.cpp:103]      Read time: 1 ms.
I0731 09:10:21.580317 26796 net.cpp:165] Memory required for data: 499486208
I0731 09:10:21.580317 21860 data_layer.cpp:104] Transform time: 366.825 ms.
I0731 09:10:21.580317 26796 layer_factory.hpp:77] Creating layer fire7/relu_expand3x3
I0731 09:10:21.580317 26796 net.cpp:100] Creating Layer fire7/relu_expand3x3
I0731 09:10:21.580317 26796 net.cpp:444] fire7/relu_expand3x3 <- fire7/expand3x3
I0731 09:10:21.580317 26796 net.cpp:405] fire7/relu_expand3x3 -> fire7/expand3x3 (in-place)
I0731 09:10:21.580317 26796 net.cpp:150] Setting up fire7/relu_expand3x3
I0731 09:10:21.580317 26796 net.cpp:157] Top shape: 32 192 3 3 (55296)
I0731 09:10:21.581318 26796 net.cpp:165] Memory required for data: 499707392
I0731 09:10:21.581318 26796 layer_factory.hpp:77] Creating layer fire7/concat
I0731 09:10:21.581318 26796 net.cpp:100] Creating Layer fire7/concat
I0731 09:10:21.581318 26796 net.cpp:444] fire7/concat <- fire7/expand1x1
I0731 09:10:21.581318 26796 net.cpp:444] fire7/concat <- fire7/expand3x3
I0731 09:10:21.581318 26796 net.cpp:418] fire7/concat -> fire7/concat
I0731 09:10:21.581318 26796 net.cpp:150] Setting up fire7/concat
I0731 09:10:21.581318 26796 net.cpp:157] Top shape: 32 384 3 3 (110592)
I0731 09:10:21.581318 26796 net.cpp:165] Memory required for data: 500149760
I0731 09:10:21.581318 26796 layer_factory.hpp:77] Creating layer pool7
I0731 09:10:21.582319 26796 net.cpp:100] Creating Layer pool7
I0731 09:10:21.582319 26796 net.cpp:444] pool7 <- fire7/concat
I0731 09:10:21.582319 26796 net.cpp:418] pool7 -> pool7
I0731 09:10:21.582319 26796 net.cpp:150] Setting up pool7
I0731 09:10:21.582319 26796 net.cpp:157] Top shape: 32 384 1 1 (12288)
I0731 09:10:21.582319 26796 net.cpp:165] Memory required for data: 500198912
I0731 09:10:21.582319 26796 layer_factory.hpp:77] Creating layer fire8/squeeze1x1
I0731 09:10:21.582319 26796 net.cpp:100] Creating Layer fire8/squeeze1x1
I0731 09:10:21.582319 26796 net.cpp:444] fire8/squeeze1x1 <- pool7
I0731 09:10:21.583317 26796 net.cpp:418] fire8/squeeze1x1 -> fire8/squeeze1x1
I0731 09:10:21.588322 26796 net.cpp:150] Setting up fire8/squeeze1x1
I0731 09:10:21.588322 26796 net.cpp:157] Top shape: 32 64 7 7 (100352)
I0731 09:10:21.588322 26796 net.cpp:165] Memory required for data: 500600320
I0731 09:10:21.588322 26796 layer_factory.hpp:77] Creating layer fire8/relu_squeeze1x1
I0731 09:10:21.588322 26796 net.cpp:100] Creating Layer fire8/relu_squeeze1x1
I0731 09:10:21.588322 26796 net.cpp:444] fire8/relu_squeeze1x1 <- fire8/squeeze1x1
I0731 09:10:21.588322 26796 net.cpp:405] fire8/relu_squeeze1x1 -> fire8/squeeze1x1 (in-place)
I0731 09:10:21.588322 26796 net.cpp:150] Setting up fire8/relu_squeeze1x1
I0731 09:10:21.588322 26796 net.cpp:157] Top shape: 32 64 7 7 (100352)
I0731 09:10:21.588322 26796 net.cpp:165] Memory required for data: 501001728
I0731 09:10:21.589323 26796 layer_factory.hpp:77] Creating layer fire8/squeeze1x1_fire8/relu_squeeze1x1_0_split
I0731 09:10:21.589323 26796 net.cpp:100] Creating Layer fire8/squeeze1x1_fire8/relu_squeeze1x1_0_split
I0731 09:10:21.589323 26796 net.cpp:444] fire8/squeeze1x1_fire8/relu_squeeze1x1_0_split <- fire8/squeeze1x1
I0731 09:10:21.589323 26796 net.cpp:418] fire8/squeeze1x1_fire8/relu_squeeze1x1_0_split -> fire8/squeeze1x1_fire8/relu_squeeze1x1_0_split_0
I0731 09:10:21.589323 26796 net.cpp:418] fire8/squeeze1x1_fire8/relu_squeeze1x1_0_split -> fire8/squeeze1x1_fire8/relu_squeeze1x1_0_split_1
I0731 09:10:21.589323 26796 net.cpp:150] Setting up fire8/squeeze1x1_fire8/relu_squeeze1x1_0_split
I0731 09:10:21.589323 26796 net.cpp:157] Top shape: 32 64 7 7 (100352)
I0731 09:10:21.589323 26796 net.cpp:157] Top shape: 32 64 7 7 (100352)
I0731 09:10:21.589323 26796 net.cpp:165] Memory required for data: 501804544
I0731 09:10:21.589323 26796 layer_factory.hpp:77] Creating layer fire8/expand1x1
I0731 09:10:21.589323 26796 net.cpp:100] Creating Layer fire8/expand1x1
I0731 09:10:21.589323 26796 net.cpp:444] fire8/expand1x1 <- fire8/squeeze1x1_fire8/relu_squeeze1x1_0_split_0
I0731 09:10:21.589323 26796 net.cpp:418] fire8/expand1x1 -> fire8/expand1x1
I0731 09:10:21.733422 26796 net.cpp:150] Setting up fire8/expand1x1
I0731 09:10:21.733422 26796 net.cpp:157] Top shape: 32 256 3 3 (73728)
I0731 09:10:21.733422 26796 net.cpp:165] Memory required for data: 502099456
I0731 09:10:21.734423 26796 layer_factory.hpp:77] Creating layer fire8/relu_expand1x1
I0731 09:10:21.734423 26796 net.cpp:100] Creating Layer fire8/relu_expand1x1
I0731 09:10:21.734423 26796 net.cpp:444] fire8/relu_expand1x1 <- fire8/expand1x1
I0731 09:10:21.734423 26796 net.cpp:405] fire8/relu_expand1x1 -> fire8/expand1x1 (in-place)
I0731 09:10:21.734423 26796 net.cpp:150] Setting up fire8/relu_expand1x1
I0731 09:10:21.734423 26796 net.cpp:157] Top shape: 32 256 3 3 (73728)
I0731 09:10:21.734423 26796 net.cpp:165] Memory required for data: 502394368
I0731 09:10:21.734423 26796 layer_factory.hpp:77] Creating layer fire8/expand3x3
I0731 09:10:21.734423 26796 net.cpp:100] Creating Layer fire8/expand3x3
I0731 09:10:21.734423 26796 net.cpp:444] fire8/expand3x3 <- fire8/squeeze1x1_fire8/relu_squeeze1x1_0_split_1
I0731 09:10:21.734423 26796 net.cpp:418] fire8/expand3x3 -> fire8/expand3x3
I0731 09:10:21.803472 26796 net.cpp:150] Setting up fire8/expand3x3
I0731 09:10:21.803472 26796 net.cpp:157] Top shape: 32 256 3 3 (73728)
I0731 09:10:21.803472 26796 net.cpp:165] Memory required for data: 502689280
I0731 09:10:21.803472 26796 layer_factory.hpp:77] Creating layer fire8/relu_expand3x3
I0731 09:10:21.803472 26796 net.cpp:100] Creating Layer fire8/relu_expand3x3
I0731 09:10:21.803472 26796 net.cpp:444] fire8/relu_expand3x3 <- fire8/expand3x3
I0731 09:10:21.804473 26796 net.cpp:405] fire8/relu_expand3x3 -> fire8/expand3x3 (in-place)
I0731 09:10:21.804473 26796 net.cpp:150] Setting up fire8/relu_expand3x3
I0731 09:10:21.804473 26796 net.cpp:157] Top shape: 32 256 3 3 (73728)
I0731 09:10:21.804473 26796 net.cpp:165] Memory required for data: 502984192
I0731 09:10:21.804473 26796 layer_factory.hpp:77] Creating layer fire8/concat
I0731 09:10:21.804473 26796 net.cpp:100] Creating Layer fire8/concat
I0731 09:10:21.804473 26796 net.cpp:444] fire8/concat <- fire8/expand1x1
I0731 09:10:21.804473 26796 net.cpp:444] fire8/concat <- fire8/expand3x3
I0731 09:10:21.804473 26796 net.cpp:418] fire8/concat -> fire8/concat
I0731 09:10:21.804473 26796 net.cpp:150] Setting up fire8/concat
I0731 09:10:21.804473 26796 net.cpp:157] Top shape: 32 512 3 3 (147456)
I0731 09:10:21.804473 26796 net.cpp:165] Memory required for data: 503574016
I0731 09:10:21.804473 26796 layer_factory.hpp:77] Creating layer pool8
I0731 09:10:21.804473 26796 net.cpp:100] Creating Layer pool8
I0731 09:10:21.805474 26796 net.cpp:444] pool8 <- fire8/concat
I0731 09:10:21.805474 26796 net.cpp:418] pool8 -> pool8
I0731 09:10:21.805474 26796 net.cpp:150] Setting up pool8
I0731 09:10:21.805474 26796 net.cpp:157] Top shape: 32 512 1 1 (16384)
I0731 09:10:21.805474 26796 net.cpp:165] Memory required for data: 503639552
I0731 09:10:21.805474 26796 layer_factory.hpp:77] Creating layer fire9/squeeze1x1
I0731 09:10:21.805474 26796 net.cpp:100] Creating Layer fire9/squeeze1x1
I0731 09:10:21.805474 26796 net.cpp:444] fire9/squeeze1x1 <- pool8
I0731 09:10:21.805474 26796 net.cpp:418] fire9/squeeze1x1 -> fire9/squeeze1x1
I0731 09:10:21.810477 26796 net.cpp:150] Setting up fire9/squeeze1x1
I0731 09:10:21.810477 26796 net.cpp:157] Top shape: 32 64 5 5 (51200)
I0731 09:10:21.810477 26796 net.cpp:165] Memory required for data: 503844352
I0731 09:10:21.810477 26796 layer_factory.hpp:77] Creating layer fire9/relu_squeeze1x1
I0731 09:10:21.810477 26796 net.cpp:100] Creating Layer fire9/relu_squeeze1x1
I0731 09:10:21.811478 26796 net.cpp:444] fire9/relu_squeeze1x1 <- fire9/squeeze1x1
I0731 09:10:21.811478 26796 net.cpp:405] fire9/relu_squeeze1x1 -> fire9/squeeze1x1 (in-place)
I0731 09:10:21.811478 26796 net.cpp:150] Setting up fire9/relu_squeeze1x1
I0731 09:10:21.811478 26796 net.cpp:157] Top shape: 32 64 5 5 (51200)
I0731 09:10:21.811478 26796 net.cpp:165] Memory required for data: 504049152
I0731 09:10:21.811478 26796 layer_factory.hpp:77] Creating layer fire9/squeeze1x1_fire9/relu_squeeze1x1_0_split
I0731 09:10:21.811478 26796 net.cpp:100] Creating Layer fire9/squeeze1x1_fire9/relu_squeeze1x1_0_split
I0731 09:10:21.811478 26796 net.cpp:444] fire9/squeeze1x1_fire9/relu_squeeze1x1_0_split <- fire9/squeeze1x1
I0731 09:10:21.811478 26796 net.cpp:418] fire9/squeeze1x1_fire9/relu_squeeze1x1_0_split -> fire9/squeeze1x1_fire9/relu_squeeze1x1_0_split_0
I0731 09:10:21.811478 26796 net.cpp:418] fire9/squeeze1x1_fire9/relu_squeeze1x1_0_split -> fire9/squeeze1x1_fire9/relu_squeeze1x1_0_split_1
I0731 09:10:21.811478 26796 net.cpp:150] Setting up fire9/squeeze1x1_fire9/relu_squeeze1x1_0_split
I0731 09:10:21.811478 26796 net.cpp:157] Top shape: 32 64 5 5 (51200)
I0731 09:10:21.811478 26796 net.cpp:157] Top shape: 32 64 5 5 (51200)
I0731 09:10:21.812479 26796 net.cpp:165] Memory required for data: 504458752
I0731 09:10:21.812479 26796 layer_factory.hpp:77] Creating layer fire9/expand1x1
I0731 09:10:21.812479 26796 net.cpp:100] Creating Layer fire9/expand1x1
I0731 09:10:21.812479 26796 net.cpp:444] fire9/expand1x1 <- fire9/squeeze1x1_fire9/relu_squeeze1x1_0_split_0
I0731 09:10:21.812479 26796 net.cpp:418] fire9/expand1x1 -> fire9/expand1x1
I0731 09:10:21.939569 21860 data_layer.cpp:102] Prefetch batch: 359 ms.
I0731 09:10:21.940570 21860 data_layer.cpp:103]      Read time: 0 ms.
I0731 09:10:21.940570 21860 data_layer.cpp:104] Transform time: 355.236 ms.
I0731 09:10:21.989604 26796 net.cpp:150] Setting up fire9/expand1x1
I0731 09:10:21.989604 26796 net.cpp:157] Top shape: 32 256 9 9 (663552)
I0731 09:10:21.989604 26796 net.cpp:165] Memory required for data: 507112960
I0731 09:10:21.989604 26796 layer_factory.hpp:77] Creating layer fire9/relu_expand1x1
I0731 09:10:21.989604 26796 net.cpp:100] Creating Layer fire9/relu_expand1x1
I0731 09:10:21.990605 26796 net.cpp:444] fire9/relu_expand1x1 <- fire9/expand1x1
I0731 09:10:21.990605 26796 net.cpp:405] fire9/relu_expand1x1 -> fire9/expand1x1 (in-place)
I0731 09:10:21.990605 26796 net.cpp:150] Setting up fire9/relu_expand1x1
I0731 09:10:21.991607 26796 net.cpp:157] Top shape: 32 256 9 9 (663552)
I0731 09:10:21.991607 26796 net.cpp:165] Memory required for data: 509767168
I0731 09:10:21.991607 26796 layer_factory.hpp:77] Creating layer fire9/expand3x3
I0731 09:10:21.992606 26796 net.cpp:100] Creating Layer fire9/expand3x3
I0731 09:10:21.992606 26796 net.cpp:444] fire9/expand3x3 <- fire9/squeeze1x1_fire9/relu_squeeze1x1_0_split_1
I0731 09:10:21.992606 26796 net.cpp:418] fire9/expand3x3 -> fire9/expand3x3
I0731 09:10:22.084672 26796 net.cpp:150] Setting up fire9/expand3x3
I0731 09:10:22.085672 26796 net.cpp:157] Top shape: 32 256 9 9 (663552)
I0731 09:10:22.085672 26796 net.cpp:165] Memory required for data: 512421376
I0731 09:10:22.085672 26796 layer_factory.hpp:77] Creating layer fire9/relu_expand3x3
I0731 09:10:22.085672 26796 net.cpp:100] Creating Layer fire9/relu_expand3x3
I0731 09:10:22.085672 26796 net.cpp:444] fire9/relu_expand3x3 <- fire9/expand3x3
I0731 09:10:22.085672 26796 net.cpp:405] fire9/relu_expand3x3 -> fire9/expand3x3 (in-place)
I0731 09:10:22.086674 26796 net.cpp:150] Setting up fire9/relu_expand3x3
I0731 09:10:22.086674 26796 net.cpp:157] Top shape: 32 256 9 9 (663552)
I0731 09:10:22.086674 26796 net.cpp:165] Memory required for data: 515075584
I0731 09:10:22.086674 26796 layer_factory.hpp:77] Creating layer fire9/concat
I0731 09:10:22.086674 26796 net.cpp:100] Creating Layer fire9/concat
I0731 09:10:22.086674 26796 net.cpp:444] fire9/concat <- fire9/expand1x1
I0731 09:10:22.086674 26796 net.cpp:444] fire9/concat <- fire9/expand3x3
I0731 09:10:22.087674 26796 net.cpp:418] fire9/concat -> fire9/concat
I0731 09:10:22.087674 26796 net.cpp:150] Setting up fire9/concat
I0731 09:10:22.087674 26796 net.cpp:157] Top shape: 32 512 9 9 (1327104)
I0731 09:10:22.087674 26796 net.cpp:165] Memory required for data: 520384000
I0731 09:10:22.087674 26796 layer_factory.hpp:77] Creating layer drop9
I0731 09:10:22.087674 26796 net.cpp:100] Creating Layer drop9
I0731 09:10:22.087674 26796 net.cpp:444] drop9 <- fire9/concat
I0731 09:10:22.088675 26796 net.cpp:405] drop9 -> fire9/concat (in-place)
I0731 09:10:22.088675 26796 net.cpp:150] Setting up drop9
I0731 09:10:22.088675 26796 net.cpp:157] Top shape: 32 512 9 9 (1327104)
I0731 09:10:22.088675 26796 net.cpp:165] Memory required for data: 525692416
I0731 09:10:22.088675 26796 layer_factory.hpp:77] Creating layer conv10
I0731 09:10:22.088675 26796 net.cpp:100] Creating Layer conv10
I0731 09:10:22.088675 26796 net.cpp:444] conv10 <- fire9/concat
I0731 09:10:22.088675 26796 net.cpp:418] conv10 -> conv10
I0731 09:10:22.091676 26796 net.cpp:150] Setting up conv10
I0731 09:10:22.091676 26796 net.cpp:157] Top shape: 32 10 9 9 (25920)
I0731 09:10:22.092677 26796 net.cpp:165] Memory required for data: 525796096
I0731 09:10:22.092677 26796 layer_factory.hpp:77] Creating layer relu_conv10
I0731 09:10:22.092677 26796 net.cpp:100] Creating Layer relu_conv10
I0731 09:10:22.092677 26796 net.cpp:444] relu_conv10 <- conv10
I0731 09:10:22.092677 26796 net.cpp:405] relu_conv10 -> conv10 (in-place)
I0731 09:10:22.093678 26796 net.cpp:150] Setting up relu_conv10
I0731 09:10:22.093678 26796 net.cpp:157] Top shape: 32 10 9 9 (25920)
I0731 09:10:22.093678 26796 net.cpp:165] Memory required for data: 525899776
I0731 09:10:22.093678 26796 layer_factory.hpp:77] Creating layer pool10
I0731 09:10:22.093678 26796 net.cpp:100] Creating Layer pool10
I0731 09:10:22.093678 26796 net.cpp:444] pool10 <- conv10
I0731 09:10:22.093678 26796 net.cpp:418] pool10 -> pool10
I0731 09:10:22.093678 26796 net.cpp:150] Setting up pool10
I0731 09:10:22.093678 26796 net.cpp:157] Top shape: 32 10 1 1 (320)
I0731 09:10:22.094678 26796 net.cpp:165] Memory required for data: 525901056
I0731 09:10:22.094678 26796 layer_factory.hpp:77] Creating layer loss
I0731 09:10:22.094678 26796 net.cpp:100] Creating Layer loss
I0731 09:10:22.094678 26796 net.cpp:444] loss <- pool10
I0731 09:10:22.094678 26796 net.cpp:444] loss <- label
I0731 09:10:22.094678 26796 net.cpp:418] loss -> loss
I0731 09:10:22.094678 26796 layer_factory.hpp:77] Creating layer loss
…
I0731 09:10:22.122699 26796 net.cpp:332] The NetState phase (1) differed from the phase (0) specified by a rule in layer loss
I0731 09:10:22.132707 26796 net.cpp:58] Initializing net from parameters: 
state {
  phase: TEST
}
layer {
  name: "data"
  type: "Data"
  top: "data"
  top: "label"
  include {
    phase: TEST
  }
  transform_param {
    crop_size: 227
    mean_value: 104
    mean_value: 117
    mean_value: 123
  }
  data_param {
    source: "D:/Master/master_graduate/dataset/test/squeezt-test1/test_LEVELDB"
    batch_size: 25
    backend: LEVELDB
  }
}
layer {
  name: "conv1"
  type: "Convolution"
  bottom: "data"
  top: "conv1"
  convolution_param {
    num_output: 64
    kernel_size: 3
    stride: 2
    weight_filler {
      type: "xavier"
    }
  }
}
layer {
  name: "relu_conv1"
  type: "ReLU"
  bottom: "conv1"
  top: "conv1"
}
layer {
  name: "pool1"
  type: "Pooling"
  bottom: "conv1"
  top: "pool1"
  pooling_param {
    pool: MAX
    kernel_size: 3
    stride: 2
  }
}
layer {
  name: "fire3/squeeze1x1"
  type: "Convolution"
  bottom: "pool1"
  top: "fire3/squeeze1x1"
  convolution_param {
    num_output: 16
    kernel_size: 1
    weight_filler {
      type: "xavier"
    }
  }
}
layer {
  name: "fire3/relu_squeeze1x1"
  type: "ReLU"
  bottom: "fire3/squeeze1x1"
  top: "fire3/squeeze1x1"
}
layer {
  name: "fire3/expand1x1"
  type: "Convolution"
  bottom: "fire3/squeeze1x1"
  top: "fire3/expand1x1"
  convolution_param {
    num_output: 64
    pad: 1
    kernel_size: 7
    weight_filler {
      type: "xavier"
    }
  }
}
layer {
  name: "fire3/relu_expand1x1"
  type: "ReLU"
  bottom: "fire3/expand1x1"
  top: "fire3/expand1x1"
}
layer {
  name: "fire3/expand3x3"
  type: "Convolution"
  bottom: "fire3/squeeze1x1"
  top: "fire3/expand3x3"
  convolution_param {
    num_output: 64
    kernel_size: 5
    weight_filler {
      type: "xavier"
    }
  }
}
layer {
  name: "fire3/relu_expand3x3"
  type: "ReLU"
  bottom: "fire3/expand3x3"
  top: "fire3/expand3x3"
}
layer {
  name: "fire3/concat"
  type: "Concat"
  bottom: "fire3/expand1x1"
  bottom: "fire3/expand3x3"
  top: "fire3/concat"
}
layer {
  name: "pool3"
  type: "Pooling"
  bottom: "fire3/concat"
  top: "pool3"
  pooling_param {
    pool: MAX
    kernel_size: 3
    stride: 2
  }
}
layer {
  name: "fire5/squeeze1x1"
  type: "Convolution"
  bottom: "pool3"
  top: "fire5/squeeze1x1"
  convolution_param {
    num_output: 32
    kernel_size: 1
    weight_filler {
      type: "xavier"
    }
  }
}
layer {
  name: "fire5/relu_squeeze1x1"
  type: "ReLU"
  bottom: "fire5/squeeze1x1"
  top: "fire5/squeeze1x1"
}
layer {
  name: "fire5/expand1x1"
  type: "Convolution"
  bottom: "fire5/squeeze1x1"
  top: "fire5/expand1x1"
  convolution_param {
    num_output: 128
    pad: 1
    kernel_size: 7
    weight_filler {
      type: "xavier"
    }
  }
}
layer {
  name: "fire5/relu_expand1x1"
  type: "ReLU"
  bottom: "fire5/expand1x1"
  top: "fire5/expand1x1"
}
layer {
  name: "fire5/expand3x3"
  type: "Convolution"
  bottom: "fire5/squeeze1x1"
  top: "fire5/expand3x3"
  convolution_param {
    num_output: 128
    kernel_size: 5
    weight_filler {
      type: "xavier"
    }
  }
}
layer {
  name: "fire5/relu_expand3x3"
  type: "ReLU"
  bottom: "fire5/expand3x3"
  top: "fire5/expand3x3"
}
layer {
  name: "fire5/concat"
  type: "Concat"
  bottom: "fire5/expand1x1"
  bottom: "fire5/expand3x3"
  top: "fire5/concat"
}
layer {
  name: "pool5"
  type: "Pooling"
  bottom: "fire5/concat"
  top: "pool5"
  pooling_param {
    pool: MAX
    kernel_size: 3
    stride: 2
  }
}
layer {
  name: "fire6/squeeze1x1"
  type: "Convolution"
  bottom: "pool5"
  top: "fire6/squeeze1x1"
  convolution_param {
    num_output: 48
    kernel_size: 1
    weight_filler {
      type: "xavier"
    }
  }
}
layer {
  name: "fire6/relu_squeeze1x1"
  type: "ReLU"
  bottom: "fire6/squeeze1x1"
  top: "fire6/squeeze1x1"
}
layer {
  name: "fire6/expand1x1"
  type: "Convolution"
  bottom: "fire6/squeeze1x1"
  top: "fire6/expand1x1"
  convolution_param {
    num_output: 192
    pad: 1
    kernel_size: 7
    weight_filler {
      type: "xavier"
    }
  }
}
layer {
  name: "fire6/relu_expand1x1"
  type: "ReLU"
  bottom: "fire6/expand1x1"
  top: "fire6/expand1x1"
}
layer {
  name: "fire6/expand3x3"
  type: "Convolution"
  bottom: "fire6/squeeze1x1"
  top: "fire6/expand3x3"
  convolution_param {
    num_output: 192
    kernel_size: 5
    weight_filler {
      type: "xavier"
    }
  }
}
layer {
  name: "fire6/relu_expand3x3"
  type: "ReLU"
  bottom: "fire6/expand3x3"
  top: "fire6/expand3x3"
}
layer {
  name: "fire6/concat"
  type: "Concat"
  bottom: "fire6/expand1x1"
  bottom: "fire6/expand3x3"
  top: "fire6/concat"
}
layer {
  name: "pool6"
  type: "Pooling"
  bottom: "fire6/concat"
  top: "pool6"
  pooling_param {
    pool: MAX
    kernel_size: 3
    stride: 2
  }
}
layer {
  name: "fire7/squeeze1x1"
  type: "Convolution"
  bottom: "pool6"
  top: "fire7/squeeze1x1"
  convolution_param {
    num_output: 48
    pad: 2
    kernel_size: 1
    weight_filler {
      type: "xavier"
    }
  }
}
layer {
  name: "fire7/relu_squeeze1x1"
  type: "ReLU"
  bottom: "fire7/squeeze1x1"
  top: "fire7/squeeze1x1"
}
layer {
  name: "fire7/expand1x1"
  type: "Convolution"
  bottom: "fire7/squeeze1x1"
  top: "fire7/expand1x1"
  convolution_param {
    num_output: 192
    pad: 1
    kernel_size: 7
    weight_filler {
      type: "xavier"
    }
  }
}
layer {
  name: "fire7/relu_expand1x1"
  type: "ReLU"
  bottom: "fire7/expand1x1"
  top: "fire7/expand1x1"
}
layer {
  name: "fire7/expand3x3"
  type: "Convolution"
  bottom: "fire7/squeeze1x1"
  top: "fire7/expand3x3"
  convolution_param {
    num_output: 192
    kernel_size: 5
    weight_filler {
      type: "xavier"
    }
  }
}
layer {
  name: "fire7/relu_expand3x3"
  type: "ReLU"
  bottom: "fire7/expand3x3"
  top: "fire7/expand3x3"
}
layer {
  name: "fire7/concat"
  type: "Concat"
  bottom: "fire7/expand1x1"
  bottom: "fire7/expand3x3"
  top: "fire7/concat"
}
layer {
  name: "pool7"
  type: "Pooling"
  bottom: "fire7/concat"
  top: "pool7"
  pooling_param {
    pool: MAX
    kernel_size: 3
    stride: 2
  }
}
layer {
  name: "fire8/squeeze1x1"
  type: "Convolution"
  bottom: "pool7"
  top: "fire8/squeeze1x1"
  convolution_param {
    num_output: 64
    pad: 3
    kernel_size: 1
    weight_filler {
      type: "xavier"
    }
  }
}
layer {
  name: "fire8/relu_squeeze1x1"
  type: "ReLU"
  bottom: "fire8/squeeze1x1"
  top: "fire8/squeeze1x1"
}
layer {
  name: "fire8/expand1x1"
  type: "Convolution"
  bottom: "fire8/squeeze1x1"
  top: "fire8/expand1x1"
  convolution_param {
    num_output: 256
    pad: 1
    kernel_size: 7
    weight_filler {
      type: "xavier"
    }
  }
}
layer {
  name: "fire8/relu_expand1x1"
  type: "ReLU"
  bottom: "fire8/expand1x1"
  top: "fire8/expand1x1"
}
layer {
  name: "fire8/expand3x3"
  type: "Convolution"
  bottom: "fire8/squeeze1x1"
  top: "fire8/expand3x3"
  convolution_param {
    num_output: 256
    kernel_size: 5
    weight_filler {
      type: "xavier"
    }
  }
}
layer {
  name: "fire8/relu_expand3x3"
  type: "ReLU"
  bottom: "fire8/expand3x3"
  top: "fire8/expand3x3"
}
layer {
  name: "fire8/concat"
  type: "Concat"
  bottom: "fire8/expand1x1"
  bottom: "fire8/expand3x3"
  top: "fire8/concat"
}
layer {
  name: "pool8"
  type: "Pooling"
  bottom: "fire8/concat"
  top: "pool8"
  pooling_param {
    pool: MAX
    kernel_size: 3
    stride: 2
  }
}
layer {
  name: "fire9/squeeze1x1"
  type: "Convolution"
  bottom: "pool8"
  top: "fire9/squeeze1x1"
  convolution_param {
    num_output: 64
    pad: 2
    kernel_size: 1
    weight_filler {
      type: "xavier"
    }
  }
}
layer {
  name: "fire9/relu_squeeze1x1"
  type: "ReLU"
  bottom: "fire9/squeeze1x1"
  top: "fire9/squeeze1x1"
}
layer {
  name: "fire9/expand1x1"
  type: "Convolution"
  bottom: "fire9/squeeze1x1"
  top: "fire9/expand1x1"
  convolution_param {
    num_output: 256
    pad: 5
    kernel_size: 7
    weight_filler {
      type: "xavier"
    }
  }
}
layer {
  name: "fire9/relu_expand1x1"
  type: "ReLU"
  bottom: "fire9/expand1x1"
  top: "fire9/expand1x1"
}
layer {
  name: "fire9/expand3x3"
  type: "Convolution"
  bottom: "fire9/squeeze1x1"
  top: "fire9/expand3x3"
  convolution_param {
    num_output: 256
    pad: 4
    kernel_size: 5
    weight_filler {
      type: "xavier"
    }
  }
}
layer {
  name: "fire9/relu_expand3x3"
  type: "ReLU"
  bottom: "fire9/expand3x3"
  top: "fire9/expand3x3"
}
layer {
  name: "fire9/concat"
  type: "Concat"
  bottom: "fire9/expand1x1"
  bottom: "fire9/expand3x3"
  top: "fire9/concat"
}
layer {
  name: "drop9"
  type: "Dropout"
  bottom: "fire9/concat"
  top: "fire9/concat"
  dropout_param {
    dropout_ratio: 0.5
  }
}
layer {
  name: "conv10"
  type: "Convolution"
  bottom: "fire9/concat"
  top: "conv10"
  convolution_param {
    num_output: 10
    kernel_size: 1
    weight_filler {
      type: "gaussian"
      mean: 0
      std: 0.01
    }
  }
}
layer {
  name: "relu_conv10"
  type: "ReLU"
  bottom: "conv10"
  top: "conv10"
}
layer {
  name: "pool10"
  type: "Pooling"
  bottom: "conv10"
  top: "pool10"
  pooling_param {
    pool: AVE
    global_pooling: true
  }
}
layer {
  name: "accuracy"
  type: "Accuracy"
  bottom: "pool10"
  bottom: "label"
  top: "accuracy"
  include {
    phase: TEST
  }
}
layer {
  name: "accuracy_top5"
  type: "Accuracy"
  bottom: "pool10"
  bottom: "label"
  top: "accuracy_top5"
  include {
    phase: TEST
  }
  accuracy_param {
    top_k: 5
  }
}
I0731 09:10:22.137711 26796 layer_factory.hpp:77] Creating layer data
I0731 09:10:22.138710 26796 net.cpp:100] Creating Layer data
I0731 09:10:22.138710 26796 net.cpp:418] data -> data
I0731 09:10:22.138710 26796 net.cpp:418] data -> label
I0731 09:10:22.154722 24824 db_leveldb.cpp:18] Opened leveldb D:/Master/master_graduate/dataset/test/squeezt-test1/test_LEVELDB
I0731 09:10:22.155725 26796 data_layer.cpp:41] output data size: 25,3,227,227
I0731 09:10:22.180740 26796 base_data_layer.cpp:69] Initializing prefetch
I0731 09:10:22.181742 26796 base_data_layer.cpp:72] Prefetch initialized.
I0731 09:10:22.181742 26796 net.cpp:150] Setting up data
I0731 09:10:22.181742 26796 net.cpp:157] Top shape: 25 3 227 227 (3864675)
I0731 09:10:22.182741 26796 net.cpp:157] Top shape: 25 (25)
I0731 09:10:22.182741 26796 net.cpp:165] Memory required for data: 15458800
I0731 09:10:22.182741 26796 layer_factory.hpp:77] Creating layer label_data_1_split
I0731 09:10:22.182741 26796 net.cpp:100] Creating Layer label_data_1_split
I0731 09:10:22.182741 26796 net.cpp:444] label_data_1_split <- label
I0731 09:10:22.182741 26796 net.cpp:418] label_data_1_split -> label_data_1_split_0
I0731 09:10:22.183743 26796 net.cpp:418] label_data_1_split -> label_data_1_split_1
I0731 09:10:22.184742 26796 net.cpp:150] Setting up label_data_1_split
I0731 09:10:22.184742 26796 net.cpp:157] Top shape: 25 (25)
I0731 09:10:22.184742 26796 net.cpp:157] Top shape: 25 (25)
I0731 09:10:22.184742 26796 net.cpp:165] Memory required for data: 15459000
I0731 09:10:22.184742 26796 layer_factory.hpp:77] Creating layer conv1
I0731 09:10:22.185744 26796 net.cpp:100] Creating Layer conv1
I0731 09:10:22.185744 26796 net.cpp:444] conv1 <- data
I0731 09:10:22.186743 26796 net.cpp:418] conv1 -> conv1
I0731 09:10:22.187744 26796 net.cpp:150] Setting up conv1
I0731 09:10:22.187744 26796 net.cpp:157] Top shape: 25 64 113 113 (20430400)
I0731 09:10:22.187744 26796 net.cpp:165] Memory required for data: 97180600
I0731 09:10:22.188746 26796 layer_factory.hpp:77] Creating layer relu_conv1
I0731 09:10:22.188746 26796 net.cpp:100] Creating Layer relu_conv1
I0731 09:10:22.189746 26796 net.cpp:444] relu_conv1 <- conv1
I0731 09:10:22.189746 26796 net.cpp:405] relu_conv1 -> conv1 (in-place)
I0731 09:10:22.189746 26796 net.cpp:150] Setting up relu_conv1
I0731 09:10:22.189746 26796 net.cpp:157] Top shape: 25 64 113 113 (20430400)
I0731 09:10:22.189746 26796 net.cpp:165] Memory required for data: 178902200
I0731 09:10:22.190747 26796 layer_factory.hpp:77] Creating layer pool1
I0731 09:10:22.190747 26796 net.cpp:100] Creating Layer pool1
I0731 09:10:22.190747 26796 net.cpp:444] pool1 <- conv1
I0731 09:10:22.191747 26796 net.cpp:418] pool1 -> pool1
I0731 09:10:22.191747 26796 net.cpp:150] Setting up pool1
I0731 09:10:22.191747 26796 net.cpp:157] Top shape: 25 64 56 56 (5017600)
I0731 09:10:22.192749 26796 net.cpp:165] Memory required for data: 198972600
I0731 09:10:22.192749 26796 layer_factory.hpp:77] Creating layer fire3/squeeze1x1
I0731 09:10:22.192749 26796 net.cpp:100] Creating Layer fire3/squeeze1x1
I0731 09:10:22.192749 26796 net.cpp:444] fire3/squeeze1x1 <- pool1
I0731 09:10:22.192749 26796 net.cpp:418] fire3/squeeze1x1 -> fire3/squeeze1x1
I0731 09:10:22.193748 26796 net.cpp:150] Setting up fire3/squeeze1x1
I0731 09:10:22.193748 26796 net.cpp:157] Top shape: 25 16 56 56 (1254400)
I0731 09:10:22.193748 26796 net.cpp:165] Memory required for data: 203990200
I0731 09:10:22.193748 26796 layer_factory.hpp:77] Creating layer fire3/relu_squeeze1x1
I0731 09:10:22.193748 26796 net.cpp:100] Creating Layer fire3/relu_squeeze1x1
I0731 09:10:22.194751 26796 net.cpp:444] fire3/relu_squeeze1x1 <- fire3/squeeze1x1
I0731 09:10:22.194751 26796 net.cpp:405] fire3/relu_squeeze1x1 -> fire3/squeeze1x1 (in-place)
I0731 09:10:22.194751 26796 net.cpp:150] Setting up fire3/relu_squeeze1x1
I0731 09:10:22.194751 26796 net.cpp:157] Top shape: 25 16 56 56 (1254400)
I0731 09:10:22.194751 26796 net.cpp:165] Memory required for data: 209007800
I0731 09:10:22.194751 26796 layer_factory.hpp:77] Creating layer fire3/squeeze1x1_fire3/relu_squeeze1x1_0_split
I0731 09:10:22.194751 26796 net.cpp:100] Creating Layer fire3/squeeze1x1_fire3/relu_squeeze1x1_0_split
I0731 09:10:22.194751 26796 net.cpp:444] fire3/squeeze1x1_fire3/relu_squeeze1x1_0_split <- fire3/squeeze1x1
I0731 09:10:22.194751 26796 net.cpp:418] fire3/squeeze1x1_fire3/relu_squeeze1x1_0_split -> fire3/squeeze1x1_fire3/relu_squeeze1x1_0_split_0
I0731 09:10:22.195751 26796 net.cpp:418] fire3/squeeze1x1_fire3/relu_squeeze1x1_0_split -> fire3/squeeze1x1_fire3/relu_squeeze1x1_0_split_1
I0731 09:10:22.195751 26796 net.cpp:150] Setting up fire3/squeeze1x1_fire3/relu_squeeze1x1_0_split
I0731 09:10:22.195751 26796 net.cpp:157] Top shape: 25 16 56 56 (1254400)
I0731 09:10:22.195751 26796 net.cpp:157] Top shape: 25 16 56 56 (1254400)
I0731 09:10:22.195751 26796 net.cpp:165] Memory required for data: 219043000
I0731 09:10:22.195751 26796 layer_factory.hpp:77] Creating layer fire3/expand1x1
I0731 09:10:22.195751 26796 net.cpp:100] Creating Layer fire3/expand1x1
I0731 09:10:22.196751 26796 net.cpp:444] fire3/expand1x1 <- fire3/squeeze1x1_fire3/relu_squeeze1x1_0_split_0
I0731 09:10:22.196751 26796 net.cpp:418] fire3/expand1x1 -> fire3/expand1x1
I0731 09:10:22.216765 26796 net.cpp:150] Setting up fire3/expand1x1
I0731 09:10:22.216765 26796 net.cpp:157] Top shape: 25 64 52 52 (4326400)
I0731 09:10:22.216765 26796 net.cpp:165] Memory required for data: 236348600
I0731 09:10:22.217767 26796 layer_factory.hpp:77] Creating layer fire3/relu_expand1x1
I0731 09:10:22.218766 26796 net.cpp:100] Creating Layer fire3/relu_expand1x1
I0731 09:10:22.218766 26796 net.cpp:444] fire3/relu_expand1x1 <- fire3/expand1x1
I0731 09:10:22.218766 24824 data_reader.cpp:114] Restarting data prefetching from start.
I0731 09:10:22.218766 26796 net.cpp:405] fire3/relu_expand1x1 -> fire3/expand1x1 (in-place)
I0731 09:10:22.218766 26796 net.cpp:150] Setting up fire3/relu_expand1x1
I0731 09:10:22.218766 26796 net.cpp:157] Top shape: 25 64 52 52 (4326400)
I0731 09:10:22.218766 26796 net.cpp:165] Memory required for data: 253654200
I0731 09:10:22.219768 26796 layer_factory.hpp:77] Creating layer fire3/expand3x3
I0731 09:10:22.219768 26796 net.cpp:100] Creating Layer fire3/expand3x3
I0731 09:10:22.219768 26796 net.cpp:444] fire3/expand3x3 <- fire3/squeeze1x1_fire3/relu_squeeze1x1_0_split_1
I0731 09:10:22.219768 26796 net.cpp:418] fire3/expand3x3 -> fire3/expand3x3
I0731 09:10:22.224771 26796 net.cpp:150] Setting up fire3/expand3x3
I0731 09:10:22.225770 26796 net.cpp:157] Top shape: 25 64 52 52 (4326400)
I0731 09:10:22.225770 26796 net.cpp:165] Memory required for data: 270959800
I0731 09:10:22.225770 26796 layer_factory.hpp:77] Creating layer fire3/relu_expand3x3
I0731 09:10:22.225770 26796 net.cpp:100] Creating Layer fire3/relu_expand3x3
I0731 09:10:22.225770 26796 net.cpp:444] fire3/relu_expand3x3 <- fire3/expand3x3
I0731 09:10:22.225770 26796 net.cpp:405] fire3/relu_expand3x3 -> fire3/expand3x3 (in-place)
I0731 09:10:22.225770 26796 net.cpp:150] Setting up fire3/relu_expand3x3
I0731 09:10:22.225770 26796 net.cpp:157] Top shape: 25 64 52 52 (4326400)
I0731 09:10:22.226771 26796 net.cpp:165] Memory required for data: 288265400
I0731 09:10:22.226771 26796 layer_factory.hpp:77] Creating layer fire3/concat
I0731 09:10:22.226771 26796 net.cpp:100] Creating Layer fire3/concat
I0731 09:10:22.226771 26796 net.cpp:444] fire3/concat <- fire3/expand1x1
I0731 09:10:22.226771 26796 net.cpp:444] fire3/concat <- fire3/expand3x3
I0731 09:10:22.226771 26796 net.cpp:418] fire3/concat -> fire3/concat
I0731 09:10:22.226771 26796 net.cpp:150] Setting up fire3/concat
I0731 09:10:22.226771 26796 net.cpp:157] Top shape: 25 128 52 52 (8652800)
I0731 09:10:22.227772 26796 net.cpp:165] Memory required for data: 322876600
I0731 09:10:22.227772 26796 layer_factory.hpp:77] Creating layer pool3
I0731 09:10:22.227772 26796 net.cpp:100] Creating Layer pool3
I0731 09:10:22.227772 26796 net.cpp:444] pool3 <- fire3/concat
I0731 09:10:22.227772 26796 net.cpp:418] pool3 -> pool3
I0731 09:10:22.227772 26796 net.cpp:150] Setting up pool3
I0731 09:10:22.227772 26796 net.cpp:157] Top shape: 25 128 26 26 (2163200)
I0731 09:10:22.227772 26796 net.cpp:165] Memory required for data: 331529400
I0731 09:10:22.228775 26796 layer_factory.hpp:77] Creating layer fire5/squeeze1x1
I0731 09:10:22.228775 26796 net.cpp:100] Creating Layer fire5/squeeze1x1
I0731 09:10:22.228775 26796 net.cpp:444] fire5/squeeze1x1 <- pool3
I0731 09:10:22.228775 26796 net.cpp:418] fire5/squeeze1x1 -> fire5/squeeze1x1
I0731 09:10:22.229774 26796 net.cpp:150] Setting up fire5/squeeze1x1
I0731 09:10:22.230774 26796 net.cpp:157] Top shape: 25 32 26 26 (540800)
I0731 09:10:22.230774 26796 net.cpp:165] Memory required for data: 333692600
I0731 09:10:22.230774 26796 layer_factory.hpp:77] Creating layer fire5/relu_squeeze1x1
I0731 09:10:22.230774 26796 net.cpp:100] Creating Layer fire5/relu_squeeze1x1
I0731 09:10:22.230774 26796 net.cpp:444] fire5/relu_squeeze1x1 <- fire5/squeeze1x1
I0731 09:10:22.230774 26796 net.cpp:405] fire5/relu_squeeze1x1 -> fire5/squeeze1x1 (in-place)
I0731 09:10:22.231775 26796 net.cpp:150] Setting up fire5/relu_squeeze1x1
I0731 09:10:22.231775 26796 net.cpp:157] Top shape: 25 32 26 26 (540800)
I0731 09:10:22.231775 26796 net.cpp:165] Memory required for data: 335855800
I0731 09:10:22.231775 26796 layer_factory.hpp:77] Creating layer fire5/squeeze1x1_fire5/relu_squeeze1x1_0_split
I0731 09:10:22.231775 26796 net.cpp:100] Creating Layer fire5/squeeze1x1_fire5/relu_squeeze1x1_0_split
I0731 09:10:22.231775 26796 net.cpp:444] fire5/squeeze1x1_fire5/relu_squeeze1x1_0_split <- fire5/squeeze1x1
I0731 09:10:22.231775 26796 net.cpp:418] fire5/squeeze1x1_fire5/relu_squeeze1x1_0_split -> fire5/squeeze1x1_fire5/relu_squeeze1x1_0_split_0
I0731 09:10:22.231775 26796 net.cpp:418] fire5/squeeze1x1_fire5/relu_squeeze1x1_0_split -> fire5/squeeze1x1_fire5/relu_squeeze1x1_0_split_1
I0731 09:10:22.232776 26796 net.cpp:150] Setting up fire5/squeeze1x1_fire5/relu_squeeze1x1_0_split
I0731 09:10:22.232776 26796 net.cpp:157] Top shape: 25 32 26 26 (540800)
I0731 09:10:22.232776 26796 net.cpp:157] Top shape: 25 32 26 26 (540800)
I0731 09:10:22.232776 26796 net.cpp:165] Memory required for data: 340182200
I0731 09:10:22.232776 26796 layer_factory.hpp:77] Creating layer fire5/expand1x1
I0731 09:10:22.232776 26796 net.cpp:100] Creating Layer fire5/expand1x1
I0731 09:10:22.232776 26796 net.cpp:444] fire5/expand1x1 <- fire5/squeeze1x1_fire5/relu_squeeze1x1_0_split_0
I0731 09:10:22.232776 26796 net.cpp:418] fire5/expand1x1 -> fire5/expand1x1
I0731 09:10:22.274806 26796 net.cpp:150] Setting up fire5/expand1x1
I0731 09:10:22.274806 26796 net.cpp:157] Top shape: 25 128 22 22 (1548800)
I0731 09:10:22.274806 26796 net.cpp:165] Memory required for data: 346377400
I0731 09:10:22.274806 26796 layer_factory.hpp:77] Creating layer fire5/relu_expand1x1
I0731 09:10:22.274806 26796 net.cpp:100] Creating Layer fire5/relu_expand1x1
I0731 09:10:22.275807 26796 net.cpp:444] fire5/relu_expand1x1 <- fire5/expand1x1
I0731 09:10:22.275807 26796 net.cpp:405] fire5/relu_expand1x1 -> fire5/expand1x1 (in-place)
I0731 09:10:22.275807 26796 net.cpp:150] Setting up fire5/relu_expand1x1
I0731 09:10:22.275807 26796 net.cpp:157] Top shape: 25 128 22 22 (1548800)
I0731 09:10:22.275807 26796 net.cpp:165] Memory required for data: 352572600
I0731 09:10:22.275807 26796 layer_factory.hpp:77] Creating layer fire5/expand3x3
I0731 09:10:22.275807 26796 net.cpp:100] Creating Layer fire5/expand3x3
I0731 09:10:22.275807 26796 net.cpp:444] fire5/expand3x3 <- fire5/squeeze1x1_fire5/relu_squeeze1x1_0_split_1
I0731 09:10:22.276808 26796 net.cpp:418] fire5/expand3x3 -> fire5/expand3x3
I0731 09:10:22.297824 26796 net.cpp:150] Setting up fire5/expand3x3
I0731 09:10:22.297824 26796 net.cpp:157] Top shape: 25 128 22 22 (1548800)
I0731 09:10:22.297824 26796 net.cpp:165] Memory required for data: 358767800
I0731 09:10:22.297824 26796 layer_factory.hpp:77] Creating layer fire5/relu_expand3x3
I0731 09:10:22.298822 26796 net.cpp:100] Creating Layer fire5/relu_expand3x3
I0731 09:10:22.298822 26796 net.cpp:444] fire5/relu_expand3x3 <- fire5/expand3x3
I0731 09:10:22.298822 26796 net.cpp:405] fire5/relu_expand3x3 -> fire5/expand3x3 (in-place)
I0731 09:10:22.298822 26796 net.cpp:150] Setting up fire5/relu_expand3x3
I0731 09:10:22.298822 26796 net.cpp:157] Top shape: 25 128 22 22 (1548800)
I0731 09:10:22.298822 26796 net.cpp:165] Memory required for data: 364963000
I0731 09:10:22.298822 26796 layer_factory.hpp:77] Creating layer fire5/concat
I0731 09:10:22.298822 26796 net.cpp:100] Creating Layer fire5/concat
I0731 09:10:22.298822 26796 net.cpp:444] fire5/concat <- fire5/expand1x1
I0731 09:10:22.298822 26796 net.cpp:444] fire5/concat <- fire5/expand3x3
I0731 09:10:22.299823 26796 net.cpp:418] fire5/concat -> fire5/concat
I0731 09:10:22.299823 26796 net.cpp:150] Setting up fire5/concat
I0731 09:10:22.299823 26796 net.cpp:157] Top shape: 25 256 22 22 (3097600)
I0731 09:10:22.299823 26796 net.cpp:165] Memory required for data: 377353400
I0731 09:10:22.299823 26796 layer_factory.hpp:77] Creating layer pool5
I0731 09:10:22.299823 26796 net.cpp:100] Creating Layer pool5
I0731 09:10:22.299823 26796 net.cpp:444] pool5 <- fire5/concat
I0731 09:10:22.299823 26796 net.cpp:418] pool5 -> pool5
I0731 09:10:22.299823 26796 net.cpp:150] Setting up pool5
I0731 09:10:22.300824 26796 net.cpp:157] Top shape: 25 256 11 11 (774400)
I0731 09:10:22.300824 26796 net.cpp:165] Memory required for data: 380451000
I0731 09:10:22.300824 26796 layer_factory.hpp:77] Creating layer fire6/squeeze1x1
I0731 09:10:22.300824 26796 net.cpp:100] Creating Layer fire6/squeeze1x1
I0731 09:10:22.300824 26796 net.cpp:444] fire6/squeeze1x1 <- pool5
I0731 09:10:22.300824 26796 net.cpp:418] fire6/squeeze1x1 -> fire6/squeeze1x1
I0731 09:10:22.303825 26796 net.cpp:150] Setting up fire6/squeeze1x1
I0731 09:10:22.303825 26796 net.cpp:157] Top shape: 25 48 11 11 (145200)
I0731 09:10:22.303825 26796 net.cpp:165] Memory required for data: 381031800
I0731 09:10:22.303825 26796 layer_factory.hpp:77] Creating layer fire6/relu_squeeze1x1
I0731 09:10:22.304826 26796 net.cpp:100] Creating Layer fire6/relu_squeeze1x1
I0731 09:10:22.304826 26796 net.cpp:444] fire6/relu_squeeze1x1 <- fire6/squeeze1x1
I0731 09:10:22.304826 26796 net.cpp:405] fire6/relu_squeeze1x1 -> fire6/squeeze1x1 (in-place)
I0731 09:10:22.304826 26796 net.cpp:150] Setting up fire6/relu_squeeze1x1
I0731 09:10:22.304826 26796 net.cpp:157] Top shape: 25 48 11 11 (145200)
I0731 09:10:22.304826 26796 net.cpp:165] Memory required for data: 381612600
I0731 09:10:22.304826 26796 layer_factory.hpp:77] Creating layer fire6/squeeze1x1_fire6/relu_squeeze1x1_0_split
I0731 09:10:22.304826 26796 net.cpp:100] Creating Layer fire6/squeeze1x1_fire6/relu_squeeze1x1_0_split
I0731 09:10:22.304826 26796 net.cpp:444] fire6/squeeze1x1_fire6/relu_squeeze1x1_0_split <- fire6/squeeze1x1
I0731 09:10:22.304826 26796 net.cpp:418] fire6/squeeze1x1_fire6/relu_squeeze1x1_0_split -> fire6/squeeze1x1_fire6/relu_squeeze1x1_0_split_0
I0731 09:10:22.305827 26796 net.cpp:418] fire6/squeeze1x1_fire6/relu_squeeze1x1_0_split -> fire6/squeeze1x1_fire6/relu_squeeze1x1_0_split_1
I0731 09:10:22.305827 26796 net.cpp:150] Setting up fire6/squeeze1x1_fire6/relu_squeeze1x1_0_split
I0731 09:10:22.305827 26796 net.cpp:157] Top shape: 25 48 11 11 (145200)
I0731 09:10:22.305827 26796 net.cpp:157] Top shape: 25 48 11 11 (145200)
I0731 09:10:22.305827 26796 net.cpp:165] Memory required for data: 382774200
I0731 09:10:22.305827 26796 layer_factory.hpp:77] Creating layer fire6/expand1x1
I0731 09:10:22.305827 26796 net.cpp:100] Creating Layer fire6/expand1x1
I0731 09:10:22.306828 26796 net.cpp:444] fire6/expand1x1 <- fire6/squeeze1x1_fire6/relu_squeeze1x1_0_split_0
I0731 09:10:22.306828 26796 net.cpp:418] fire6/expand1x1 -> fire6/expand1x1
I0731 09:10:22.346856 21860 data_layer.cpp:102] Prefetch batch: 406 ms.
I0731 09:10:22.346856 21860 data_layer.cpp:103]      Read time: 1.001 ms.
I0731 09:10:22.346856 21860 data_layer.cpp:104] Transform time: 393.275 ms.
I0731 09:10:22.388885 26796 net.cpp:150] Setting up fire6/expand1x1
I0731 09:10:22.388885 26796 net.cpp:157] Top shape: 25 192 7 7 (235200)
I0731 09:10:22.388885 26796 net.cpp:165] Memory required for data: 383715000
I0731 09:10:22.388885 26796 layer_factory.hpp:77] Creating layer fire6/relu_expand1x1
I0731 09:10:22.388885 26796 net.cpp:100] Creating Layer fire6/relu_expand1x1
I0731 09:10:22.389888 26796 net.cpp:444] fire6/relu_expand1x1 <- fire6/expand1x1
I0731 09:10:22.389888 26796 net.cpp:405] fire6/relu_expand1x1 -> fire6/expand1x1 (in-place)
I0731 09:10:22.389888 26796 net.cpp:150] Setting up fire6/relu_expand1x1
I0731 09:10:22.389888 26796 net.cpp:157] Top shape: 25 192 7 7 (235200)
I0731 09:10:22.389888 26796 net.cpp:165] Memory required for data: 384655800
I0731 09:10:22.389888 26796 layer_factory.hpp:77] Creating layer fire6/expand3x3
I0731 09:10:22.389888 26796 net.cpp:100] Creating Layer fire6/expand3x3
I0731 09:10:22.389888 26796 net.cpp:444] fire6/expand3x3 <- fire6/squeeze1x1_fire6/relu_squeeze1x1_0_split_1
I0731 09:10:22.389888 26796 net.cpp:418] fire6/expand3x3 -> fire6/expand3x3
I0731 09:10:22.422910 26796 net.cpp:150] Setting up fire6/expand3x3
I0731 09:10:22.422910 26796 net.cpp:157] Top shape: 25 192 7 7 (235200)
I0731 09:10:22.422910 26796 net.cpp:165] Memory required for data: 385596600
I0731 09:10:22.423910 26796 layer_factory.hpp:77] Creating layer fire6/relu_expand3x3
I0731 09:10:22.423910 26796 net.cpp:100] Creating Layer fire6/relu_expand3x3
I0731 09:10:22.423910 26796 net.cpp:444] fire6/relu_expand3x3 <- fire6/expand3x3
I0731 09:10:22.423910 26796 net.cpp:405] fire6/relu_expand3x3 -> fire6/expand3x3 (in-place)
I0731 09:10:22.423910 26796 net.cpp:150] Setting up fire6/relu_expand3x3
I0731 09:10:22.423910 26796 net.cpp:157] Top shape: 25 192 7 7 (235200)
I0731 09:10:22.423910 26796 net.cpp:165] Memory required for data: 386537400
I0731 09:10:22.423910 26796 layer_factory.hpp:77] Creating layer fire6/concat
I0731 09:10:22.423910 26796 net.cpp:100] Creating Layer fire6/concat
I0731 09:10:22.423910 26796 net.cpp:444] fire6/concat <- fire6/expand1x1
I0731 09:10:22.423910 26796 net.cpp:444] fire6/concat <- fire6/expand3x3
I0731 09:10:22.423910 26796 net.cpp:418] fire6/concat -> fire6/concat
I0731 09:10:22.423910 26796 net.cpp:150] Setting up fire6/concat
I0731 09:10:22.424911 26796 net.cpp:157] Top shape: 25 384 7 7 (470400)
I0731 09:10:22.424911 26796 net.cpp:165] Memory required for data: 388419000
I0731 09:10:22.424911 26796 layer_factory.hpp:77] Creating layer pool6
I0731 09:10:22.424911 26796 net.cpp:100] Creating Layer pool6
I0731 09:10:22.424911 26796 net.cpp:444] pool6 <- fire6/concat
I0731 09:10:22.424911 26796 net.cpp:418] pool6 -> pool6
I0731 09:10:22.424911 26796 net.cpp:150] Setting up pool6
I0731 09:10:22.424911 26796 net.cpp:157] Top shape: 25 384 3 3 (86400)
I0731 09:10:22.424911 26796 net.cpp:165] Memory required for data: 388764600
I0731 09:10:22.424911 26796 layer_factory.hpp:77] Creating layer fire7/squeeze1x1
I0731 09:10:22.424911 26796 net.cpp:100] Creating Layer fire7/squeeze1x1
I0731 09:10:22.424911 26796 net.cpp:444] fire7/squeeze1x1 <- pool6
I0731 09:10:22.424911 26796 net.cpp:418] fire7/squeeze1x1 -> fire7/squeeze1x1
I0731 09:10:22.427913 26796 net.cpp:150] Setting up fire7/squeeze1x1
I0731 09:10:22.427913 26796 net.cpp:157] Top shape: 25 48 7 7 (58800)
I0731 09:10:22.427913 26796 net.cpp:165] Memory required for data: 388999800
I0731 09:10:22.427913 26796 layer_factory.hpp:77] Creating layer fire7/relu_squeeze1x1
I0731 09:10:22.427913 26796 net.cpp:100] Creating Layer fire7/relu_squeeze1x1
I0731 09:10:22.427913 26796 net.cpp:444] fire7/relu_squeeze1x1 <- fire7/squeeze1x1
I0731 09:10:22.428915 26796 net.cpp:405] fire7/relu_squeeze1x1 -> fire7/squeeze1x1 (in-place)
I0731 09:10:22.428915 26796 net.cpp:150] Setting up fire7/relu_squeeze1x1
I0731 09:10:22.428915 26796 net.cpp:157] Top shape: 25 48 7 7 (58800)
I0731 09:10:22.428915 26796 net.cpp:165] Memory required for data: 389235000
I0731 09:10:22.428915 26796 layer_factory.hpp:77] Creating layer fire7/squeeze1x1_fire7/relu_squeeze1x1_0_split
I0731 09:10:22.428915 26796 net.cpp:100] Creating Layer fire7/squeeze1x1_fire7/relu_squeeze1x1_0_split
I0731 09:10:22.428915 26796 net.cpp:444] fire7/squeeze1x1_fire7/relu_squeeze1x1_0_split <- fire7/squeeze1x1
I0731 09:10:22.429915 26796 net.cpp:418] fire7/squeeze1x1_fire7/relu_squeeze1x1_0_split -> fire7/squeeze1x1_fire7/relu_squeeze1x1_0_split_0
I0731 09:10:22.429915 26796 net.cpp:418] fire7/squeeze1x1_fire7/relu_squeeze1x1_0_split -> fire7/squeeze1x1_fire7/relu_squeeze1x1_0_split_1
I0731 09:10:22.429915 26796 net.cpp:150] Setting up fire7/squeeze1x1_fire7/relu_squeeze1x1_0_split
I0731 09:10:22.429915 26796 net.cpp:157] Top shape: 25 48 7 7 (58800)
I0731 09:10:22.429915 26796 net.cpp:157] Top shape: 25 48 7 7 (58800)
I0731 09:10:22.429915 26796 net.cpp:165] Memory required for data: 389705400
I0731 09:10:22.429915 26796 layer_factory.hpp:77] Creating layer fire7/expand1x1
I0731 09:10:22.429915 26796 net.cpp:100] Creating Layer fire7/expand1x1
I0731 09:10:22.429915 26796 net.cpp:444] fire7/expand1x1 <- fire7/squeeze1x1_fire7/relu_squeeze1x1_0_split_0
I0731 09:10:22.429915 26796 net.cpp:418] fire7/expand1x1 -> fire7/expand1x1
I0731 09:10:22.466941 26948 data_layer.cpp:102] Prefetch batch: 285 ms.
I0731 09:10:22.466941 26948 data_layer.cpp:103]      Read time: 1.002 ms.
I0731 09:10:22.466941 26948 data_layer.cpp:104] Transform time: 278.193 ms.
I0731 09:10:22.495962 26796 net.cpp:150] Setting up fire7/expand1x1
I0731 09:10:22.495962 26796 net.cpp:157] Top shape: 25 192 3 3 (43200)
I0731 09:10:22.495962 26796 net.cpp:165] Memory required for data: 389878200
I0731 09:10:22.495962 26796 layer_factory.hpp:77] Creating layer fire7/relu_expand1x1
I0731 09:10:22.495962 26796 net.cpp:100] Creating Layer fire7/relu_expand1x1
I0731 09:10:22.495962 26796 net.cpp:444] fire7/relu_expand1x1 <- fire7/expand1x1
I0731 09:10:22.495962 26796 net.cpp:405] fire7/relu_expand1x1 -> fire7/expand1x1 (in-place)
I0731 09:10:22.495962 26796 net.cpp:150] Setting up fire7/relu_expand1x1
I0731 09:10:22.495962 26796 net.cpp:157] Top shape: 25 192 3 3 (43200)
I0731 09:10:22.496963 26796 net.cpp:165] Memory required for data: 390051000
I0731 09:10:22.496963 26796 layer_factory.hpp:77] Creating layer fire7/expand3x3
I0731 09:10:22.496963 26796 net.cpp:100] Creating Layer fire7/expand3x3
I0731 09:10:22.496963 26796 net.cpp:444] fire7/expand3x3 <- fire7/squeeze1x1_fire7/relu_squeeze1x1_0_split_1
I0731 09:10:22.496963 26796 net.cpp:418] fire7/expand3x3 -> fire7/expand3x3
I0731 09:10:22.528985 26796 net.cpp:150] Setting up fire7/expand3x3
I0731 09:10:22.529986 26796 net.cpp:157] Top shape: 25 192 3 3 (43200)
I0731 09:10:22.529986 26796 net.cpp:165] Memory required for data: 390223800
I0731 09:10:22.529986 26796 layer_factory.hpp:77] Creating layer fire7/relu_expand3x3
I0731 09:10:22.529986 26796 net.cpp:100] Creating Layer fire7/relu_expand3x3
I0731 09:10:22.529986 26796 net.cpp:444] fire7/relu_expand3x3 <- fire7/expand3x3
I0731 09:10:22.529986 26796 net.cpp:405] fire7/relu_expand3x3 -> fire7/expand3x3 (in-place)
I0731 09:10:22.529986 26796 net.cpp:150] Setting up fire7/relu_expand3x3
I0731 09:10:22.529986 26796 net.cpp:157] Top shape: 25 192 3 3 (43200)
I0731 09:10:22.529986 26796 net.cpp:165] Memory required for data: 390396600
I0731 09:10:22.529986 26796 layer_factory.hpp:77] Creating layer fire7/concat
I0731 09:10:22.529986 26796 net.cpp:100] Creating Layer fire7/concat
I0731 09:10:22.529986 26796 net.cpp:444] fire7/concat <- fire7/expand1x1
I0731 09:10:22.529986 26796 net.cpp:444] fire7/concat <- fire7/expand3x3
I0731 09:10:22.530987 26796 net.cpp:418] fire7/concat -> fire7/concat
I0731 09:10:22.530987 26796 net.cpp:150] Setting up fire7/concat
I0731 09:10:22.530987 26796 net.cpp:157] Top shape: 25 384 3 3 (86400)
I0731 09:10:22.530987 26796 net.cpp:165] Memory required for data: 390742200
I0731 09:10:22.530987 26796 layer_factory.hpp:77] Creating layer pool7
I0731 09:10:22.530987 26796 net.cpp:100] Creating Layer pool7
I0731 09:10:22.530987 26796 net.cpp:444] pool7 <- fire7/concat
I0731 09:10:22.530987 26796 net.cpp:418] pool7 -> pool7
I0731 09:10:22.530987 26796 net.cpp:150] Setting up pool7
I0731 09:10:22.530987 26796 net.cpp:157] Top shape: 25 384 1 1 (9600)
I0731 09:10:22.530987 26796 net.cpp:165] Memory required for data: 390780600
I0731 09:10:22.530987 26796 layer_factory.hpp:77] Creating layer fire8/squeeze1x1
I0731 09:10:22.531987 26796 net.cpp:100] Creating Layer fire8/squeeze1x1
I0731 09:10:22.531987 26796 net.cpp:444] fire8/squeeze1x1 <- pool7
I0731 09:10:22.531987 26796 net.cpp:418] fire8/squeeze1x1 -> fire8/squeeze1x1
I0731 09:10:22.535990 26796 net.cpp:150] Setting up fire8/squeeze1x1
I0731 09:10:22.535990 26796 net.cpp:157] Top shape: 25 64 7 7 (78400)
I0731 09:10:22.535990 26796 net.cpp:165] Memory required for data: 391094200
I0731 09:10:22.536991 26796 layer_factory.hpp:77] Creating layer fire8/relu_squeeze1x1
I0731 09:10:22.536991 26796 net.cpp:100] Creating Layer fire8/relu_squeeze1x1
I0731 09:10:22.536991 26796 net.cpp:444] fire8/relu_squeeze1x1 <- fire8/squeeze1x1
I0731 09:10:22.536991 26796 net.cpp:405] fire8/relu_squeeze1x1 -> fire8/squeeze1x1 (in-place)
I0731 09:10:22.536991 26796 net.cpp:150] Setting up fire8/relu_squeeze1x1
I0731 09:10:22.536991 26796 net.cpp:157] Top shape: 25 64 7 7 (78400)
I0731 09:10:22.536991 26796 net.cpp:165] Memory required for data: 391407800
I0731 09:10:22.536991 26796 layer_factory.hpp:77] Creating layer fire8/squeeze1x1_fire8/relu_squeeze1x1_0_split
I0731 09:10:22.537992 26796 net.cpp:100] Creating Layer fire8/squeeze1x1_fire8/relu_squeeze1x1_0_split
I0731 09:10:22.537992 26796 net.cpp:444] fire8/squeeze1x1_fire8/relu_squeeze1x1_0_split <- fire8/squeeze1x1
I0731 09:10:22.537992 26796 net.cpp:418] fire8/squeeze1x1_fire8/relu_squeeze1x1_0_split -> fire8/squeeze1x1_fire8/relu_squeeze1x1_0_split_0
I0731 09:10:22.537992 26796 net.cpp:418] fire8/squeeze1x1_fire8/relu_squeeze1x1_0_split -> fire8/squeeze1x1_fire8/relu_squeeze1x1_0_split_1
I0731 09:10:22.537992 26796 net.cpp:150] Setting up fire8/squeeze1x1_fire8/relu_squeeze1x1_0_split
I0731 09:10:22.537992 26796 net.cpp:157] Top shape: 25 64 7 7 (78400)
I0731 09:10:22.537992 26796 net.cpp:157] Top shape: 25 64 7 7 (78400)
I0731 09:10:22.537992 26796 net.cpp:165] Memory required for data: 392035000
I0731 09:10:22.537992 26796 layer_factory.hpp:77] Creating layer fire8/expand1x1
I0731 09:10:22.537992 26796 net.cpp:100] Creating Layer fire8/expand1x1
I0731 09:10:22.537992 26796 net.cpp:444] fire8/expand1x1 <- fire8/squeeze1x1_fire8/relu_squeeze1x1_0_split_0
I0731 09:10:22.537992 26796 net.cpp:418] fire8/expand1x1 -> fire8/expand1x1
I0731 09:10:22.662079 26796 net.cpp:150] Setting up fire8/expand1x1
I0731 09:10:22.664080 26796 net.cpp:157] Top shape: 25 256 3 3 (57600)
I0731 09:10:22.664080 26796 net.cpp:165] Memory required for data: 392265400
I0731 09:10:22.664080 26796 layer_factory.hpp:77] Creating layer fire8/relu_expand1x1
I0731 09:10:22.664080 26796 net.cpp:100] Creating Layer fire8/relu_expand1x1
I0731 09:10:22.664080 26796 net.cpp:444] fire8/relu_expand1x1 <- fire8/expand1x1
I0731 09:10:22.664080 26796 net.cpp:405] fire8/relu_expand1x1 -> fire8/expand1x1 (in-place)
I0731 09:10:22.664080 26796 net.cpp:150] Setting up fire8/relu_expand1x1
I0731 09:10:22.665083 26796 net.cpp:157] Top shape: 25 256 3 3 (57600)
I0731 09:10:22.665083 26796 net.cpp:165] Memory required for data: 392495800
I0731 09:10:22.665083 26796 layer_factory.hpp:77] Creating layer fire8/expand3x3
I0731 09:10:22.665083 26796 net.cpp:100] Creating Layer fire8/expand3x3
I0731 09:10:22.665083 26796 net.cpp:444] fire8/expand3x3 <- fire8/squeeze1x1_fire8/relu_squeeze1x1_0_split_1
I0731 09:10:22.665083 26796 net.cpp:418] fire8/expand3x3 -> fire8/expand3x3
I0731 09:10:22.700109 26948 data_layer.cpp:102] Prefetch batch: 233 ms.
I0731 09:10:22.700109 26948 data_layer.cpp:103]      Read time: 0 ms.
I0731 09:10:22.700109 26948 data_layer.cpp:104] Transform time: 231.165 ms.
I0731 09:10:22.722121 26796 net.cpp:150] Setting up fire8/expand3x3
I0731 09:10:22.722121 26796 net.cpp:157] Top shape: 25 256 3 3 (57600)
I0731 09:10:22.722121 26796 net.cpp:165] Memory required for data: 392726200
I0731 09:10:22.722121 26796 layer_factory.hpp:77] Creating layer fire8/relu_expand3x3
I0731 09:10:22.722121 26796 net.cpp:100] Creating Layer fire8/relu_expand3x3
I0731 09:10:22.722121 26796 net.cpp:444] fire8/relu_expand3x3 <- fire8/expand3x3
I0731 09:10:22.722121 26796 net.cpp:405] fire8/relu_expand3x3 -> fire8/expand3x3 (in-place)
I0731 09:10:22.722121 26796 net.cpp:150] Setting up fire8/relu_expand3x3
I0731 09:10:22.722121 26796 net.cpp:157] Top shape: 25 256 3 3 (57600)
I0731 09:10:22.722121 26796 net.cpp:165] Memory required for data: 392956600
I0731 09:10:22.722121 26796 layer_factory.hpp:77] Creating layer fire8/concat
I0731 09:10:22.722121 26796 net.cpp:100] Creating Layer fire8/concat
I0731 09:10:22.722121 26796 net.cpp:444] fire8/concat <- fire8/expand1x1
I0731 09:10:22.723124 26796 net.cpp:444] fire8/concat <- fire8/expand3x3
I0731 09:10:22.723124 26796 net.cpp:418] fire8/concat -> fire8/concat
I0731 09:10:22.723124 26796 net.cpp:150] Setting up fire8/concat
I0731 09:10:22.723124 26796 net.cpp:157] Top shape: 25 512 3 3 (115200)
I0731 09:10:22.723124 26796 net.cpp:165] Memory required for data: 393417400
I0731 09:10:22.723124 26796 layer_factory.hpp:77] Creating layer pool8
I0731 09:10:22.723124 26796 net.cpp:100] Creating Layer pool8
I0731 09:10:22.723124 26796 net.cpp:444] pool8 <- fire8/concat
I0731 09:10:22.724124 26796 net.cpp:418] pool8 -> pool8
I0731 09:10:22.724124 26796 net.cpp:150] Setting up pool8
I0731 09:10:22.724124 26796 net.cpp:157] Top shape: 25 512 1 1 (12800)
I0731 09:10:22.724124 26796 net.cpp:165] Memory required for data: 393468600
I0731 09:10:22.724124 26796 layer_factory.hpp:77] Creating layer fire9/squeeze1x1
I0731 09:10:22.724124 26796 net.cpp:100] Creating Layer fire9/squeeze1x1
I0731 09:10:22.724124 26796 net.cpp:444] fire9/squeeze1x1 <- pool8
I0731 09:10:22.724124 26796 net.cpp:418] fire9/squeeze1x1 -> fire9/squeeze1x1
I0731 09:10:22.730129 26796 net.cpp:150] Setting up fire9/squeeze1x1
I0731 09:10:22.730129 26796 net.cpp:157] Top shape: 25 64 5 5 (40000)
I0731 09:10:22.730129 26796 net.cpp:165] Memory required for data: 393628600
I0731 09:10:22.731128 26796 layer_factory.hpp:77] Creating layer fire9/relu_squeeze1x1
I0731 09:10:22.731128 26796 net.cpp:100] Creating Layer fire9/relu_squeeze1x1
I0731 09:10:22.731128 26796 net.cpp:444] fire9/relu_squeeze1x1 <- fire9/squeeze1x1
I0731 09:10:22.731128 26796 net.cpp:405] fire9/relu_squeeze1x1 -> fire9/squeeze1x1 (in-place)
I0731 09:10:22.731128 26796 net.cpp:150] Setting up fire9/relu_squeeze1x1
I0731 09:10:22.731128 26796 net.cpp:157] Top shape: 25 64 5 5 (40000)
I0731 09:10:22.731128 26796 net.cpp:165] Memory required for data: 393788600
I0731 09:10:22.731128 26796 layer_factory.hpp:77] Creating layer fire9/squeeze1x1_fire9/relu_squeeze1x1_0_split
I0731 09:10:22.731128 26796 net.cpp:100] Creating Layer fire9/squeeze1x1_fire9/relu_squeeze1x1_0_split
I0731 09:10:22.731128 26796 net.cpp:444] fire9/squeeze1x1_fire9/relu_squeeze1x1_0_split <- fire9/squeeze1x1
I0731 09:10:22.731128 26796 net.cpp:418] fire9/squeeze1x1_fire9/relu_squeeze1x1_0_split -> fire9/squeeze1x1_fire9/relu_squeeze1x1_0_split_0
I0731 09:10:22.732129 26796 net.cpp:418] fire9/squeeze1x1_fire9/relu_squeeze1x1_0_split -> fire9/squeeze1x1_fire9/relu_squeeze1x1_0_split_1
I0731 09:10:22.732129 26796 net.cpp:150] Setting up fire9/squeeze1x1_fire9/relu_squeeze1x1_0_split
I0731 09:10:22.732129 26796 net.cpp:157] Top shape: 25 64 5 5 (40000)
I0731 09:10:22.732129 26796 net.cpp:157] Top shape: 25 64 5 5 (40000)
I0731 09:10:22.732129 26796 net.cpp:165] Memory required for data: 394108600
I0731 09:10:22.732129 26796 layer_factory.hpp:77] Creating layer fire9/expand1x1
I0731 09:10:22.732129 26796 net.cpp:100] Creating Layer fire9/expand1x1
I0731 09:10:22.732129 26796 net.cpp:444] fire9/expand1x1 <- fire9/squeeze1x1_fire9/relu_squeeze1x1_0_split_0
I0731 09:10:22.732129 26796 net.cpp:418] fire9/expand1x1 -> fire9/expand1x1
I0731 09:10:22.850212 26796 net.cpp:150] Setting up fire9/expand1x1
I0731 09:10:22.850212 26796 net.cpp:157] Top shape: 25 256 9 9 (518400)
I0731 09:10:22.850212 26796 net.cpp:165] Memory required for data: 396182200
I0731 09:10:22.851213 26796 layer_factory.hpp:77] Creating layer fire9/relu_expand1x1
I0731 09:10:22.851213 26796 net.cpp:100] Creating Layer fire9/relu_expand1x1
I0731 09:10:22.851213 26796 net.cpp:444] fire9/relu_expand1x1 <- fire9/expand1x1
I0731 09:10:22.851213 26796 net.cpp:405] fire9/relu_expand1x1 -> fire9/expand1x1 (in-place)
I0731 09:10:22.851213 26796 net.cpp:150] Setting up fire9/relu_expand1x1
I0731 09:10:22.851213 26796 net.cpp:157] Top shape: 25 256 9 9 (518400)
I0731 09:10:22.851213 26796 net.cpp:165] Memory required for data: 398255800
I0731 09:10:22.851213 26796 layer_factory.hpp:77] Creating layer fire9/expand3x3
I0731 09:10:22.852216 26796 net.cpp:100] Creating Layer fire9/expand3x3
I0731 09:10:22.852216 26796 net.cpp:444] fire9/expand3x3 <- fire9/squeeze1x1_fire9/relu_squeeze1x1_0_split_1
I0731 09:10:22.852216 26796 net.cpp:418] fire9/expand3x3 -> fire9/expand3x3
I0731 09:10:22.913257 26796 net.cpp:150] Setting up fire9/expand3x3
I0731 09:10:22.913257 26796 net.cpp:157] Top shape: 25 256 9 9 (518400)
I0731 09:10:22.913257 26796 net.cpp:165] Memory required for data: 400329400
I0731 09:10:22.913257 26796 layer_factory.hpp:77] Creating layer fire9/relu_expand3x3
I0731 09:10:22.914259 26796 net.cpp:100] Creating Layer fire9/relu_expand3x3
I0731 09:10:22.914259 26796 net.cpp:444] fire9/relu_expand3x3 <- fire9/expand3x3
I0731 09:10:22.914259 26796 net.cpp:405] fire9/relu_expand3x3 -> fire9/expand3x3 (in-place)
I0731 09:10:22.914259 26796 net.cpp:150] Setting up fire9/relu_expand3x3
I0731 09:10:22.914259 26796 net.cpp:157] Top shape: 25 256 9 9 (518400)
I0731 09:10:22.914259 26796 net.cpp:165] Memory required for data: 402403000
I0731 09:10:22.914259 26796 layer_factory.hpp:77] Creating layer fire9/concat
I0731 09:10:22.914259 26796 net.cpp:100] Creating Layer fire9/concat
I0731 09:10:22.914259 26796 net.cpp:444] fire9/concat <- fire9/expand1x1
I0731 09:10:22.914259 26796 net.cpp:444] fire9/concat <- fire9/expand3x3
I0731 09:10:22.914259 26796 net.cpp:418] fire9/concat -> fire9/concat
I0731 09:10:22.915258 26796 net.cpp:150] Setting up fire9/concat
I0731 09:10:22.915258 26796 net.cpp:157] Top shape: 25 512 9 9 (1036800)
I0731 09:10:22.915258 26796 net.cpp:165] Memory required for data: 406550200
I0731 09:10:22.915258 26796 layer_factory.hpp:77] Creating layer drop9
I0731 09:10:22.915258 26796 net.cpp:100] Creating Layer drop9
I0731 09:10:22.915258 26796 net.cpp:444] drop9 <- fire9/concat
I0731 09:10:22.915258 26796 net.cpp:405] drop9 -> fire9/concat (in-place)
I0731 09:10:22.916260 26796 net.cpp:150] Setting up drop9
I0731 09:10:22.916260 26796 net.cpp:157] Top shape: 25 512 9 9 (1036800)
I0731 09:10:22.916260 26796 net.cpp:165] Memory required for data: 410697400
I0731 09:10:22.916260 26796 layer_factory.hpp:77] Creating layer conv10
I0731 09:10:22.916260 26796 net.cpp:100] Creating Layer conv10
I0731 09:10:22.916260 26796 net.cpp:444] conv10 <- fire9/concat
I0731 09:10:22.916260 26796 net.cpp:418] conv10 -> conv10
I0731 09:10:22.918262 26796 net.cpp:150] Setting up conv10
I0731 09:10:22.919261 26796 net.cpp:157] Top shape: 25 10 9 9 (20250)
I0731 09:10:22.919261 26796 net.cpp:165] Memory required for data: 410778400
I0731 09:10:22.919261 26796 layer_factory.hpp:77] Creating layer relu_conv10
I0731 09:10:22.919261 26796 net.cpp:100] Creating Layer relu_conv10
I0731 09:10:22.919261 26796 net.cpp:444] relu_conv10 <- conv10
I0731 09:10:22.919261 26796 net.cpp:405] relu_conv10 -> conv10 (in-place)
I0731 09:10:22.919261 26796 net.cpp:150] Setting up relu_conv10
I0731 09:10:22.919261 26796 net.cpp:157] Top shape: 25 10 9 9 (20250)
I0731 09:10:22.919261 26796 net.cpp:165] Memory required for data: 410859400
I0731 09:10:22.919261 26796 layer_factory.hpp:77] Creating layer pool10
I0731 09:10:22.919261 26796 net.cpp:100] Creating Layer pool10
I0731 09:10:22.919261 26796 net.cpp:444] pool10 <- conv10
I0731 09:10:22.920264 26796 net.cpp:418] pool10 -> pool10
I0731 09:10:22.920264 26796 net.cpp:150] Setting up pool10
I0731 09:10:22.920264 26796 net.cpp:157] Top shape: 25 10 1 1 (250)
I0731 09:10:22.920264 26796 net.cpp:165] Memory required for data: 410860400
I0731 09:10:22.920264 26796 layer_factory.hpp:77] Creating layer pool10_pool10_0_split
I0731 09:10:22.920264 26796 net.cpp:100] Creating Layer pool10_pool10_0_split
I0731 09:10:22.920264 26796 net.cpp:444] pool10_pool10_0_split <- pool10
I0731 09:10:22.920264 26796 net.cpp:418] pool10_pool10_0_split -> pool10_pool10_0_split_0
I0731 09:10:22.920264 26796 net.cpp:418] pool10_pool10_0_split -> pool10_pool10_0_split_1
I0731 09:10:22.920264 26796 net.cpp:150] Setting up pool10_pool10_0_split
I0731 09:10:22.920264 26796 net.cpp:157] Top shape: 25 10 1 1 (250)
I0731 09:10:22.921264 26796 net.cpp:157] Top shape: 25 10 1 1 (250)
I0731 09:10:22.921264 26796 net.cpp:165] Memory required for data: 410862400
I0731 09:10:22.921264 26796 layer_factory.hpp:77] Creating layer accuracy
I0731 09:10:22.921264 26796 net.cpp:100] Creating Layer accuracy
I0731 09:10:22.921264 26796 net.cpp:444] accuracy <- pool10_pool10_0_split_0
I0731 09:10:22.921264 26796 net.cpp:444] accuracy <- label_data_1_split_0
I0731 09:10:22.921264 26796 net.cpp:418] accuracy -> accuracy
…
